Results/STOCKS/best_model_becker.pt (torch, 64031 bytes, 13 tensors)

conv1.weight f4 [6, 2, 3]
00000000: 0679 1bbf 1e2d 36bf f126 1fbe 1bf4 9dbe
00000010: d1f3 e1be 7fe2 fbbe 8b22 92bf 5eb4 61be
00000020: c19a 83be ac9d cbbd 1d9f 9b3e ad6a 553e
00000030: ad2f 0ebe 0f3b c43e bd37 a93c b027 d23e
00000040: c7c1 bb3e 1b28 0d3e ce49 433f e654 3d3e
00000050: 6656 2d3f 2a43 54bf 308c 8a3e d2e7 babd
00000060: c2bd a3be 4682 07be 93e8 bbbe 868a c33e
00000070: 26db 803e 0dd7 573f 68fe 0bbd 7e42 60bf
00000080: 8cb3 30bf 8278 f23d b80a e43d 3603 1cbf
-0.6073154 -0.71162593 -0.15542199 -0.308503 -0.4413133 -0.4919624 -1.1416792 -0.22041461
-0.25704005 -0.09942183 0.3039483 0.20841475 -0.13885374 0.38326308 0.02065646 0.41045904
0.36671278 0.1378483 0.7628449 0.18489417 0.6770996 -0.82914984 0.2706008 -0.091262475
-0.3198071 -0.13233289 -0.36700878 0.38191622 0.25167197 0.84312516 -0.034178168 -0.8760146
-0.69023967 0.11839391 0.11134857 -0.609424

conv1.bias f4 [6]
00000000: 4e23 0abe 1932 4dbc fd7d b7be e19f edbe
00000010: dfdd 95bd e96a abbe
-0.1349003 -0.012524151 -0.3583831 -0.4641104 -0.07317709 -0.33480003

conv2.weight f4 [3, 6, 3]
00000000: 7c97 4b3f 07d1 503f a92b b63e ef4c 99bd
00000010: 34d5 3e3e d012 ef3d 70d5 c2be a5de b8bd
00000020: 4876 cebe dbaf a2be 77ca 883e 2089 b1be
00000030: dc26 743e 3eaf febe c98a 1cbd 1a57 e93e
00000040: fda2 733e d7d6 c03e faed 7dbe 49f8 06be
00000050: a92c c83d 7475 d6bd 9de6 6abe df15 50be
00000060: 02e1 06bd 9e25 b03c c7d1 953d 43c8 683f
00000070: ef39 003f 39c6 293f a26d 273d 8f6c ce3e
00000080: 868c c23d 0097 c9bd e116 d6bb 9b78 5f3f
00000090: ebf8 e1bd 0795 7c3e 3108 abbd 1012 92be
000000a0: fcf5 133e 4418 b4bd 1206 973e bcdd 053f
000000b0: e82e c63e dcd7 3c3f 2210 403f 2bba 973e
000000c0: 0926 d9be 94a1 913e 41c9 c1be cfd0 c4bd
000000d0: d11d c43e 8f1a 243f
0.7952802 0.8156895 0.35580185 -0.07485377 0.18636018 0.1167351 -0.38053465 -0.09026841
-0.40324616 -0.31774792 0.26716968 -0.3467493 0.23842949 -0.49743074 -0.038218293 0.45574266
0.23792644 0.3766391 -0.24797812 -0.13180651 0.09774143 -0.10471621 -0.22939534 -0.20320843
-0.032929428 0.021502312 0.073154025 0.90930575 0.500884 0.6631809 0.04087604 0.403172
0.09499459 -0.09843254 -0.006533489 0.87293404 -0.110338055 0.24666224 -0.08351172 -0.28529406
0.14449304 -0.08793691 0.2949682 0.52291465 0.38707662 0.73766875 0.75024617 0.29634222
-0.4241183 0.28443587 -0.37848857 -0.096101396 0.38303998 0.64103025

conv2.bias f4 [3]
00000000: d79e a33e 8f6b 35bf fce3 1fbe
0.31957123 -0.70867246 -0.15614313

dense1.weight f4 [50, 290]
00000000: 2257 6ebe 934e 7fbe ff0c a6be 4b2f 7fbe
00000010: 54cf 9abe 38df 6dbe aea7 7ebe a969 a9be
00000020: 1366 8fbe a0b3 74be 4f16 8bbe 3dc3 9ebe
00000030: 51a9 79be 622c 8abe c545 96be f8bb 90be
00000040: fff3 a4be 68f3 90be 43b2 afbe 4d6c 75be
00000050: 5d17 a7be e20e 87be 368b 76be 30a0 72be
00000060: e6bf abbe e46e 8abe d26a a0be 6ea9 86be
00000070: 46d9 81be bbda 87be 56a7 79be 73ce 73be
00000080: 59cb a13e b070 0b3e ba6b 82be b61d 85be
00000090: c18e 1f3e 7f7e 1c3e f5ac 003e 2fe9 333e
000000a0: 4c49 263e 3982 273e 7081 cc3d bd15 9c3e
000000b0: c179 21be da33 85be de19 083f 8a52 bc3e
000000c0: d444 a13e 379a 74be baa0 9bbe 2f2d 8a3e
000000d0: 5547 863e 292a a73e 22a6 803e 319b 893e
000000e0: 30d1 8f3e 9725 7cbe 1779 a53e 513b 823e
000000f0: 4b02 853e fc2c 943e 001f 913e fe63 a33e
00000100: 72d6 bc3e 0941 8f3e 7876 88be 9996 64be
00000110: a30d 9fbe d075 81be d8b1 a2be ed18 9bbe
00000120: 216a a0be ca19 c83e 58b8 a2be 3d84 af3e
00000130: 6840 88be c8eb 863e a04d a6be 0169 90be
00000140: ecb7 a83e f767 c9be 4c68 8fbe 923b 72be
00000150: 2d2f 213e 769d 7dbe 4510 a4be 02e0 84be
00000160: 4474 833a e5f5 afbe 689b 7dbe 2681 613e
00000170: a274 a63e 97f3 9abe a5a2 893e 719b 7ebe
00000180: 66da 903e c8bc b63e 8bea a13e d75f 813e
00000190: c5e1 823e bcd2 a03e cbec 953e 5603 aa3e
000001a0: f91c 853e 5a5d 943e 7da2 993e efca 9a3e
000001b0: 3852 a03e a8b3 943e 542a 7e3e 98bd 953e
000001c0: ade6 943e e86c 913e 789c 9b3e 8e48 aa3e
000001d0: 2b5e b23e aab6 793e 86f9 983e 6f18 843e
000001e0: 80cc a03e b1ce 8f3e 2527 b53e 35ad a03e
000001f0: c11c b53e 4c5f 883e 6a88 b23e ab1b 823e
00000200: efb9 853e b0f4 ad3e 0109 ac3e d979 893e
00000210: e2f4 943e f9d3 90be 0b55 81be a561 85be
00000220: 0c76 88be fda0 90be 6af9 86be a5f2 903e
00000230: a3a0 a33e 4a6b 8a3e 2e5c 9f3e 4151 adbe
00000240: bd3c a7be 8bcf 93be edbb 9dbe 3a2d 953e
00000250: f9d4 813e 6cf6 89be a37a b2be 6d8e ab3e
00000260: 5144 90be df85 b0be 2c70 9fbe 1110 91be
00000270: 02cb 7cbe ccdf 96be bc81 b0be b976 98be
00000280: c61b 86be 336c a4be 086a 9ebe 2058 963e
00000290: bebd 7e3e 1de2 b13e a2ce 843e d048 983e
000002a0: 0d57 9c3e 4831 803e 5b07 a53e dc2c b6be
000002b0: a470 ad3e b696 a2be beae 993e 876a b2be
000002c0: 36b9 213e 39a9 88be b09c 4c3e bb5e 26bd
000002d0: 2aff 663e 7e87 89bd bbca a4bc f6d7 0f3e
000002e0: 05cf 36bf 9812 b53e 0c61 babe e598 98be
000002f0: e955 8abe b539 9ebe 342b 9abe 6c88 abbe
00000300: 9ad1 88be 2b9b 7ebe 3f5b a4be c533 90be
00000310: e3ba 93be c406 9dbe 7ef5 90be 697b a6be
00000320: bf52 76be 0ea3 80be f040 84be 8305 8cbe
00000330: 4a95 7dbe b057 8cbe 4699 a5be 2588 b1be
00000340: dff1 a2be 353c acbe 07c0 78be 2e13 7cbe
00000350: 2329 8fbe cae2 81be 2029 a2be 76bd 94be
00000360: 0a9c 78be 0039 8ebe f6f6 a3be 3fad 77be
00000370: f69a 93be 48e1 9bbe de05 89be f616 a6be
00000380: 1ec0 84be 781d 72be 66db 84be 71a2 78be
00000390: 9755 81be 3eba 91be e975 a2be d835 9abe
000003a0: 3541 79be 7b07 9cbe fd0a 83be ac44 a3be
000003b0: 1ecf 963e 3ef0 813e ae62 88be 1c1c 81be
000003c0: 7dcb 983e 2992 8c3e 0210 923e a5ed b73e
000003d0: 8416 863e baa0 8d3e dfa5 de3e 7587 b33e
000003e0: df84 863e 3357 84be a800 84be 59bc a33e
000003f0: 8405 b93e 2d63 b63e ebb0 78be 25ba 853e
-0.23275426 -0.24932317 -0.3243179 -0.24920385 -0.30236304 -0.23229682 -0.24868652 -0.33088425
-0.28007564 -0.23896646 -0.27165458 -0.3100833 -0.24380995 -0.26986986 -0.29350105 -0.2826841
-0.32217404 -0.28310704 -0.3431569 -0.23967095 -0.32635012 -0.26378542 -0.24076542 -0.23693919
-0.33544844 -0.27037728 -0.31331497 -0.2630114 -0.2536108 -0.26534066 -0.2438024 -0.23809223
0.31600454 0.13617206 -0.25472814 -0.2599923 0.155818 0.1528263 0.12565978 0.17569421
0.16238898 0.1635827 0.09985626 0.30485335 -0.15769102 -0.26016122 0.5316447 0.36781722
0.31497824 -0.23886953 -0.30396062 0.26987597 0.26226297 0.32649353 0.2512675 0.26876214
0.28089285 -0.24623714 0.32318947 0.2543588 0.25978312 0.2894057 0.28343964 0.31912225
0.3688236 0.27979305 -0.26652884 -0.22323073 -0.31065091 -0.25285196 -0.3177631 -0.30292454
-0.3133097 0.39082175 -0.31781268 0.34280577 -0.26611638 0.26351762 -0.32481098 -0.28205112
0.3295282 -0.3933713 -0.2800926 -0.23655537 0.15740652 -0.24767098 -0.32043663 -0.25952154
0.0010029157 -0.3436729 -0.24766314 0.22021922 0.3251086 -0.3026397 0.268819 -0.24863984
0.28291625 0.35690904 0.31624255 0.25268432 0.25562873 0.31410778 0.2928222 0.3320567
0.25998667 0.28977472 0.3000678 0.3023295 0.31312728 0.29043317 0.24820834 0.2924621
0.29082242 0.284034 0.30392814 0.3325848 0.3483747 0.24386087 0.2987787 0.2579989
0.3140602 0.2808738 0.35381427 0.31382146 0.353735 0.26635206 0.348697 0.25411734
0.2611842 0.33975744 0.3360062 0.26850775 0.2909308 -0.28286722 -0.25260195 -0.2605106
-0.26652563 -0.28247824 -0.26362163 0.28310123 0.31958494 0.2703498 0.31125015 -0.33851054
-0.32663527 -0.2886928 -0.30807438 0.29136068 0.25357798 -0.26945817 -0.3485919 0.335071
-0.2817712 -0.34477136 -0.31140268 -0.2833257 -0.24686816 -0.29467618 -0.3447398 -0.29778078
-0.26193064 -0.321138 -0.3094027 0.2936411 0.24877068 0.34742823 0.25938898 0.29743052
0.30535164 0.250376 0.32232174 -0.355811 0.33875 -0.31755608 0.3001613 -0.348469
0.15793309 -0.26691607 0.19981647 -0.040617686 0.22558275 -0.06715296 -0.0201162 0.14047226
-0.71409637 0.35365748 -0.36402166 -0.2980415 -0.2701867 -0.30903402 -0.30111086 -0.3350252
-0.26722413 -0.2486388 -0.32100865 -0.28164497 -0.2885352 -0.30669224 -0.28312296 -0.3251603
-0.24055003 -0.251244 -0.25830793 -0.27347955 -0.2476398 -0.2741065 -0.323435 -0.34674183
-0.31825158 -0.33639684 -0.24292003 -0.24616691 -0.27961072 -0.2536834 -0.31672 -0.29050797
-0.24278274 -0.27777863 -0.32024354 -0.24187182 -0.28829163 -0.30445313 -0.2676229 -0.32439393
-0.25927824 -0.23644054 -0.25948638 -0.24280716 -0.25260612 -0.28462404 -0.31730583 -0.30119205
-0.24341281 -0.30474457 -0.2559432 -0.3188833 0.29454893 0.25378603 -0.26637787 -0.25216758
0.2984275 0.2745526 0.28527838 0.35923496 0.26189053 0.27661687 0.43485925 0.35064283
0.26273248 -0.25847778 -0.2578175 0.31979635 0.3613702 0.3562254 -0.24286239 0.2611858

dense1.bias f4 [50]
00000000: f086 aabe cf97 113f 8f5e 643d 5678 b9be
00000010: df2c 903e 3e12 7d3e 9784 a13e 56a4 973e
00000020: 361c eabe 3257 64be 743b dc3e bd41 ff3e
00000030: 452a ec3e e530 623e 53ec 9a3e 9752 a43e
00000040: 9476 a63e b624 9d3e a2a5 823d 2196 cabe
00000050: 7548 d3be c6f3 053f ec1f 663c 1b1c ccbe
00000060: 4397 03bf 5087 a6be a947 a53e 1b1f 4f3e
00000070: 82e3 8dbe 640c 963e 0818 46bd b2e6 943e
00000080: f173 a8be c3de dbbe 005a 0cbf 4111 86be
00000090: f518 693d 9c65 adbe eb76 b03e 9897 793e
000000a0: c6cd fdbe 4a4d 933e ce6f b7be e825 8e3e
000000b0: d9f2 2fbe d80f be3e 4798 7abe cf30 c2be
000000c0: f213 983c e1a2 cf3e
-0.33306074 0.56872267 0.05575424 -0.36224622 0.28159234 0.2471399 0.3154647 0.29617566
-0.45724648 -0.22298887 0.4301411 0.49854842 0.46126 0.22088964 0.30258426 0.3209426
0.32512343 0.3069207 0.06379248 -0.39567664 -0.41266218 0.52325094 0.014045697 -0.39865193
-0.5140268 -0.3252511 0.32281235 0.2022671 -0.27712637 0.29306328 -0.04836276 0.29082257
-0.32900956 -0.4294339 -0.5482483 -0.2618504 0.056908567 -0.33866584 0.34465727 0.24374235
-0.49571055 0.28769904 -0.35827488 0.27763295 -0.17182483 0.37121463 -0.24472152 -0.37927863
0.018564198 0.40553954

dense2.weight f4 [1, 50]
00000000: acd4 3dbf ff29 7bbb ce05 883f 67f5 b9be
00000010: af3c 90bd f355 56be 8cc4 1ebe 4fa1 ba3d
00000020: 3135 22bf 7e42 bfbe f4d3 c1bd 958f 8e3c
00000030: b3d1 993e f79d 08bf 7e3c 8e3d 1244 473b
00000040: 7320 25be 2a60 7fbe 48fe 93be 32b0 453d
00000050: d02f 023e 3e8a cdbd f2ab 8fbf 5c63 e0ba
00000060: 921c a83d 49fb 9ebd 72fe e43d a3ea 7d3f
00000070: f29c a3bd a110 8d3e a2fd 90bf 0489 ac38
00000080: 586b 71bd c290 293f c732 47bf d2cc 84bf
00000090: 81ed 983f eca1 7bbd 411a 74bc fe92 2cbe
000000a0: 389a 9d3e 0cb1 de3c 1122 86be dd8e 81bd
000000b0: 1636 8ebf 07d0 7d3d 7c69 0a3f e6e7 b0bd
000000c0: f77e 77bf 22ad 9a3d
-0.74152637 -0.0038324592 1.0626771 -0.3632004 -0.070428245 -0.20931225 -0.15504664 0.091127984
-0.63362414 -0.37355417 -0.09464255 0.01740245 0.300428 -0.53366035 0.06945132 0.0030405563
-0.1612566 -0.24939027 -0.2890494 0.048263736 0.12713552 -0.10036133 -1.1224349 -0.0017119455
0.08208574 -0.077627726 0.11181344 0.9918615 -0.07988919 0.2755175 -1.1327403 8.22712e-05
-0.05894026 0.6623651 -0.77811855 -1.0375006 1.194748 -0.061433718 -0.014898838 -0.16852948
0.30781722 0.027184032 -0.26197866 -0.06326077 -1.1110256 0.06196597 0.54067206 -0.08637981
-0.9667811 0.07552554

bachnorm1.weight f4 [50]
00000000: 5738 703f cc2e f93e 3002 803f c25d 213f
00000010: 9e2a 033f 67a6 cfbd b26f d53e ac4a d63e
00000020: be01 c03e 27a3 703f 39b9 393f d65e 7f3f
00000030: 7a70 fc3e bcbe 173f 98f8 fc3e ca90 cb3e
00000040: 835a 273f 8df5 393f 4485 483f 6431 953d
00000050: b591 1d3f 0462 273f 0000 803f 94e9 403f
00000060: 41a4 ff3e 9840 053f 6e4d 843c cb2f 4c3f
00000070: b0ad 2c3f 3f7c a23f 0000 803f 7b65 0a3f
00000080: 5b82 0e3f cb61 c43e 8133 0b3e de70 1f3f
00000090: 0000 803f b65f 063f 44b8 b4bc ed0d 383f
000000a0: 4ed2 873e 7c16 8e3e 527d 343f 4797 203f
000000b0: ff23 a33f 8eb8 b33e 0252 3b3f 656f 073f
000000c0: 0000 803f a8ed 0a3f
0.9383597 0.48668516 1.0000668 0.6303369 0.51236904 -0.101391606 0.4168678 0.41853845
0.3750133 0.9399895 0.7254825 0.99754083 0.49304563 0.5927541 0.49408412 0.39758903
0.65372485 0.72640306 0.7832835 0.07284811 0.61550456 0.65383935 1.0 0.7535641
0.49930003 0.5205169 0.016150203 0.79760426 0.67452526 1.2694167 1.0 0.54061097
0.55667657 0.3835586 0.13593866 0.62281597 1.0 0.52489793 -0.022060521 0.7189625
0.26527637 0.2775153 0.70503724 0.6273083 1.274536 0.35101742 0.7317201 0.5290435
1.0 0.54268885

bachnorm1.bias f4 [50]
00000000: ea3c 503f ef53 c2be 6437 6ebf 66ed 1c3f
00000010: ad2b 9ebe 8623 383f c9fa af3e b0ec 42be
00000020: eeba 6f3f 7bba bb3e 1683 73be 1f24 9ebf
00000030: 6639 acbe 8138 4c3f f38f 02bf 7df0 dabe
00000040: 4f7f a33e c79f dfbe 8e65 403e 58e5 00bf
00000050: 4cb6 12bf 19fa e2be 76ad 5e3f f4d4 09bf
00000060: 5609 37bf aec9 d6be 3dcf 55be 04c1 c0bf
00000070: be66 b2be 85bd 8c3e 6797 983f 176c 03bf
00000080: 32f8 acbb 62fa 6abf 688b 4b3f 7812 693f
00000090: ab00 a5bf 7700 ac3e 769e 583b 8e56 6cbe
000000a0: bfab 60bf 8fa4 91be f43d 1f3f 808b e43e
000000b0: 8d7c 7b3f dede f2bd 7bff 41bf 43c3 f8be
000000c0: 4fec 7b3f 6bc6 983e
0.8134295 -0.3795466 -0.9305327 0.6129974 -0.30892697 0.71929204 0.3437102 -0.19035602
0.9364461 0.3666571 -0.23780474 -1.2354773 -0.33637542 0.7977372 -0.510009 -0.42761603
0.31933066 -0.43676588 0.1878874 -0.5034995 -0.5730941 -0.44331434 0.8698343 -0.53840566
-0.7149862 -0.41950744 -0.20879836 -1.5058904 -0.3484401 0.27488342 1.1921204 -0.51336807
-0.0052786106 -0.91788304 0.7950959 0.91043806 -1.2890829 0.33594105 0.0033053434 -0.23079893
-0.87762064 -0.2844586 0.6220391 0.4463768 0.98236924 -0.11858915 -0.7578046 -0.48586473
0.98407453 0.2983888

bachnorm_conv1.weight f4 [6]
00000000: 3599 243f 723b fa3e 9479 763f f683 e63f
00000010: 3aa3 4a3f 11cf 8b3f
0.64296275 0.48873478 0.96279263 1.8009021 0.79155314 1.0922567

bachnorm_conv1.bias f4 [6]
00000000: 961a d9be 0a79 263f 6ba1 233c c86b 54bf
00000010: e221 323f e0f4 5abc
-0.42403096 0.6502844 0.0099872155 -0.8297696 0.6958295 -0.013364047

bachnorm_conv2.weight f4 [3]
00000000: 6f95 973f 85fa c73f f46c d33e
1.1842479 1.5623327 0.41294062

bachnorm_conv2.bias f4 [3]
00000000: 6007 4ebf 916c 473f f643 68be
-0.80480003 0.77900034 -0.22682175
