Results/STOCKS/best_model_becker.pt (torch, 64031 bytes, 13 tensors)

conv1.weight f4 [6, 2, 3]
00000000: 92af 29be 3e67 d7be 337a c73d a4ca 823e
00000010: 7555 fd3e 27b7 c63e 4b71 c7bd 6311 49bf
00000020: 5f54 02be 7086 acbe 675c 4fbb 87a2 8f3e
00000030: bc50 80be 45fa c93e c8a1 413e 24a4 d23e
00000040: b53a 813e c492 9d3e 030d 113f 55ff bd3d
00000050: b9ae 9b3e 2ce4 f33d 7ed8 f73e 1285 23bf
00000060: ca24 d7be caaa be3d 9ca4 003f 79b4 2bbf
00000070: fd06 94be c564 9d3e b936 b6be e78a 773d
00000080: fd4c 10bf 3bc8 80bd 8109 cabe a4db 28bf
-0.16570881 -0.42070955 0.097401045 0.25545228 0.4947926 0.3881161 -0.09738406 -0.78542155
-0.12727498 -0.33696318 -0.003164077 0.28053686 -0.25061595 0.39448753 0.18909371 0.41140854
0.25240102 0.30776036 0.5666048 0.09277216 0.3040674 0.11908755 0.48407358 -0.63874924
-0.42020255 0.09309919 0.50251174 -0.67072254 -0.28911582 0.30740944 -0.35588625 0.060435202
-0.56367475 -0.06288191 -0.39460376 -0.65960145

conv1.bias f4 [6]
00000000: 1800 2c3d 7fc0 b0bb 4814 08bf 83bf cabe
00000010: e5d5 803e 7f5a 91be
0.041992277 -0.005394041 -0.53155947 -0.39599237 0.2516319 -0.28389356

conv2.weight f4 [3, 6, 3]
00000000: 08a3 bb3e 29e1 cc3e a363 b03e 70e9 893e
00000010: 808a 9c3e a324 843e 5833 993e 9683 073f
00000020: e40d 1e3e e2d7 87be 7c02 8b3e 4b35 663e
00000030: 6632 bc3e d1f0 11be aa5b 92bd 4c7e 63be
00000040: 5043 64bd 0c60 113f f320 373f 9cbc 853e
00000050: 1117 463f 9097 6f3e ab9c 713d b5de c43e
00000060: d1f0 e13e 13c9 9f3e ae07 fd3e 296b 6bbe
00000070: 2b81 86be f830 75be f2fc 453d 4a3e 9bbe
00000080: a533 22be 2db3 88be f033 20be df2e febe
00000090: 2547 ffbe 62bc 39be 0780 dfbe 6e03 d6be
000000a0: 73c4 eebd 0a89 02bf d077 94be 36ac 31be
000000b0: 69ac 86be 2fc7 1abe deb5 dcbd a0cc a3be
000000c0: eaaa ecbe 3180 46be 584e 00bf f0aa 863e
000000d0: 47d4 4a3e 5054 f1be
0.3664782 0.40015534 0.34451017 0.2693591 0.30574417 0.25809202 0.29921985 0.5293516
0.15434986 -0.26531893 0.27150333 0.22481267 0.367572 -0.1425202 -0.0714639 -0.22216147
-0.055728257 0.5678718 0.7153465 0.2612046 0.77378947 0.2339766 0.0589873 0.38451162
0.4412904 0.31208095 0.49419922 -0.22990097 -0.26270422 -0.23944461 0.04833693 -0.3032096
-0.15840013 -0.266992 -0.15644813 -0.49645135 -0.49858966 -0.18138269 -0.43652365 -0.41799492
-0.116585635 -0.50990355 -0.2899766 -0.1735085 -0.26303414 -0.15115045 -0.10776876 -0.31992054
-0.46224147 -0.19384839 -0.50119543 0.2630229 0.1980754 -0.47134638

conv2.bias f4 [3]
00000000: 1270 143e 0d0e 49bc 75ac 923e
0.14495876 -0.012271416 0.286472

dense1.weight f4 [50, 290]
00000000: 6a27 173f 2cc6 093f 2c22 123f 7667 e23e
00000010: a171 073f 8f5e 263f b798 1a3f eeb4 b23d
00000020: 5f1f fc3d 0455 213f f283 183f 7a2e 0b3f
00000030: 32f8 1a3f 3587 5e3e c397 7a3e 08bb f53e
00000040: a29a 623e c77c fdbd b4bd b3bd 1f91 d93d
00000050: 0f87 323e af6d 313d 6734 b33d 70b1 733b
00000060: 4bbf 14be 950d 80be f732 85be 02d7 3d3e
00000070: 0b00 253e e3f5 063d 58c1 90be b539 a5be
00000080: 34cf c2bb 63ce f43d 6426 05be 72e8 36bd
00000090: fc75 843d c07f 083d 6b0d 78bd 9490 d23d
000000a0: f9c6 553d 8937 173c a087 51be 05ef 68be
000000b0: 9495 63bd c10b 18be 6a8a abbd 10d4 a6be
000000c0: caf7 acbd fc5b 99bd a741 13be acd5 6b3c
000000d0: cf67 f0be d6f0 74be 1011 0abe 9ae4 f1bd
000000e0: a665 80be a665 873a 75f9 8ebe 91cb e3be
000000f0: dfb1 3fbd 59b0 39be 41dd 4abe b625 0bbe
00000100: a387 93be bc0b 4bbe d73a b1be 0392 1dbe
00000110: 51ae 46be 3c56 00be 0856 a8be 9870 b7be
00000120: c4d2 d1be d7e1 a9bd 3ede 84be 744a 17bf
00000130: be5b 22be 0e4a 84be 8fc7 9ebe 5288 a53c
00000140: de72 f73c 1304 12bf 7331 043d 3a4f 1d3e
00000150: cef6 9a3e f7a5 7d3e 1cab cebe adad 81be
00000160: cc8b ac3e 9c23 8d3e b04f 85be dd9e a63e
00000170: e81f 87be bf6e 953e a36c 8d3e cdbe 81be
00000180: 1714 b63e 6db7 da3e 3a07 c43e 96c6 a83e
00000190: 26b6 af3e 2050 cf3e a1f6 ca3e 02d1 c63e
000001a0: 94db 863e dc0f c43e 6189 d83e 30ac d43e
000001b0: 2450 d43e a42a c43e 0043 a63e eeb0 ab3e
000001c0: cd89 9e3e 4e4e 6c3e 7d91 443e 3071 833e
000001d0: 1cd5 913e 6cb5 263e c085 5d3e 2f3c 193e
000001e0: 35e4 293e b19f 2b3e 983f 363e f565 023e
000001f0: 8afd a0be 3b05 0f3c 1da1 9d3d 2268 78bd
00000200: ced4 33bd 26a5 a1be c27d e5be a12f 65be
00000210: 433d e5be 1a5f e0bd 8a54 8a3c b0f9 22be
00000220: 1222 a33d 5a8f fa3c cf34 cebe 6ebf 13be
00000230: b5b0 efbe 89a6 d1bd 2102 86bc 666a 9bbd
00000240: 008e 7cbd 0d43 65bd a2b0 10be cd80 44be
00000250: 04bb 01be 6a86 f7be 0937 63be 5551 60bd
00000260: 5b51 03be f203 58be 1b91 58be 07f3 0dbe
00000270: ce68 1fbd 97f7 85bd 5599 dabd fa01 abbd
00000280: 4404 fdbd bcae 72be d3f2 1dbe 721f fcbd
00000290: 2b2c 3abe cc04 04be 19b6 92be bd5a 96be
000002a0: 6566 4bbe c731 42be b5ec 19be 4100 40be
000002b0: 602b 4fbd 5672 15be f7d3 3abd e1d7 e43c
000002c0: 19d4 d6bb fb00 9e3d b442 c13d 1f5b 913c
000002d0: df06 1bbc f72c 6d3c ad04 253d 13e2 943e
000002e0: d1c9 713e 2446 af3e 982d 83be 10d8 b43e
000002f0: 83b6 b43e 375d 983e 7dd1 a53e cb0a 8a3e
00000300: 7eed dcbe f1cf d8be 9902 00bf 4c2b ecbe
00000310: 8f3d f5be e98c debe 4b40 d2be 8210 03bf
00000320: 0f73 d9be 8ab4 dbbe dcad e0be 7d7e dbbe
00000330: 5bc6 cdbe 6efb dbbe f952 f2be 53f2 d7be
00000340: 5309 c5be 9b1f d1be 1664 a3be 9a5a 9fbe
00000350: e1cf b1be 3039 9ebe b864 bebe 2f39 b0be
00000360: 6a9b 95be 9913 93be eab6 abbe 5b73 bf3d
00000370: d4fa 673d ec1f dd3e b35b e13e 8fec ac3e
00000380: 8fd1 c5bd c0a4 783d c077 123e dfe7 a83e
00000390: 43de ac3e 1050 6c3d b905 a5bd 7caa a6bc
000003a0: 38e6 a23d 8c4c 9b3d 5ea3 173e 0dc6 253d
000003b0: e4e1 fb3d 6eb4 d13e f1db fc3e f26f 6d3d
000003c0: 1819 cf3d 4224 d93e 2320 dc3e b77b 1c3f
000003d0: ffc5 033f 70f4 063f 81ef ae3e d8a8 c93d
000003e0: 4cea 23bd dfc0 da3c 3329 1a3d b62e 9a3d
000003f0: cd04 c63d 278c 8e3e e0d5 c23e 784c 1e3e
0.59044516 0.5381801 0.5708339 0.4421956 0.5290776 0.64988035 0.60389274 0.08725916
0.12310671 0.6302035 0.5957633 0.5436779 0.60534966 0.21731265 0.24471955 0.47994256
0.221293 -0.12377315 -0.087764174 0.10623383 0.17434333 0.043317493 0.08750229 0.0037184618
-0.14526097 -0.25010362 -0.26015446 0.1853905 0.16113298 0.03294934 -0.2827251 -0.3227059
-0.0059451107 0.11953428 -0.13002926 -0.04465527 0.06467816 0.033324957 -0.06055967 0.10281482
0.05219171 0.009229549 -0.20461893 -0.22747429 -0.05556257 -0.14848234 -0.0837601 -0.32583666
-0.084456995 -0.07488248 -0.14380513 0.014394205 -0.469542 -0.23919997 -0.13483071 -0.118111804
-0.25077552 0.0010329976 -0.27924696 -0.44491246 -0.04680049 -0.18133678 -0.19810964 -0.13588604
-0.2881442 -0.19828695 -0.34615204 -0.1538773 -0.19402434 -0.12532896 -0.32878137 -0.3582809
-0.40981114 -0.08295029 -0.25950807 -0.5909798 -0.1585531 -0.2583775 -0.31011626 0.020206604
0.03020614 -0.57037467 0.03227372 0.15362254 0.30266422 0.24770342 -0.4036492 -0.25327817
0.33700407 0.2756623 -0.2603736 0.32543078 -0.2639153 0.29186055 0.27621946 -0.25340882
0.35562202 0.42718068 0.38286763 0.3296401 0.34318656 0.40490818 0.39641288 0.38831335
0.263394 0.3829335 0.42292312 0.4153762 0.41467392 0.38313782 0.32472992 0.33533424
0.3096451 0.23076746 0.19196124 0.25672293 0.28482902 0.16280144 0.21633053 0.14964364
0.1659096 0.16760136 0.17797697 0.12734206 -0.31443435 0.008729274 0.076967455 -0.060646184
-0.04390412 -0.3157131 -0.44822508 -0.2238145 -0.447733 -0.10955639 0.016886014 -0.1591556
0.07965483 0.030585933 -0.40274665 -0.14428493 -0.46814504 -0.10236842 -0.016358437 -0.07588653
-0.06165886 -0.055972148 -0.1412988 -0.19189759 -0.12668997 -0.48344737 -0.22188963 -0.054765064
-0.12824003 -0.21095255 -0.21149103 -0.13862239 -0.03891831 -0.06541365 -0.10673777 -0.083499864
-0.12354329 -0.23699468 -0.15424661 -0.12310685 -0.18180911 -0.12892455 -0.28654554 -0.29366103
-0.19863279 -0.18964301 -0.15031703 -0.18750097 -0.050578475 -0.14594397 -0.0456123 0.02793497
-0.0065560457 0.07715031 0.09436551 0.017743645 -0.009462087 0.0144760525 0.040287662 0.2907873
0.23612143 0.342332 -0.25620723 0.35321093 0.35295495 0.29758617 0.3238639 0.2696136
-0.43149942 -0.42346147 -0.50003964 -0.46126783 -0.47898528 -0.4346688 -0.41064677 -0.51197064
-0.42470595 -0.42911178 -0.43882644 -0.4286994 -0.40190396 -0.42965263 -0.47328928 -0.42177066
-0.38483676 -0.40844426 -0.31912297 -0.3112381 -0.34728912 -0.30903006 -0.37186217 -0.34418628
-0.29220134 -0.2872589 -0.3353799 0.09348174 0.056635693 0.43188417 0.44015273 0.3377423
-0.09659111 0.060703993 0.14303493 0.32989404 0.33763322 0.05769354 -0.08057732 -0.020344965
0.07954067 0.075829595 0.14808413 0.04047208 0.122989446 0.4095797 0.49386552 0.057968087
0.10112208 0.42410475 0.42993268 0.61126274 0.51473993 0.5271673 0.34167102 0.098466575
-0.040018365 0.026703296 0.037636947 0.07528441 0.096688844 0.27841303 0.380538 0.15458858

dense1.bias f4 [50]
00000000: c7d4 b6be bed5 823e f526 613d f957 5d3e
00000010: 650d 8b3e effc a03e f3b7 943e 3095 3d3e
00000020: 7ad5 97be 84fe bb3e b53b d23e 1141 a83e
00000030: 0530 833e 1744 a1be 7a00 cbbe 37d2 033f
00000040: 99f3 afbe 4d40 873e c2af 833e bab1 63be
00000050: 5d20 8abe 4d2e a63e e6de e03e f3b6 e6be
00000060: a27a a03e 9ca6 ab3e a0e5 8f3d cb56 a63a
00000070: 2529 9dbe 34de 863e 0818 46bd 2995 92be
00000080: ce0a b7be c57b 96be 87a9 85be ba59 abbe
00000090: 4fa0 4dbe 16ba 303e 18b9 a53e ce0c 643e
000000a0: 0c29 8d3e 097b abbc 183d a23e 9517 8e3e
000000b0: ab0c debc a79e 50be 2676 60be 7ab6 afbe
000000c0: f213 983c a8dc 2e3e
-0.3570921 0.25553697 0.054968793 0.2161559 0.27158657 0.31442973 0.29046592 0.18513942
-0.29655057 0.36717618 0.41061178 0.32862142 0.25622573 -0.3149726 -0.396488 0.5149264
-0.34365538 0.26416245 0.2572003 -0.22235766 -0.26977816 0.324572 0.43920058 -0.45061454
0.3134356 0.3352555 0.07026219 0.0012690661 -0.30695453 0.26341403 -0.04836276 -0.28629425
-0.3575043 -0.29391304 -0.26105902 -0.33466893 -0.20080684 0.17258486 0.32367778 0.2227051
0.2757038 -0.020932691 0.31687236 0.27752367 -0.02710565 -0.20373021 -0.2192007 -0.34318906
0.018564198 0.17076361

dense2.weight f4 [1, 50]
00000000: 1fba 39be 912c 063e 4fa7 1f3f dc59 ebbd
00000010: 5d42 abba fad1 54bd 4a95 c7bd 293b 4b3d
00000020: f89f fabd f4ef 2fbe 598f a13c 78a2 073c
00000030: 20e1 cc3d 7625 f1be 4538 b7bd 03ee 353e
00000040: c3c9 153d 7da5 873c 6ac2 c1bd 63ea 07be
00000050: 91ae ddbe 0748 2d3e 289e adbc bd98 7e3d
00000060: 0d6f 26bd 3f59 c4bc 64b4 d43d 110c 1f3f
00000070: 1cd7 ab3c b83c 4fbd 1d52 22bf f595 91bd
00000080: 53cf 343f bfae a33d fce3 c0be d38c 29bf
00000090: 8d08 1f3f a4f0 c6bd 6902 db3c 7815 1e3d
000000a0: ac50 26be 9e50 d43c 6038 cb3c b2de ac3d
000000b0: 511d 2ebe 9fc9 3abe 73cb 8e3b 7407 4b3c
000000c0: aecc 1fbf 3344 7f3d
-0.18137406 0.13102938 0.6236467 -0.11491749 -0.0013066042 -0.05195806 -0.097452715 0.049616966
-0.12237543 -0.17181379 0.019721674 0.008278482 0.10003877 -0.47098893 -0.089462794 0.17766576
0.036569368 0.016558403 -0.0946091 -0.13273005 -0.43297246 0.16922008 -0.021193579 0.06215738
-0.04063325 -0.023968337 0.10385969 0.62127787 0.020976596 -0.050595015 -0.63406545 -0.0710868
0.7062885 0.079923145 -0.37673938 -0.66230506 0.6212242 -0.09713867 0.026734548 0.038594693
-0.16241711 0.025917348 0.024807155 0.08440913 -0.17003371 -0.18240975 0.004357749 0.012391914
-0.6242169 0.0623209

bachnorm1.weight f4 [50]
00000000: add3 2f3f f191 da3e 0000 803f 2dee ac3e
00000010: b47b 0e3f 4f4d d23e ae32 b53e f36d e53e
00000020: f484 433f 0898 9a3d 1db2 043f 30fe 143f
00000030: e2f5 ec3e 96d3 cf3e cf65 2f3f 2daf 033f
00000040: 25b5 343f 6acf 0c3f a492 fd3e dc0c ed3e
00000050: 3227 4d3f d76a 633e 776b 043f c80b 2e3f
00000060: 8449 983e 0f96 063f 3a86 0f3f 89c6 7f3f
00000070: 8b1b f03e 7b59 0b3f 0000 803f 66e2 363f
00000080: a76e a63f 755c 2b3f 4080 253f 9d3c 643f
00000090: 4204 3e3f 05ee f63e 9d65 dd3e a285 153f
000000a0: d466 fa3e d12f 103f 0e1c fa3e 0046 3a3f
000000b0: a9a7 d83e ead9 073f 4cc2 4a3f c2c8 c23e
000000c0: 0000 803f 3708 023f
0.68682367 0.4268947 1.0 0.33775464 0.55657506 0.41074607 0.35390228 0.44810447
0.76374745 0.07548529 0.5183428 0.5820036 0.46281344 0.40591115 0.6851472 0.5143917
0.70588905 0.5500399 0.4952594 0.46298873 0.8013793 0.22208725 0.5172648 0.67986727
0.29743588 0.5257272 0.5606419 0.99912316 0.46896014 0.5443341 1.0 0.71439207
1.3002518 0.66937953 0.6464882 0.8915499 0.74225247 0.4822847 0.43241587 0.5840703
0.48906577 0.5632296 0.4884953 0.7276306 0.42315415 0.53066885 0.79202724 0.3804379
1.0 0.50793785

bachnorm1.bias f4 [50]
00000000: 2e24 fb3e b4e9 b7be 0ae9 1bbf a25b e73e
00000010: 1332 dfbe df7f 193e 0d2a cd3e cf2b 773e
00000020: a7b7 103f 1a0a 083e 5ba4 d2be 092b e7be
00000030: 256e 4b3a f178 193f 826d 5b3e a43c ecbe
00000040: 2375 9d3d 841b bebe f031 d23e 01e1 dfbe
00000050: 1bb3 293f 6a04 79be 1cac 113f 8742 13bf
00000060: 7dad 163e 9c6a c6be 778b 51be 114c 3cbf
00000070: 2a04 9ebe 03d3 bc3e 9665 333f a737 0dbf
00000080: f02e 27bf db2d a9be 9541 413f 0309 223f
00000090: d66d 39bf 4ec5 623e fab3 e4be 9910 bdbe
000000a0: 0974 eebe c6cc b1be 36fb ed3e a7af 093f
000000b0: 7714 353f 5528 f93e ffb5 14bf 7368 fabe
000000c0: b847 2a3f 0e2a d53e
0.4905104 -0.3592049 -0.60902464 0.45187098 -0.4359289 0.14990185 0.40071145 0.24137805
0.5653023 0.13285103 -0.41141018 -0.4515002 0.0007760248 0.59950167 0.21428493 -0.46140015
0.07688358 -0.37130368 0.41053724 -0.43726352 0.6628892 -0.2431809 0.56903243 -0.5752339
0.14714618 -0.38753211 -0.20463358 -0.7355357 -0.30862552 0.3687974 0.7007688 -0.55163044
-0.65305996 -0.33042797 0.75490695 0.63295 -0.7243322 0.22145578 -0.4466856 -0.36926726
-0.46572903 -0.34726542 0.4648072 0.5378365 0.7073435 0.48663583 -0.58090204 -0.48907813
0.66515684 0.41633648

bachnorm_conv1.weight f4 [6]
00000000: 5874 bc3f 2e10 f73e cc37 483f 11e8 263f
00000010: 8123 853f 9d35 a03f
1.4723005 0.48254532 0.7821014 0.65197855 1.040146 1.2516361

bachnorm_conv1.bias f4 [6]
00000000: 9e0c 06bf 4df7 49be 27ce d6be 717c 59be
00000010: bde6 13bd 998f 033d
-0.52363 -0.19723244 -0.41954157 -0.21238877 -0.03610872 0.032119367

bachnorm_conv2.weight f4 [3]
00000000: 18dc 543f e22e 933f 6713 623f
0.83148336 1.1498682 0.88310856

bachnorm_conv2.bias f4 [3]
00000000: 4bbf 903e 04b1 fcbd fd82 edbe
0.28270945 -0.123384506 -0.46389
