Results/STOCKS/best_model_becker.pt (torch, 64031 bytes, 13 tensors)

conv1.weight f4 [6, 2, 3]
00000000: 6d36 b23e 7c71 c8be b40d 113e 0185 233f
00000010: 947b 56be 16a4 9fbd 0e7e 4a3d 3186 79bf
00000020: 5338 bbbe 25b1 2b3e ef0f 333e 66f4 dc3e
00000030: 0a82 eabd c1dc aebd b96f 123f e20c 683e
00000040: 89ab 613d b0ac df3e 7336 083f 53b6 ff3e
00000050: 03a5 04bf 28b6 bbbd 51cc cc3d a5f4 81be
00000060: ec0f 573e d381 3dbf e4f7 b93e fce1 1d3e
00000070: 89d3 53be eb14 5c3e 71ff 20bf 611e ad3d
00000080: 99e0 cbbe f56b 5c3e 853e 203f a0c1 7d3e
0.3480715 -0.39149082 0.14165384 0.6387482 -0.20945579 -0.07794969 0.04943662 -0.97470385
-0.3656641 0.16766794 0.17486547 0.4315521 -0.11450584 -0.08538199 0.57201725 0.22661164
0.05509523 0.43686438 0.5320808 0.4994379 -0.5181429 -0.09165603 0.09999908 -0.2538196
0.21002167 -0.7402622 0.36321938 0.15418237 -0.20686163 0.21492355 -0.6288977 0.0845306
-0.39819792 0.21525557 0.625954 0.24780893

conv1.bias f4 [6]
00000000: 6bab 683e e1c5 09bd 4672 32bf 8776 5dbe
00000010: f9ac 733e 5b0c 9bbe
0.22721641 -0.033635978 -0.6970562 -0.21627246 0.23796453 -0.30282864

conv2.weight f4 [3, 6, 3]
00000000: 1d06 d1be 4c53 afbe 5381 02bf 8c07 92be
00000010: 7188 e0be 86c7 91be 7d2c dbbe fb41 c8be
00000020: 6b73 ccbe 83ef cabe 984e dfbe 3bb4 a2be
00000030: b0f2 b1bd 8992 94bd e60d 13bf 02b7 e9be
00000040: 039f 12bf 75db 54be 8669 e03e d590 2b3e
00000050: 3c55 bb3e ad1e bebc 436b 533d c484 9a3e
00000060: 34ed 22bc 7364 d93d 018f f13e 1c38 0c3f
00000070: 1fdf a4bd 9832 1d3f 6870 b2bd 76bd d63e
00000080: 11f6 1fbe 48ed e83d 4259 b6bc 1ed3 27bd
00000090: 7ca9 a53e dd8b 1a3f efff 36bd 9c44 893e
000000a0: c8ed ff3d 5570 19be 5f38 a03e 7b57 1a3f
000000b0: 7dce 943e 20be bf3e da48 d0be d5b9 a7bd
000000c0: 46c1 88bd 9dd2 1b3e 8bc8 2e3c ea5c 0f3e
000000d0: fc44 32be 112f e6be
-0.40824977 -0.34243238 -0.50978583 -0.28521383 -0.43854097 -0.28472537 -0.4280738 -0.3911284
-0.39931807 -0.39635858 -0.4361465 -0.3177813 -0.08688867 -0.07254512 -0.5744308 -0.45647436
-0.5727388 -0.20786841 0.43830508 0.16754468 0.36588466 -0.023207987 0.051615965 0.30179417
-0.009944249 0.10614862 0.47179416 0.54773116 -0.080503695 0.61405325 -0.08712846 0.41941422
-0.1562121 0.11373383 -0.022259358 -0.04097282 0.3235587 0.60369664 -0.04467767 0.26810157
0.12496525 -0.14984258 0.31293008 0.60289735 0.29063788 0.3744974 -0.4068058 -0.081897415
-0.06677489 0.15217061 0.01066793 0.14000288 -0.17409128 -0.44957784

conv2.bias f4 [3]
00000000: 64eb 213f d2e3 a33e e218 a13c
0.632498 0.3200975 0.019665185

dense1.weight f4 [50, 290]
00000000: 63ed 9f3e f556 9b3d 44c7 dbbe 6c70 09bf
00000010: 2528 6dbe 65cd fcbd cba4 02be a1b3 4b3e
00000020: 3bd9 aebd 228c 8cbd 4e35 b9be f591 e53c
00000030: ef9e c33e edba 89bc 706e eabe 5873 243e
00000040: 38ec 0bbf ebb9 d5be 0a96 2b3e 1c08 b33e
00000050: de3a efbe aac7 843d a87e 583d 1280 97be
00000060: 9737 7b3d f7a2 9cbe eb68 bcbe 5f96 353e
00000070: de8d 5a3e 8678 f73d 3b82 b03e 2c8a 2b3e
00000080: 64d0 70be 95b7 58be bf52 66be a99c b6bd
00000090: 9a58 06be 88dc 57be d88b 2a3e fc04 d8be
000000a0: 730a bcbe cca2 8dbe 5b9a f9bd a164 3d3d
000000b0: 7979 e83d 28ec a9be b6c3 62bd 6359 09bd
000000c0: 4cd7 6fbe ef93 823e 1883 bb3d 317a 49bd
000000d0: e9d3 a83e 45c0 f63e 9dda 8abe eb44 9dbe
000000e0: 8129 19be b251 e0bc a269 df3d 0c87 21be
000000f0: 31a2 8dbe 117d 88be 1817 75be a08e b0bc
00000100: 2d0c 9ebe d13b c7bd abb9 153e b493 d1bd
00000110: 3a92 8dbe 4fe4 86be 28f5 edbe 21e8 3fbe
00000120: e63a b6be 46b9 8fbe 4375 f4be 8caa cbbe
00000130: 90f1 ccbe f341 f3be 1246 08be 5580 fbbc
00000140: a66a ebbe 50ad e43d d073 163c e72e b1bd
00000150: d1a6 28bd 1f5e a0be 38ea 203e 40ca 37bd
00000160: 6505 bcbe 0a00 debe fbb7 06bf 46ea 09bd
00000170: bd0f d2be 9ccd f5be 2615 91be fb89 523e
00000180: 36e7 8e3e 2fa3 45be 2ad7 893e 3661 adbe
00000190: 3756 463e f939 b4be 07cd c4be 5f62 83be
000001a0: ff8a b1be 826e acbe c8e7 b23c 96d1 b3be
000001b0: b0a6 9f3e 01aa c3be e733 613e 850b 43be
000001c0: 0478 043f da44 66bd 242b 30be 2f83 97be
000001d0: ada2 93be 852f d53e b3d0 803e d8e5 5d3e
000001e0: c86a c13e 2976 01be 57d1 d4be 5683 3a3e
000001f0: ac03 d8be d2c6 b3be 1fe0 3a3e 13e5 f6be
00000200: 6dbd 2b3e 5679 a83e f8c3 b2be db78 983e
00000210: 4527 70bd de1a 96bd 2eaf 3e3d 7354 5b3e
00000220: c3c4 a73e 7d32 25be 7850 323e 6f96 82be
00000230: a212 d8bd cbf6 083d 1da8 e03e 3442 98bc
00000240: 258d 303e f669 d4be e1e3 97be 9fdf e5be
00000250: d495 8abe c112 e4be 230f aabe a472 dcbe
00000260: 239a 853e 916b fabe 5438 c43e d6fa 14be
00000270: 5fb0 d63d 2467 8c3e 0ef1 bb3e 12d2 c23e
00000280: 2808 be3e 0b53 413e 9f92 c73e 7941 38bd
00000290: 549a e23e 4cdc a63e 1e88 d33e 7602 abbe
000002a0: aa27 c83e bbe3 d6be 60f5 d33e da64 9f3e
000002b0: 1971 fc3d 8448 db3e b24d ddbd abaa dd3d
000002c0: 88fb 343e 1968 b63e 3d56 b73e ff52 223e
000002d0: 86dd b93c e3a1 473e 1ea7 d63e eeb6 233f
000002e0: 9edc e63e 23f3 023f 89ef 123f d177 d03e
000002f0: 754e eb3e dbc8 843e fee8 923d 19cf ccbd
00000300: ccfb 63bd 8d19 723d a673 403e 7070 713c
00000310: 3878 dfbe 3ece d9be 3dc4 9fbe 6b8d c3be
00000320: 4fd4 9bbe 840d 44be d0ea 21be 457f 693e
00000330: 298c 32ba 2cf6 94bc 58e2 acbe 32f9 d1be
00000340: 69b6 2f3e aadd 7d3e 1b01 ae3d c913 96bd
00000350: 8005 34be 785e 8b3e 921b ad3e 3f7d cd3e
00000360: 2689 be3e a5f7 033f a86c a83e deef 173e
00000370: fadb 013f ae3b 013f 9182 f63e 5ce0 7d3e
00000380: da24 d73e bb29 813e 32f2 b9bd b1ca 82bd
00000390: 987b cfbd cc1e 4abe 8e38 40be eb36 53bb
000003a0: 5c64 cbbd 6633 d83c d80e f23d c62b c63d
000003b0: 5457 df3d ecc5 8dbd 6262 10bc 15ea 863e
000003c0: 5446 e53e ae0c e43e ea7e f93e 1bef 053f
000003d0: 49bc b23e 2e47 d83d 1a23 083e 5752 8d3e
000003e0: 5eb4 ebbb 8da4 8c3e ca4d dc3e 8b12 e23e
000003f0: 885b d13e 4a6a b93e c5d8 de3e 27ee ad3e
0.312358 0.07584945 -0.42925465 -0.5368717 -0.23159845 -0.123438634 -0.12758176 0.19892742
-0.08537527 -0.06862666 -0.3617348 0.0280237 0.38207194 -0.016812766 -0.45787382 0.16059625
-0.54657316 -0.41743407 0.16756454 0.34967124 -0.467246 0.064833954 0.052855164 -0.29589897
0.06133231 -0.30593082 -0.36798796 0.17733143 0.2134318 0.12083535 0.34474358 0.16751927
-0.23516995 -0.21163781 -0.22492503 -0.08916599 -0.13119736 -0.2108022 0.16654909 -0.42191303
-0.36726722 -0.27663267 -0.12187644 0.046238545 0.11351294 -0.33187985 -0.055362426 -0.03353251
-0.23421973 0.2550349 0.091558635 -0.049188796 0.32974175 0.48193565 -0.27119914 -0.30716643
-0.14957239 -0.027382705 0.1090882 -0.15774173 -0.27662805 -0.26657918 -0.23934591 -0.021552384
-0.30868664 -0.09728206 0.14621608 -0.1023325 -0.27650625 -0.2634606 -0.46476102 -0.18740894
-0.3559181 -0.2807104 -0.47745714 -0.39778554 -0.40028048 -0.47511253 -0.1330798 -0.030700842
-0.45979804 0.11165869 0.009182885 -0.08651524 -0.041174714 -0.3132181 0.15714347 -0.044870615
-0.36722866 -0.43359405 -0.5262448 -0.033670686 -0.41027632 -0.4800843 -0.28336447 0.20560448
0.27910775 -0.19300531 0.2692197 -0.3386323 0.19368826 -0.3520048 -0.38437673 -0.2566099
-0.34676358 -0.3367806 0.021839038 -0.3512084 0.3118186 -0.3821564 0.21992455 -0.19047363
0.5174563 -0.056218006 -0.17203957 -0.29592273 -0.2883505 0.41637817 0.25159225 0.2166971
0.3777678 -0.12642731 -0.41565964 0.18214163 -0.421903 -0.35112625 0.18249558 -0.48221645
0.16771479 0.32905072 -0.34915137 0.29779705 -0.0586312 -0.07329343 0.046553783 0.21418934
0.32767305 -0.16132541 0.17413509 -0.25505397 -0.10550429 0.033438485 0.4387826 -0.018586256
0.17241342 -0.41487092 -0.29666045 -0.44897172 -0.27067435 -0.44545558 -0.33214673 -0.43056214
0.2609416 -0.48910192 0.38324225 -0.14548811 0.10482859 0.2742244 0.36707348 0.38050896
0.37115598 0.18879335 0.3897905 -0.044984315 0.44258368 0.32589948 0.41314787 -0.33400315
0.3909276 -0.4197062 0.41398144 0.3113163 0.12326259 0.42828763 -0.10805835 0.10823568
0.17674077 0.35626295 0.35807982 0.15851973 0.022688638 0.19495349 0.41924375 0.63951004
0.45090193 0.5115225 0.5739675 0.40716413 0.45958295 0.2593449 0.07173346 -0.10000438
-0.055660054 0.0591064 0.18794116 0.01473628 -0.43646407 -0.42540163 -0.31204405 -0.3819383
-0.30435416 -0.19145781 -0.1581223 0.22802456 -0.00068110466 -0.01818379 -0.33766437 -0.41010433
0.17159428 0.2479159 0.084963046 -0.073279925 -0.17580223 0.2722051 0.33810097 0.40134618
0.3721401 0.5154975 0.32895398 0.14837596 0.5072628 0.5048169 0.4814649 0.24792618
0.42020303 0.2522715 -0.09079398 -0.063863166 -0.101309955 -0.1973831 -0.18771574 -0.0032228779
-0.099312514 0.026391696 0.118192375 0.09676318 0.109053284 -0.06922516 -0.008812519 0.26350465
0.4478022 0.44540924 0.4872964 0.5231797 0.34909275 0.105604514 0.1329464 0.27601883
-0.0071931323 0.27469292 0.43028098 0.44154772 0.40890145 0.36213905 0.43524757 0.33970758

dense1.bias f4 [50]
00000000: 56d6 cc3e f300 bf3e f526 613d d590 edbe
00000010: b40e 983e ea60 f9be ef2b e2be 2982 2f3e
00000020: 4abc 523e 3823 c23e e00d 043f d6fa b4be
00000030: c46a 0abf 8318 9abe 80e5 a2be 67fc f23e
00000040: a152 94be 41d3 b33e 8484 a63e 69a6 58be
00000050: 2e14 a3be 6d8c 89be ec1f 663c 0604 babe
00000060: d70f 8ebe 6b5d 033f 6273 fdbe 90a2 0c3b
00000070: 97d2 a0be d4b2 c0be 0818 46bd 7160 fcbe
00000080: 360a 973e 78ca 9e3e 2087 b5be 3498 63be
00000090: f518 693d a693 963e 44a1 de3e 416b 753e
000000a0: e557 aebe 8ea7 363d 68d5 9bbe c2d8 ddbe
000000b0: ccc2 35bc ce43 8e3e e03f 32be 8fec 81be
000000c0: ed4b 72be 5ac9 c2be
0.40007275 0.37305412 0.054968793 -0.4639956 0.29698718 -0.48706752 -0.44174144 0.17139496
0.20579639 0.37917495 0.5158367 -0.35347623 -0.5406916 -0.30096826 -0.3181572 0.47458193
-0.2896929 0.3512211 0.32522976 -0.2115723 -0.31851333 -0.2686495 0.014045697 -0.36331195
-0.2774646 0.5131442 -0.49502093 0.00214592 -0.31410667 -0.37636435 -0.04836276 -0.4929233
0.29499978 0.31013846 -0.35454655 -0.2222603 0.056908567 0.29409522 0.4348241 0.23966695
-0.34051433 0.044593386 -0.30436254 -0.43329436 -0.0110938065 0.27786106 -0.17407179 -0.25375792
-0.23661776 -0.38044244

dense2.weight f4 [1, 50]
00000000: b700 a03d ec99 14be cb37 303f d2c3 bcbe
00000010: dc01 4dbb ef49 14bf 3aa6 02be ef55 30bd
00000020: 5808 e03d 0e90 32be ce14 ebbd 357b e1bd
00000030: 2e23 573e 2c56 20bf 4ff4 c33c 80a5 813e
00000040: 66bd 4c3e 96c4 933d ebf4 eabd da0f 63bf
00000050: 7429 4ebe f924 fabd 1e2d 29bf 4eed 093e
00000060: 61e2 363f ece8 713d e90d d43c 80e1 2c3f
00000070: d24a 5abe 4905 79be 252c 0fbf 58b2 f23e
00000080: 7d03 4dbd 0403 c83d 29dc 17bf 90b7 39bf
00000090: 8852 253f bfa7 82bd ece2 203e df60 2dbd
000000a0: 675e 433f 8945 2e3e 6d36 27bd 29ba cabe
000000b0: 4e1e 39bf 8ce5 7cbd e3bf 1abe d1d6 d4bd
000000c0: 8110 38bf a5f9 97be
0.07812636 -0.14511842 0.68835133 -0.3686815 -0.0031281626 -0.57925314 -0.12758723 -0.043050703
0.109390914 -0.17437765 -0.114785776 -0.11009828 0.21009514 -0.6263149 0.023920206 0.2532158
0.19994125 0.0721523 -0.11472496 -0.8869606 -0.20133 -0.12214083 -0.6608447 0.13469431
0.71439177 0.059060022 0.02588554 0.67531586 -0.21317604 -0.24318422 -0.55926734 0.4740169
-0.050052155 0.097662 -0.5932031 -0.7254572 0.6457906 -0.06379651 0.15711564 -0.04232871
0.7631592 0.17018713 -0.04082339 -0.39595154 -0.72311866 -0.06174235 -0.15112261 -0.103925355
-0.7190018 -0.2968265

bachnorm1.weight f4 [50]
00000000: 70ae 1b3f 3f32 283f 0000 803f ce8b 573f
00000010: b543 a13e 837e a43f 693d 2e3f 462a d33e
00000020: 5b81 3e3f 007d 573e 271b 0f3f 829e 2d3f
00000030: c4d2 653f 01b3 423f 5f6c f33e acf3 cc3e
00000040: ea79 293f cbec 893e d395 063f 2532 9b3f
00000050: 17b4 373f 17e2 1a3f 0000 803f 1579 1c3f
00000060: 956e a63f 4946 873e 3972 4a3f 0000 803f
00000070: f59d 183f 601a 303f 0000 803f f6d3 943f
00000080: 4210 fe3e 7236 1f3f 8ef3 213f 7990 3b3f
00000090: 0000 803f 2dab 1c3f c490 583f 1d2e 133f
000000a0: e66e a63f ace4 2f3f c647 103f 27d7 153f
000000b0: 0000 803f fd57 fa3e 1c45 3f3f 0600 2e3f
000000c0: 48db 383f 3624 4a3f
0.60813046 0.6570167 1.0 0.841977 0.3149697 1.2851108 0.68062454 0.4124319
0.7441613 0.21043777 0.55900806 0.6781999 0.8977473 0.7605439 0.47543618 0.40029657
0.6620165 0.2693847 0.52572364 1.2124678 0.7175917 0.60501236 1.0 0.61122257
1.3002497 0.2642081 0.7908054 1.0 0.59616023 0.68790245 1.0 1.1627185
0.4962178 0.6219245 0.6326226 0.7326732 1.0 0.61198694 0.84595895 0.5749224
1.3002594 0.687083 0.5635952 0.5853142 1.0 0.48895255 0.7471483 0.67968786
0.72209597 0.78961504

bachnorm1.bias f4 [50]
00000000: 43c2 f33e 3883 f5be 4bbf 2bbf b4e3 2e3f
00000010: 5058 90be 1aaf 203f da4c d53e 0ef4 3a3e
00000020: f30f 043e 7187 2cbe e37d 0dbf 0d47 f0be
00000030: 437e 80be eec5 3b3f c59f 95be c25c b4be
00000040: 93dd 54be dea5 2fbe 24c2 d0bd dd7c 6d3f
00000050: ba82 8abe 97a9 e1be a4cc 1d3f 48d6 01bf
00000060: afef 36bf 14f2 61be 8c8f 39bf eb1a 4ebf
00000070: 6e8a 00bf 5a17 113f 0e8c 1e3f fad4 24bf
00000080: 77eb 6a3e 0d5b 933d 1d60 1b3f afc2 363f
00000090: d87c 38bf 7278 d3be 92ac 19bf 89b2 0abf
000000a0: a2de 2dbf 06b7 1fbf 692b a33e 142f d73e
000000b0: bea9 3e3f 1624 5d3e e012 0ebf 2b5b cbbe
000000c0: 1d37 3e3f 9bbc 153f
0.47609147 -0.47951674 -0.67088765 0.683162 -0.28192377 0.62767184 0.41660196 0.18257162
0.12896709 -0.16848542 -0.5527021 -0.46929207 -0.2509633 0.7334889 -0.29223457 -0.3522702
-0.20787649 -0.17153117 -0.101932794 0.9276865 -0.2705286 -0.440747 0.6164038 -0.5071759
-0.7145948 -0.22065002 -0.7248466 -0.80509824 -0.50211227 0.56676257 0.61932456 -0.64387476
0.22941385 0.07195101 0.6069353 0.71390814 -0.72065496 -0.4130283 -0.60028946 -0.54178673
-0.67917836 -0.62388647 0.31869057 0.42028105 0.74477756 0.21595797 -0.5549755 -0.39717993
0.74302846 0.58490914

bachnorm_conv1.weight f4 [6]
00000000: 8300 b43f e317 2a3f f640 c23f 2c27 ad3f
00000010: 4f3d 313f af71 6b3f
1.4062656 0.664427 1.5176075 1.3527579 0.69234174 0.9197034

bachnorm_conv1.bias f4 [6]
00000000: 73e9 6f3e 3b8d aebe 5ba8 27be 5179 a53c
00000010: dd6e c43e b3c5 82be
0.23428898 -0.34092125 -0.16372816 0.02019945 0.38365832 -0.25541458

bachnorm_conv2.weight f4 [3]
00000000: 1dc8 2c3e 4f63 0f3f 9481 d63e
0.16873212 0.5601091 0.41895735

bachnorm_conv2.bias f4 [3]
00000000: f408 163f a58a 1cbf 888d 81be
0.5860741 -0.61149055 -0.25303292
