best_model_becker.pt (torch, 123999 bytes, 13 tensors)

conv1.weight f4 [6, 2, 3]
0	0x3dc83e79	0.09777541
1	0x3f1ec07a	0.62012446
2	0xbec0b1bb	-0.37635598
3	0x3e0164cc	0.12636107
4	0xbe717b26	-0.23582134
5	0xbf2fa999	-0.6861816
6	0xbe4351c4	-0.1907416
7	0x3e20e616	0.15712771
8	0xbe58c0a0	-0.2116723
9	0xbf157715	-0.5838483
10	0xbef3810e	-0.47559398
11	0xbf439142	-0.7639352
12	0x3eaf71b1	0.34266427
13	0x3e110a26	0.14164028
14	0x3ed65ef4	0.41869318
15	0x3dac9a72	0.084278956
16	0xbe22aa53	-0.15885286
17	0x3f35fe58	0.7109122
18	0xbf19ef67	-0.60130924
19	0x3ef79048	0.48352265
20	0xbe032a79	-0.12809171
21	0x3e540713	0.20705824
22	0x3e7a262e	0.24428627
23	0x3e640d6e	0.22270748
24	0x3ecc8e96	0.39952534
25	0xbefb1ecf	-0.49046943
26	0xbe108c88	-0.14116108
27	0x3f065ae6	0.5248245
28	0x3e88a0ed	0.26685277
29	0xbc6615f0	-0.014043316
30	0x3ec4302a	0.38317996
31	0x3ed2d278	0.411762
32	0x3f3206d2	0.69541657
33	0x3dbd9fa0	0.09258962
34	0x3de363c6	0.11103015
35	0x3f24996a	0.6429659

conv1.bias f4 [6]
0	0x3df5e31e	0.1200621
1	0xbf854fc9	-1.0414973
2	0x3e322cea	0.17399946
3	0x3ea7d8f7	0.3278272
4	0x3f2026ca	0.6255919
5	0x3f0594aa	0.5217997

conv2.weight f4 [3, 6, 3]
0	0xbeac6be2	-0.33676058
1	0x3f50af3c	0.81517386
2	0x3e49e857	0.19717537
3	0xbef7d2c4	-0.4840299
4	0xbe92dd6b	-0.28684554
5	0x3e8061b8	0.25074553
6	0x3e050775	0.12991126
7	0x3e21ceeb	0.15801589
8	0x39a8a0e5	0.00032163333
9	0x3f355bce	0.7084321
10	0x3f2cca07	0.6749577
11	0x3d5e4b31	0.054270927
12	0xbe06fd7d	-0.13182636
13	0x3f1fd484	0.6243365
14	0x3f027006	0.50952184
15	0x3f120f34	0.5705445
16	0x3f27f2d5	0.6560491
17	0x3e088b0f	0.13334297
18	0x3e2eb3de	0.17060801
19	0x3e522a06	0.20523843
20	0xbe8d63ff	-0.27615353
21	0xbe6a72bd	-0.22895332
22	0x3e122ab9	0.1427411
23	0xbecd43ec	-0.40090883
24	0x3eeb0760	0.45904064
25	0x3e9eabb6	0.3099038
26	0x3e2cb6c9	0.16866602
27	0xbec2fff5	-0.38085905
28	0x3ea9712e	0.33094162
29	0xbd10bff8	-0.035339326
30	0x3e832940	0.2561741
31	0x3ea38e8c	0.31944692
32	0x3f360a3b	0.7110936
33	0x3f20ff0e	0.6288918
34	0x3e674c96	0.22587809
35	0x3e929a31	0.28633264
36	0xbd958c41	-0.07302142
37	0xbd968b3e	-0.07350777
38	0xbed198b1	-0.40936807
39	0xbd1ed824	-0.038780347
40	0x3ed22ec1	0.41051295
41	0xbec25c74	-0.3796116
42	0x3c7d2802	0.015451433
43	0x3d8d14f7	0.06888764
44	0x3e54f5aa	0.20796838
45	0x3e9732c4	0.2953092
46	0x3ea2c56e	0.31791252
47	0x3cd1b6e4	0.025599904
48	0x3e17dcd4	0.14830333
49	0x3f24a917	0.6432051
50	0xbe090499	-0.1338066
51	0xbd41ef04	-0.047347084
52	0xbe647a71	-0.22312333
53	0x3f3d8265	0.7402709

conv2.bias f4 [3]
0	0x3f299c3b	0.66254014
1	0x3eef4951	0.46735623
2	0xbdb1a7ae	-0.086745605

dense1.weight f4 [50, 590]
0	0x3e970bbc	0.2950114
1	0x3e8e4408	0.2778628
2	0x3e9ea8b1	0.30988076
3	0x3ea83ce8	0.32858968
4	0xbea105b1	-0.31449655
5	0xbe9768a5	-0.29572025
6	0x3e953df9	0.29148844
7	0x3e9b9d8a	0.3039363
8	0x3e8b77e5	0.2723991
9	0x3eb8dbd0	0.36105204
10	0x3e98901f	0.29797456
11	0xbe90cec5	-0.28282753
12	0xbe8f7ab2	-0.28023297
13	0xbea42c5d	-0.32065096
14	0x3e9b0ec0	0.3028469
15	0xbe94bb28	-0.2904904
16	0xbe8f17da	-0.27947885
17	0xbeae3f82	-0.34032828
18	0x3e9f2235	0.31080785
19	0x3ea64130	0.3247161
20	0x3e9dc89c	0.30817115
21	0x3e8f7968	0.28022313
22	0xbea805f5	-0.32817045
23	0x3eae558d	0.34049645
24	0x3eb31d49	0.3498328
25	0xbe875c74	-0.26437724
26	0x3e93bc20	0.28854465
27	0x3eada444	0.33914387
28	0xbe962fea	-0.2933343
29	0xbe95a2a4	-0.29225647
30	0xbe93990f	-0.28827712
31	0x3e9c8250	0.3056817
32	0xbe88cf63	-0.26720724
33	0xbea217ae	-0.3165869
34	0x3ead458f	0.33842131
35	0x3ea5ae74	0.3235966
36	0xbe97da96	-0.29658955
37	0x3e8eabad	0.27865353
38	0xbe8749e6	-0.26423568
39	0x3ee4c5e8	0.4468224
40	0x3dee7d3f	0.116449825
41	0x3ea482d8	0.32131076
42	0x3ea0304b	0.31286845
43	0xbe92e879	-0.28692988
44	0xbe8e2630	-0.2776351
45	0xbe8c4e87	-0.27403662
46	0x3ea935db	0.330489
47	0xbe955e1b	-0.2917336
48	0xbe90d707	-0.28289053
49	0x3ec67cec	0.38767183
50	0xbe6d8969	-0.23196949
51	0xbe96e287	-0.29469702
52	0xbe872fc1	-0.2640362
53	0xbe91ab40	-0.28450966
54	0xbe99a420	-0.3000803
55	0xbea9c77e	-0.33160013
56	0xbe88c1f9	-0.2671049
57	0x3e83b53e	0.25724214
58	0x3e96c6b8	0.29448485
59	0xbe92de90	-0.28685427
60	0x3de8a1b8	0.113589704
61	0x3e6e8a2f	0.232949
62	0x3e7b1f3a	0.2452363
63	0xbea5ce44	-0.3238393
64	0xbea279bd	-0.31733504
65	0xbe982ece	-0.2972321
66	0x3e93c5c9	0.28861836
67	0x3ea238f4	0.31684077
68	0x3e860f3d	0.261835
69	0x3e995fbf	0.2995586
70	0x3e866f5d	0.26256838
71	0x3e93a368	0.28835607
72	0xbe9ad47c	-0.30240238
73	0xbe9e2505	-0.3088762
74	0xbeae4fe8	-0.3404534
75	0xbeb00a76	-0.3438298
76	0xbe8e5d6f	-0.2780566
77	0xbea7eca7	-0.3279774
78	0xbe8838ae	-0.26605743
79	0xbe88acb2	-0.26694256
80	0xbe8fafec	-0.28063905
81	0xbeb0d1bf	-0.34535024
82	0xbe9e119d	-0.30872813
83	0x3eb039ad	0.34419003
84	0x3ea02d96	0.3128478
85	0x3e9b9db9	0.3039377
86	0xbea74ba1	-0.32674888
87	0xbea820e9	-0.32837608
88	0xbeaf4f9b	-0.34240422
89	0xbeae8790	-0.340878
90	0xbea619c6	-0.3244154
91	0xbead4d78	-0.33848166
92	0xbea2bab3	-0.31783065
93	0x3e82af48	0.25524354
94	0x3e843622	0.2582255
95	0xbea434cb	-0.32071528
96	0xbead6150	-0.33863306
97	0xbe934a5d	-0.28767672
98	0xbe9e0f2d	-0.30870953
99	0xbe98e276	-0.29860276
100	0xbe8e4337	-0.27785656
101	0x3e848cd2	0.25888687
102	0xbebc7f50	-0.36815882
103	0x3e91fd38	0.28513503
104	0xbea5a72c	-0.32354105
105	0xbe8964c8	-0.26834702
106	0xbeaa5531	-0.3326812
107	0xbead2c00	-0.33822632
108	0x3e91f20b	0.28504977
109	0x3e99126f	0.29896876
110	0xbeaed11a	-0.34143907
111	0x3e964fe8	0.2935784
112	0x3ea0d61b	0.3141335
113	0x3ea71602	0.32633978
114	0x3ea1edeb	0.3162683
115	0xbea632de	-0.32460684
116	0xbea52537	-0.32254955
117	0xbe9148ae	-0.28375763
118	0xbe9f9382	-0.31167227
119	0xbea906f1	-0.33013108
120	0xbe96ba35	-0.2943894
121	0x3e7025f0	0.23451972
122	0x3e924ed6	0.28575772
123	0xbe8f04e2	-0.27933413
124	0x3ea1d08a	0.31604415
125	0x3e8c72b4	0.27431262
126	0x3e99e869	0.30060127
127	0xbe9fed0b	-0.31235537
128	0xbe958ce0	-0.29209042
129	0xbe9f8d60	-0.31162548
130	0xbe8dbbd0	-0.27682352
131	0xbe8b49b1	-0.2720466
132	0xbeb3c545	-0.35111442
133	0x3e5f6548	0.2181598
134	0xbea21ef3	-0.31664237
135	0xbea5be92	-0.32371956
136	0xbe92b4a8	-0.28653455
137	0xbe883c8f	-0.26608703
138	0xbe902af3	-0.28157768
139	0xbe9bd973	-0.30439338
140	0xbeab3e1a	-0.33445817
141	0xbe836845	-0.2566549
142	0x3e75e584	0.24013335
143	0x3e3050ac	0.17218274
144	0x3e68d0a2	0.22735837
145	0xbe9c5d5a	-0.30539972
146	0xbeb7de51	-0.359118
147	0xbe8dd8b3	-0.2770439
148	0xbe9c1a24	-0.30488694
149	0xbea1d7bf	-0.31609914
150	0xbe953271	-0.29140046
151	0xbeb5bbe5	-0.35494915
152	0xbeb25d7f	-0.34836957
153	0x3ea09731	0.3136535
154	0x3ea94ccf	0.33066413
155	0xbec226e8	-0.37920308
156	0xbebaf231	-0.36512902
157	0xbeb25b9c	-0.34835517
158	0xbe8ef3aa	-0.27920276
159	0xbeb53a8d	-0.35396233
160	0xbec06eea	-0.3758462
161	0xbea1737c	-0.3153342
162	0xbe89a3d2	-0.26882797
163	0xbe880df3	-0.26573142
164	0xbea4efed	-0.322143
165	0xbea0e968	-0.31428075
166	0xbea19be3	-0.31564245
167	0xbeae3a82	-0.34029013
168	0xbe97d5ce	-0.29655308
169	0xbe9c4a48	-0.30525422
170	0xbe8b379f	-0.27190873
171	0xbeb3ce74	-0.3511845
172	0xbeb742c3	-0.35793123
173	0xbea5b376	-0.3236348
174	0xbeca57cc	-0.3952011
175	0x3ea45c8d	0.3210186
176	0x3e756ad6	0.23966536
177	0xbe8fcf20	-0.2808771
178	0xbe96c3ce	-0.29446262
179	0xbeaa34f3	-0.33243522
180	0xbebe768e	-0.37199825
181	0xbea95697	-0.33073875
182	0x3e9365c9	0.28788593
183	0x3e66d76d	0.22543116
184	0xbecba679	-0.39775446
185	0xbec2de45	-0.38060203
186	0xbdadda63	-0.084889196
187	0x3e6c19fd	0.23056789
188	0x3e8fca4e	0.28084034
189	0x3ea2d285	0.3180124
190	0x3e5e10c2	0.2168608
191	0xbe986c0b	-0.2976993
192	0xbe973c1f	-0.29538056
193	0x3e6245ef	0.2209699
194	0x3e672b40	0.22575092
195	0x3e4696a8	0.19393408
196	0x3eab5920	0.33466434
197	0x3ebc49d6	0.36775082
198	0x3e9a8f30	0.30187368
199	0x3ead722c	0.3387617
200	0x3e04aa8e	0.12955686
201	0x3f290c84	0.6603472
202	0xbe84b77b	-0.25921234
203	0x3eb56608	0.35429406
204	0x3edd8b9c	0.43270576
205	0x3ea01e4c	0.31273115
206	0xbe9fe57c	-0.3122977
207	0xbe3cb471	-0.18428208
208	0x3ee1add1	0.44077924
209	0x3ecbd5d5	0.39811578
210	0xbe9af99c	-0.30268562
211	0xbe8e7a2f	-0.27827594
212	0xbea31254	-0.3184992
213	0x3ea9d7cc	0.33172452
214	0xbe964fe6	-0.29357833
215	0xbe90ca28	-0.28279233
216	0x3e92d059	0.28674582
217	0xbe818951	-0.25300077
218	0xbe68dd09	-0.22740568
219	0x3eb7536d	0.35805836
220	0xbe93a794	-0.2883879
221	0xbe953f3c	-0.29149806
222	0xbe97dfbf	-0.29662892
223	0x3e96ac28	0.2942822
224	0xbe8b8b26	-0.272546
225	0xbea795e2	-0.3273154
226	0xbe5b3d73	-0.2141016
227	0xbe8d1dd9	-0.27561834
228	0xbe91373c	-0.28362453
229	0xbe8e102f	-0.27746722
230	0xbe7739c9	-0.24143137
231	0xbea72b30	-0.32650137
232	0xbe89a5ca	-0.268843
233	0xbe83a33f	-0.25710484
234	0x3eac49a8	0.33649945
235	0x3ea325d5	0.318648
236	0xbe7f8527	-0.24953137
237	0xbe93ca42	-0.28865248
238	0xbe7c9a60	-0.24668264
239	0xbe66607c	-0.22497743
240	0xbe90323c	-0.28163326
241	0x3ea29ad1	0.3175874
242	0xbe824f51	-0.2545114
243	0x3e9e3af6	0.3090436
244	0xbe8c96b0	-0.27458715
245	0x3ebf26ee	0.37334388
246	0x3e9ebc42	0.31003004
247	0xbe191f9d	-0.14953466
248	0xbe8ebe24	-0.2787944
249	0xbe8e0657	-0.27739212
250	0xbe9faac6	-0.31184977
251	0x3eb94dbc	0.3619212
252	0xbc4b502a	-0.012409249
253	0xbe8e2a21	-0.27766517
254	0x3e93338c	0.28750265
255	0x3e8c141e	0.27359098

dense1.bias f4 [50]
0	0x3e87e5f7	0.26542637
1	0x3eac9452	0.3370691
2	0x3eca93d0	0.39565897
3	0xbeb7920e	-0.35853618
4	0x3eba79da	0.3642109
5	0xbec16e81	-0.3777962
6	0x3e36d79a	0.17855683
7	0xbec0860d	-0.37602273
8	0x3ebcaae2	0.36849123
9	0xbeb45e7c	-0.35228336
10	0xbb3a51a3	-0.0028430007
11	0x3f7923c1	0.9732018
12	0xbea57a72	-0.3231998
13	0x3f4b7401	0.7947388
14	0xbee60158	-0.449229
15	0xbea345bf	-0.3188915
16	0x3ea29167	0.31751558
17	0xbebb0241	-0.36525157
18	0xbea46ab3	-0.32112655
19	0x3f317366	0.6931671
20	0xbeb32ab9	-0.34993532
21	0x3e99a118	0.30005717
22	0x3e84a9cd	0.25910798
23	0xbed43d77	-0.41453144
24	0x3ecee2e8	0.4040749
25	0x3ebe350b	0.37149844
26	0xbe6e147b	-0.2325
27	0x3edcb92a	0.4311002
28	0x3ecc156d	0.39860097
29	0xbdfce8e1	-0.123491056
30	0x3e9c166f	0.30485865
31	0xbd0f90ae	-0.035050087
32	0x3e304248	0.17212784
33	0x3e81bcee	0.25339454
34	0x3e83259f	0.2561464
35	0xbf15d434	-0.5852692
36	0xbe819001	-0.2530518
37	0xbeecdcf4	-0.46262324
38	0x3eb422ec	0.35182893
39	0xbe9a7f95	-0.30175462
40	0xbeb9cf9e	-0.36291212
41	0x3e4d8246	0.20069227
42	0xbe9050cc	-0.28186643
43	0x3ea7d835	0.3278214
44	0x3e8e0c3c	0.2774371
45	0x3eb03cab	0.34421286
46	0xbe2576e4	-0.16158634
47	0x3b902b68	0.0043997057
48	0x3de6b987	0.11265855
49	0xbe62ed21	-0.2216077

dense2.weight f4 [1, 50]
0	0xbdb5fbd7	-0.08885925
1	0xbe1ca371	-0.15296723
2	0xbe3e4390	-0.1858046
3	0xbe813476	-0.25235337
4	0xbc8d80db	-0.017273357
5	0xbe9f5ba4	-0.31124604
6	0xbdeb7895	-0.114976086
7	0xbf5b1968	-0.8558564
8	0xbe03ae86	-0.12859544
9	0xbf8e60ec	-1.1123328
10	0xbe16b286	-0.14716539
11	0x3eb702eb	0.35744414
12	0x3ec8b41c	0.39199913
13	0x3e8502d5	0.25978723
14	0xbddec534	-0.10877457
15	0xbedc5f3e	-0.43041414
16	0x3e41f18c	0.18939799
17	0x3e1d897e	0.1538448
18	0x3c6a8d85	0.014315967
19	0x3eb454fd	0.3522109
20	0xbd1947b5	-0.0374219
21	0x3e21098f	0.15726303
22	0xbe79d129	-0.24396195
23	0xbe28fa44	-0.16501719
24	0x3d4247d4	0.047431782
25	0x3ec83df8	0.39109778
26	0xbf420912	-0.7579509
27	0x3ebd0fae	0.36926025
28	0x3e0bdf13	0.13659315
29	0xbe9229dc	-0.2854756
30	0x3e4618d8	0.19345415
31	0xbf0b2c91	-0.5436488
32	0x3e0fd99e	0.14047858
33	0xbe5feed9	-0.21868457
34	0xbe810703	-0.25200662
35	0x3e27e32b	0.16395251
36	0xbf251b7a	-0.6449505
37	0xbe32f2f9	-0.17475499
38	0x3cd2ff92	0.025756631
39	0xbf0e082f	-0.5548124
40	0xbf560f80	-0.836174
41	0xbed3e56a	-0.41385967
42	0x3e5b702f	0.21429513
43	0x3e78c6c7	0.24294578
44	0xbd691827	-0.0569078
45	0x3d694385	0.056949157
46	0x3ea03bec	0.31295717
47	0xbf708930	-0.9395933
48	0xbe4de4ad	-0.20106764
49	0xbe116e1d	-0.14202161

bachnorm1.weight f4 [50]
0	0x3ee7918c	0.4522823
1	0x3f454e01	0.7707215
2	0x3f232cdf	0.6374034
3	0x3ecfacc3	0.40561494
4	0x3eabd05c	0.33557403
5	0x3f2bc010	0.6708994
6	0x3f32a033	0.69775695
7	0x3fa48c52	1.2855322
8	0x3f106f8c	0.5642021
9	0x3efc7cdc	0.4931401
10	0x3f21f2f2	0.6326133
11	0x3f8d7948	1.1052637
12	0x3eb2529b	0.34828648
13	0x3eb66e68	0.35631108
14	0x3f32c177	0.69826454
15	0x3f47c67f	0.78037256
16	0x3e7c6e16	0.2465137
17	0x3ee318f1	0.44354966
18	0x3ee19626	0.44059867
19	0x3f8a3967	1.0798768
20	0x3f32dab6	0.69864976
21	0x3e50d152	0.2039235
22	0x3e918c92	0.2842756
23	0x3f3dd06e	0.74146163
24	0x3ef98377	0.48733112
25	0x3e84aef5	0.25914732
26	0x3fb1f602	1.3903201
27	0x3f3d193b	0.73866624
28	0x3f09e8b4	0.538707
29	0x3ea74b58	0.3267467
30	0x3e8483a1	0.25881675
31	0x3f869f98	1.0517454
32	0x3ec31e5a	0.38109094
33	0x3f0f5428	0.5598779
34	0x3f0186e4	0.5059645
35	0x3e621fc3	0.22082429
36	0x3f405f46	0.75145376
37	0x3f098f1c	0.5373399
38	0x3f47aa13	0.7799389
39	0x3f9dda10	1.2332172
40	0x3f8c97bb	1.0983804
41	0x3f9a5a5e	1.2058828
42	0xbdced6ca	-0.100995615
43	0xbe405585	-0.18782623
44	0x3ead864b	0.3389152
45	0x3f2a2d3d	0.6647528
46	0x3f38177b	0.7191083
47	0x3f800000	1.0
48	0x3ec7d49b	0.39029393
49	0x3f06d8da	0.5267464

bachnorm1.bias f4 [50]
0	0x3eef2704	0.46709454
1	0x3c13b749	0.009015867
2	0x3ed195e8	0.40934682
3	0xbf1b8981	-0.6075669
4	0xbe799b48	-0.24375641
5	0x3f6bf415	0.92169315
6	0x3f15bf8e	0.58495414
7	0x3f5ab0e4	0.85426164
8	0xbf2e682a	-0.6812769
9	0x3f5d0fce	0.8635224
10	0x3ef9855e	0.48734564
11	0xbf419c03	-0.7562868
12	0xbf66fc97	-0.9022917
13	0xbf1c0dc2	-0.6095849
14	0xbed2d5cd	-0.41178742
15	0x3f2ca69c	0.67441726
16	0xbf158cdd	-0.58418065
17	0xbf42e57a	-0.76131403
18	0xbf27dff3	-0.65576094
19	0xbecd58b6	-0.40106744
20	0x3ef910c4	0.48645604
21	0xbcbd26e9	-0.023089843
22	0x3f4fba4e	0.81143653
23	0x3f344941	0.70424277
24	0xbc422b76	-0.011851182
25	0xbfa13560	-1.2594414
26	0x3f6dbba2	0.9286443
27	0xbf127cfb	-0.57221955
28	0x3dbd982b	0.09257539
29	0x3ee00889	0.43756512
30	0xbf07bc8c	-0.53022075
31	0x3f511cb1	0.81684405
32	0xbe7fd81a	-0.2498478
33	0x3f4fa65a	0.8111321
34	0x3ecb96df	0.39763543
35	0xbf6318b4	-0.8870957
36	0x3f53de8b	0.8276145
37	0xbf3f258b	-0.7466666
38	0xbf2d033a	-0.6758305
39	0x3f126585	0.57186157
40	0x3f73b907	0.95204204
41	0x3f465379	0.7747112
42	0xbf6feec3	-0.93723696
43	0xbeae339b	-0.34023747
44	0x3eb8a9cb	0.36067042
45	0xbf3b8898	-0.732553
46	0xbf7e7e22	-0.99411213
47	0x3f8a0f38	1.0785894
48	0xbe18eee8	-0.14934886
49	0xbf44cc3f	-0.76874155

bachnorm_conv1.weight f4 [6]
0	0x3f6288d0	0.8849001
1	0x3f623dfd	0.88375837
2	0x3f336851	0.7008105
3	0x3f82ebdb	1.0228227
4	0x3fdae000	1.7099609
5	0x3fc246d0	1.517786

bachnorm_conv1.bias f4 [6]
0	0x3e1994df	0.14998196
1	0xbec47034	-0.38366854
2	0xbe44c71e	-0.19216582
3	0x3c5e190c	0.013555776
4	0x3e05b0ad	0.13055678
5	0x3eea2185	0.45728698

bachnorm_conv2.weight f4 [3]
0	0x3f3ef5fd	0.745941
1	0x3f949564	1.160809
2	0x3f6b8d89	0.9201284

bachnorm_conv2.bias f4 [3]
0	0xbe6b7efc	-0.2299766
1	0xbf8fbb55	-1.1229044
2	0xbf28be9b	-0.6591584
