best_model_becker[Conflito].pt (torch, 31135 bytes, 5 tensors)

dense1.weight f4 [50, 140]
-0.018290997 -1.3155557 -1.0538245 -1.178852 -1.2612028 -1.1359935 -1.269507 -1.3787266
-0.9674525 -0.81116676 -0.813155 -0.38751814 -0.5400045 -0.49902225 -0.30601218 -0.17575008
-0.21950364 -0.2606393 0.10745084 0.05834154 0.2002382 0.25619417 0.48054853 0.4982683
0.45462906 0.34584612 0.56256884 0.451179 0.3873028 0.30824095 -0.048246503 -0.17794485
-0.322118 -0.4667152 -0.28749868 -0.27979878 -0.21711634 -0.20032981 -0.22456329 -0.27149177
-0.23444907 -0.23105699 -0.22093977 -0.14635263 -0.13490655 -0.04126559 -0.08441616 -0.1465844
-0.18692635 -0.1384411 -0.2828452 -0.2716953 -0.16213669 -0.50906134 -0.46746993 -0.43307817
-0.5062469 -0.34237093 -0.13067196 -0.07700349 -0.0863516 -0.18404157 -0.20136382 -0.341334
-0.1472344 -0.33186522 -0.065213166 0.25686407 0.37868312 0.29930052 0.006533906 0.055695385
-0.24423732 -0.27551368 -0.30068418 -0.19660445 -0.21381076 -0.17121589 -0.23176742 -0.30126205
-0.46283978 -0.3945921 -0.47090486 -0.51302797 -0.4319672 -0.34599036 -0.35381112 -0.47094914
-0.32199803 -0.48257202 -0.7600914 -0.52619725 -0.95579624 -0.938536 -0.78640956 -0.11183239
0.32626504 0.19115245 0.2585698 0.39704472 0.32795623 0.2188663 -0.29889327 -0.30402857
-0.20790961 -0.21819825 -0.3347685 -0.25305873 -0.21515505 -0.26267627 -0.32448807 -0.23024678
-0.25041705 -0.3034071 -0.28405973 -0.34233844 -0.28740555 -0.36334154 -0.22036748 -0.34452605
-0.25852504 -0.2313538 -0.22763236 -0.37478966 -0.28602606 -0.36233276 -0.266295 -0.3420434
-0.4205299 -0.46461862 -0.41681385 -0.47383887 -0.43633085 -0.3023381 -0.447034 -0.41983244
-0.30041054 0.055737577 0.30992946 0.24032915 0.01490242 -0.8772837 -0.1847658 -0.28117928
-0.16515297 -0.01743212 -0.039466534 -0.10934964 -0.14910695 -0.12225519 -0.2166239 -0.26432294
-0.2318966 -0.4158368 -0.22458099 -0.22004624 -0.07308237 -0.056909967 -0.116933465 0.023845334
-0.10151642 -0.17884529 -0.15135394 0.008686911 -0.005808287 0.15200743 0.4737566 0.36764678
0.3182611 0.30008954 0.28700864 0.06636092 0.36087784 -0.34228742 -0.28606042 -0.26030365
-0.4223164 -0.3943506 -0.40825903 -0.449001 -0.42229846 -0.44181612 -0.40373978 -0.2530655
-0.38767365 -0.36096615 -0.18610847 -0.30409318 -0.52779293 -0.4906854 -0.8358928 -0.6106851
-0.72493076 -0.7999616 -0.69336957 -0.61966765 -0.47395226 -0.5809374 -0.76095474 -0.7837613
-0.7495156 -0.81167334 -0.8225963 -1.0139191 -0.9897588 -1.1753758 -1.2118111 -0.8934974
-1.0484049 -0.74723893 -0.010866903 -0.46183857 -0.106763914 -0.29074425 -0.17897496 0.053201914
-0.1196359 -0.008826854 -0.06979389 0.12770881 0.051192753 0.02711398 -0.12273392 -0.120442815
-0.012752645 0.18071054 0.15074784 0.24823827 0.43007803 0.5857557 0.33680984 0.27732503
0.1259527 0.39503753 0.45188555 0.4728142 0.6407754 0.52634805 0.20405157 0.36586666
0.1930342 0.047012508 0.19364116 -0.47434926 -0.38271675 -0.44929454 -0.5558062 -0.6687475
-0.54868644 -0.68840337 -0.69198275 -0.73946995 -0.93560976 -0.88514185 -0.9578608 -0.9483972
00000000: 00d7 95bc 2164 a8bf b9e3 86bf 9fe4 96bf
00000010: 186f a1bf 3c68 91bf 357f a2bf 1d7a b0bf
00000020: f8aa 77bf a0a8 4fbf ed2a 50bf c768 c6be
00000030: bc3d 0abf d87f ffbe a1ad 9cbe d4f7 33be
00000040: 90c5 60be 8472 85be 300f dc3d 8af7 6e3d
00000050: 3e0b 4d3e e22b 833e 750a f63e 061d ff3e
00000060: 24c5 e83e be12 b13e 8304 103f ef00 e73e
00000070: 8d4c c63e c2d1 9d3e 209e 45bd 2d37 36be
00000080: a7ec a4be 4bf5 eebe 0733 93be c941 8fbe
00000090: bf53 5ebe 4223 4dbe ebf3 65be f800 8bbe
000000a0: 6b13 70be 349a 6cbe 093e 62be 77dd 15be
000000b0: f124 0abe 1b06 29bd 61e2 acbd 391a 16be
000000c0: 9f69 3fbe 81c3 0dbe 16d1 90be a51b 8bbe
000000d0: 2907 26be d851 02bf 3858 efbe 6cbc ddbe
000000e0: 6699 01bf 3e4b afbe dfce 05be 01b4 9dbd
000000f0: 1cd9 b0bd 6575 3cbe 5132 4ebe 54c3 aebe
00000100: 9dc4 16be 3dea a9be 7b8e 85bd b083 833e
00000110: c1e2 c13e eb3d 993e 601a d63b d820 643d
00000120: 5919 7abe 2110 8dbe 47f3 99be ad52 49be
00000130: 35f1 5abe 3853 2fbe 7054 6dbe 053f 9abe
00000140: 56f9 ecbe fa07 cabe 711a f1be cd55 03bf
00000150: ce2a ddbe a625 b1be bb26 b5be 3f20 f1be
00000160: eddc a4be ae13 f7be 5a95 42bf ddb4 06bf
00000170: 10af 74bf e543 70bf 2352 49bf 6108 e5bd
00000180: 360c a73e 78bd 433e 4363 843e 7249 cb3e
00000190: e1e9 a73e 7d1e 603e 8a08 99be a2a9 9bbe
000001a0: 42e6 54be 5d6f 5fbe c766 abbe ea90 81be
000001b0: 9b51 5cbe 817d 86be 4d23 a6be d0c5 6bbe
000001c0: aa36 80be 2d58 9bbe 4770 91be fc46 afbe
000001d0: d226 93be e707 babe 03a8 61be b865 b0be
000001e0: 655d 84be 03e8 6cbe 7518 69be 6ee4 bfbe
000001f0: 0272 92be ae83 b9be d157 88be 5020 afbe
00000200: b24f d7be 7ee2 edbe a068 d5be 029b f2be
00000210: c266 dfbe 0fcc 9abe a4e1 e4be 47f4 d6be
00000220: 69cf 99be 164d 643d 13af 9e3e d818 763e
00000230: 4829 743c aa95 60bf 3f33 3dbe bbf6 8fbe
00000240: dc1d 29be cecd 8ebc a9a7 21bd b4f2 dfbd
00000250: 7eaf 18be ee60 fabd a8d2 5dbe 5655 87be
00000260: 4d76 6dbe 90e8 d4be 8ff8 65be cd53 61be
00000270: 36ac 95bd 6d1a 69bd d07a efbd 4a57 c33c
00000280: d7e7 cfbd 3823 37be 87fc 1abe 8c53 0e3c
00000290: 7153 bebb d6a7 1b3e 3a90 f23e 333c bc3e
000002a0: 1ef3 a23e 56a5 993e ccf2 923e 3ce8 873d
000002b0: fbc4 b83e 4c40 afbe 8376 92be 8546 85be
000002c0: db39 d8be 52e8 c9be 5407 d1be 76e3 e5be
000002d0: 8137 d8be b935 e2be fbb6 cebe cd91 81be
000002e0: 297d c6be 8ed0 b8be 3893 3ebe 1ab2 9bbe
000002f0: 701d 07bf 1e3b fbbe 12fd 55bf dc55 1cbf
00000300: 1095 39bf 49ca 4cbf ab80 31bf 8aa2 1ebf
00000310: dfa9 f2be 50b8 14bf eecd 42bf 95a4 48bf
00000320: 41e0 3fbf d3c9 4fbf ac95 52bf 1ac8 81bf
00000330: d560 7dbf b772 96bf a01c 9bbf 3fbc 64bf
00000340: 2232 86bf 0d4b 3fbf 180b 32bc 1b76 ecbe
00000350: 0aa7 dabd 6edc 94be 3645 37be 40ea 593d
00000360: ab03 f5bd 829e 10bc 19f0 8ebd 19c6 023e
00000370: 7eaf 513d 231e de3c ec5b fbbd b9aa f6bd
00000380: 78f0 50bc 2f0c 393e a45d 1a3e 2c32 7e3e
00000390: 3033 dc3e 16f4 153f 5772 ac3e 8cfd 8d3e
000003a0: bff9 003e 5c42 ca3e 8b5d e73e b414 f23e
000003b0: db09 243f bfbe 063f e5f2 503e e052 bb3e
000003c0: c2aa 453e 3090 403d de49 463e e8dd f2be
000003d0: 73f3 c3be ef09 e6be 5149 0ebf 0933 2bbf
000003e0: b776 0cbf 343b 30bf c825 31bf e74d 3dbf
000003f0: 1f84 6fbf a898 62bf 5e36 75bf 29ca 72bf

dense1.bias f4 [50]
0.32039028 -0.6619713 0.06505025 -0.23608105 -0.1407178 -0.2997953 0.05457296 0.25744513
-0.7830525 0.23778018 -0.28694957 -0.35532722 -0.27612868 0.4599223 0.23445238 0.5426697
0.303052 0.9112339 -0.08398977 0.11925647 -0.19221948 -0.28330258 -0.3636174 0.12083504
-0.21111351 -0.23279198 0.35739055 0.13240974 0.23098712 0.27168733 -0.42605904 0.2166116
-0.6027308 -0.24393639 0.31656992 0.15797272 0.081459604 -0.19265941 0.18808974 -0.24219923
-0.48082617 -0.32064417 -0.22863388 0.2829199 -0.42295018 -0.3823388 -0.5975495 0.26507115
-0.96577233 0.39151576
00000000: 320a a43e f376 29bf 1139 853d 3bbf 71be
00000010: 5418 10be c57e 99be e587 5f3d d9cf 833e
00000020: 2176 48bf a67c 733e 0eeb 92be 73ed b5be
00000030: bd60 8dbe f07a eb3e 4914 703e 67ec 0a3f
00000040: a229 9b3e a046 693f d402 acbd bc3c f43d
00000050: 2fd5 44be 090d 91be 0f2c babe 5d78 f73d
00000060: 242e 58be 0561 6ebe e5fb b63e 6b96 073e
00000070: e387 6c3e 9a1a 8b3e 6924 dabe 6ecf 5d3e
00000080: 914c 1abf 76ca 79be 7415 a23e 9ac3 213e
00000090: 4bd4 a63d 8248 45be 999a 403e 1303 78be
000000a0: d92e f6be 792b a4be 001f 6abe e1da 903e
000000b0: ed8c d8be e9c1 c3be 01f9 18bf 68b7 873e
000000c0: db3c 77bf c174 c83e

dense2.weight f4 [1, 50]
-0.015971852 -0.8043774 0.062561534 1.7093471 0.028309628 0.9815983 0.22575362 0.045772523
-0.50391126 0.22320992 0.71613395 -0.122880496 -0.0050396584 0.53039545 0.27177736 -0.25276834
0.19204557 -0.37043375 0.06718399 -0.04461465 0.1008334 -0.0070709977 -2.9277892 -0.110125825
0.075336866 -1.8756007 0.34433767 -0.42877436 0.11754453 -0.26987395 0.042820945 -0.04132209
0.21468131 -0.24715 -0.7300403 0.22058782 0.007482722 -0.098544374 -0.39863437 -0.54233223
-0.49976557 -0.28502008 1.2297293 -0.057993434 -0.9664147 -1.2526591 -0.16691124 -0.045474127
-0.0046356954 1.2744185
00000000: 67d7 82bc adeb 4dbf 4320 803d e3cb da3f
00000010: 98e9 e73c 074a 7b3f f52b 673e f87b 3b3d
00000020: 5400 01bf 2491 643e 8e54 373f c5a8 fbbd
00000030: b823 a5bb ffc7 073f 6726 8b3e da6a 81be
00000040: 98a7 443e 7ea9 bdbe c297 893d dabd 36bd
00000050: be81 ce3d d4b3 e7bb e660 3bc0 a689 e1bd
00000060: 374a 9a3d af13 f0bf 074d b03e 5088 dbbe
00000070: 30bb f03d eb2c 8abe 0465 2f3d 5a41 29bd
00000080: 6bd5 5b3e e414 7dbe ece3 3abf c6e1 613e
00000090: 9f31 f53b a2d1 c9bd ce19 ccbe 49d6 0abf
000000a0: 46e1 ffbe 27ee 91be c567 9d3f 868a 6dbd
000000b0: f466 77bf 2257 a0bf c8ea 2abe 1443 3abd
000000c0: 08e7 97bb 2520 a33f

bachnorm1.weight f4 [50]
0.5193203 1.8138719 0.3728922 2.515998 -0.019146023 1.9392086 0.80379033 0.29263183
1.3403016 0.8277947 1.4967325 0.9849005 0.08524907 1.2113733 0.88335204 0.81668276
0.7074469 1.133665 0.1931521 0.46341702 0.20218422 0.5490131 4.4153004 0.598441
0.2386144 3.0487072 1.1669353 0.93909574 0.695423 1.0630591 0.30751243 0.15854491
0.79436994 0.58175683 1.4451749 0.6263393 0.7755103 0.6030873 1.1657102 1.3700479
1.2893821 1.1320987 2.2184095 0.78856426 1.9762961 3.2025297 0.86878353 0.85033107
0.6975257 2.1550865
00000000: 2df2 043f f42c e83f baeb be3e 1c06 2140
00000010: 1fd8 9cbc fd37 f83f 34c5 4d3f d7d3 953e
00000020: 018f ab3f 5aea 533f ee94 bf3f 7022 7c3f
00000030: 1097 ae3d 480e 9b3f 5c23 623f 1f12 513f
00000040: 3d1b 353f ef1b 913f aac9 453e ff44 ed3e
00000050: 6109 4f3e 1f8c 0c3f 244a 8d40 6e33 193f
00000060: 5557 743e 051e 4340 235e 953f 9468 703f
00000070: 3e07 323f 5212 883f 4572 9d3e 9959 223e
00000080: d45b 4b3f 04ee 143f 7efb b83f c657 203f
00000090: d887 463f ee63 1a3f fe35 953f bb5d af3f
000000a0: 790a a53f 9ce8 903f 6cfa 0d40 59df 493f
000000b0: 45f7 fc3f 3ff6 4c40 9968 5e3f 4caf 593f
000000c0: 0b91 323f f0ec 0940

bachnorm1.bias f4 [50]
-0.054120567 0.1903289 0.13284299 0.265943 0.2389982 -0.005146619 -0.18448587 0.25605616
0.07426132 -0.010326512 0.19368885 0.27431118 0.2104699 0.2155402 -0.33381253 0.12768818
0.1836243 0.2057235 0.075209275 -0.036499936 -0.12549415 -0.18017389 0.15926827 -0.16918334
-0.15653825 -0.16806978 -0.25469434 0.26520848 -0.24922499 0.22636002 0.11721787 0.16650067
0.22293374 0.16629238 -0.17859451 -0.0327022 -0.27568793 -0.22348209 0.29789793 -0.2024211
0.19981419 0.2549784 -0.27926332 0.29929012 0.28536966 -0.19887878 -0.14015578 0.3505594
-0.15495314 -0.2718214
00000000: 87ad 5dbd 94e5 423e fe07 083e ae29 883e
00000010: f2bb 743e f8a4 a8bb dde9 3cbe cb19 833e
00000020: 5216 983d 8830 29bc 5f56 463e 8472 8c3e
00000030: 6c85 573e 92b6 5c3e 7ae9 aabe b1c0 023e
00000040: 0208 3c3e 2ea9 523e 5207 9a3d f580 15bd
00000050: 8a81 00be 817f 38be 3917 233e 663e 2dbe
00000060: 904b 20be 7c1a 2cbe 4c67 82be 68c9 873e
00000070: d634 7fbe ecca 673e ec0f f03d 277f 2a3e
00000080: be48 643e 8d48 2a3e 7be1 36be bef2 05bd
00000090: f826 8dbe 7dd8 64be 1486 983e 7a47 4fbe
000000a0: 179c 4c3e 878c 823e 9afb 8ebe 8e3c 993e
000000b0: f91b 923e e1a6 4bbe ff84 0fbe 867c b33e
000000c0: 09ac 1ebe 2d2c 8bbe
