best_model_becker.pt (torch, 22047 bytes, 13 tensors)

conv1.weight f4 [6, 2, 3]
0	0x3f0435e7	0.5164475
1	0x3ec21613	0.37907466
2	0xbf38704a	-0.7204634
3	0x3daee956	0.08540599
4	0x3d663429	0.056202088
5	0x3e826133	0.25464782
6	0xbe5aa8ba	-0.21353427
7	0x3f43783e	0.7635535
8	0xbe9fb343	-0.31191453
9	0x3f042ed4	0.51633954
10	0x3e8a90ef	0.270637
11	0xbc72adff	-0.014811992
12	0xbf1877e2	-0.59557927
13	0xbe3b3a88	-0.18284047
14	0xbc2223f5	-0.009896268
15	0x3dabe710	0.08393681
16	0x3e5bf8d7	0.21481644
17	0x3ee48945	0.44635978
18	0x3dd7ae7b	0.105313264
19	0x3e983797	0.29729912
20	0xbda086ee	-0.07838236
21	0x3f337fe8	0.70117044
22	0x3ed1d594	0.4098326
23	0x3f11fe4a	0.5702864
24	0x3e981d25	0.29709736
25	0xbea96d76	-0.33091325
26	0x3e9753ed	0.29556218
27	0xbe91717e	-0.284069
28	0xbf29a690	-0.6626978
29	0x3ec555eb	0.38542113
30	0x3e78f4ea	0.24312177
31	0x3f430192	0.7617427
32	0xbf14d51e	-0.5813769
33	0x3e9b8393	0.3037382
34	0x3e80ba0c	0.25141943
35	0xbe11d6c3	-0.14242081

conv1.bias f4 [6]
0	0xbe8c870e	-0.2744679
1	0x3f56d9b4	0.8392594
2	0xbdaa617d	-0.08319376
3	0x3d5d0508	0.053959876
4	0xbe0eeb69	-0.1395699
5	0xbd6d55f4	-0.0579433

conv2.weight f4 [3, 6, 3]
0	0xbeba4726	-0.36382407
1	0xbf1d1a29	-0.6136804
2	0x3e4bed8c	0.19914836
3	0xbe8e0b62	-0.2774306
4	0x3d7e1d35	0.062039573
5	0x3f121bfb	0.57073945
6	0x3da44aa3	0.08022048
7	0xbd9d9d8f	-0.076960675
8	0x3bce7742	0.0063008377
9	0x3e4f8fd4	0.2026971
10	0x3f2972e8	0.6619096
11	0x3ecf3430	0.40469503
12	0x3d6125b0	0.054967582
13	0x3e325b10	0.1741755
14	0x3dff452c	0.12464365
15	0xbf0fc620	-0.5616169
16	0xbef3dfe1	-0.47631744
17	0x3eca5fd8	0.39526248
18	0x3ed2196e	0.41035026
19	0xbeebd40a	-0.4606021
20	0x3e35e82c	0.17764348
21	0x3eebbe4b	0.4604362
22	0x3e46ae06	0.19402322
23	0x3eef73e0	0.46768093
24	0x3e495dfa	0.19664755
25	0x3e82451f	0.2544336
26	0x3e923c58	0.28561664
27	0x3f2771e5	0.65408164
28	0x3e8563c4	0.26052678
29	0x3e8eff89	0.27929333
30	0xbf051aa8	-0.519938
31	0x3f26a163	0.65090007
32	0xbd4cafe5	-0.049972434
33	0x3db0d736	0.08634798
34	0xbecb64b7	-0.39725277
35	0x3e42ef96	0.19036707
36	0x3c912fb0	0.017722934
37	0x3dface2b	0.12246355
38	0xbec2323f	-0.3792896
39	0x3db2b6e3	0.08726289
40	0xbeac6101	-0.33667758
41	0xbd925f95	-0.07147137
42	0x3d39cdd4	0.04536231
43	0xbd9b266d	-0.075756885
44	0x3e9593d7	0.29214355
45	0xbea9c644	-0.33159077
46	0x3cc5ce74	0.024146296
47	0xbd0c74f9	-0.03429124
48	0x3da327d5	0.07966582
49	0x3f3a14bf	0.72687906
50	0x3f058af4	0.5216515
51	0xbe4d274c	-0.20034522
52	0x3cf7dab1	0.030255647
53	0x3df9711c	0.12179777

conv2.bias f4 [3]
0	0xbd51f339	-0.051257346
1	0xbca2de52	-0.019881401
2	0xbec310df	-0.3809881

dense1.weight f4 [50, 80]
0	0xbd83d8ea	-0.064378574
1	0x3dd76812	0.10517897
2	0x3d9a494e	0.07533513
3	0xbd47ad20	-0.04874909
4	0xbce68434	-0.028139211
5	0xbdda1e9d	-0.1065037
6	0xbb03b300	-0.0020095706
7	0xbdac6e30	-0.08419454
8	0xbdb09ec1	-0.0862403
9	0xbbc9dc90	-0.0061603263
10	0x3c898450	0.016786724
11	0xbd3b8b06	-0.04578688
12	0x3d87de1e	0.06634162
13	0xbd8b56d8	-0.068036735
14	0x3dcfc37a	0.10144706
15	0x3d9cea58	0.07661885
16	0xbdc116de	-0.0942819
17	0xbce3f398	-0.027826115
18	0x3ba54f60	0.0050448626
19	0x3c85a140	0.016312242
20	0x3cd939f0	0.026516885
21	0x3d33b614	0.043874815
22	0x3bdb72e0	0.006697044
23	0xbd5f7204	-0.054552093
24	0x3d58b204	0.052904144
25	0xbddba477	-0.107247286
26	0xbd87b6cc	-0.066266626
27	0xbce54684	-0.027987726
28	0xbd5f126c	-0.054460928
29	0xbd20347e	-0.03911256
30	0xbdbbabe9	-0.09163649
31	0xbcc2d30c	-0.023782276
32	0x3cc3c730	0.023898691
33	0xbd952b16	-0.072836086
34	0xbbbc0320	-0.005737677
35	0x3da3e928	0.080034554
36	0xbc3c4ee0	-0.011493415
37	0x3b4ba340	0.0031072646
38	0xbc1e06b8	-0.009645157
39	0x3cb95c18	0.022626922
40	0x3d91971e	0.071089014
41	0x3dd8e4e6	0.10590534
42	0x3d916930	0.07100141
43	0x3dd963f2	0.10614766
44	0xbc047a58	-0.00808581
45	0xbdcdb113	-0.1004354
46	0xbd591a24	-0.053003445
47	0x3d9be8be	0.076127514
48	0xba3dfe00	-0.0007247627
49	0xbd639ee9	-0.05557147
50	0xbdaf7709	-0.08567626
51	0xbdd64902	-0.10463144
52	0xbdc14162	-0.09436299
53	0xbcb9c6e0	-0.022677839
54	0x3d7b2408	0.06131366
55	0x3d7795b4	0.060445502
56	0xbddcd447	-0.10782676
57	0x3d8ed458	0.06974095
58	0xbdb32c7f	-0.08748721
59	0xbcc1a118	-0.023636386
60	0xbd39af54	-0.04533322
61	0xbcb06a40	-0.021535039
62	0xbcb3d438	-0.02195178
63	0xbdcd7820	-0.10032678
64	0xbdc5b44b	-0.09653529
65	0xbc8f518c	-0.01749494
66	0x3abd8300	0.0014458597
67	0xbd5008a0	-0.050789475
68	0x3d2c8218	0.042116255
69	0xbdce16e2	-0.10062958
70	0xbbf73e90	-0.0075453
71	0x3dc95d16	0.09832208
72	0xbd3acaf4	-0.045603707
73	0x3dcec37e	0.10095881
74	0x3d25d8dc	0.040490016
75	0xbdcea3b7	-0.1008982
76	0x3d90def0	0.07073772
77	0xbc5360c8	-0.012901492
78	0xbd4c6e38	-0.0499098
79	0x3db7196c	0.08940396
80	0x3e3de23d	0.18543334
81	0x3ec78a43	0.38972673
82	0x3f003899	0.5008636
83	0x3ea5f92b	0.32416663
84	0x3f11fe35	0.57028514
85	0x3f262c13	0.64911
86	0x3ea3f349	0.3202155
87	0xbe7fa5eb	-0.24965636
88	0xbe49a66b	-0.1969239
89	0xbe60269f	-0.21889733
90	0xbebd861d	-0.37016383
91	0xbe72055f	-0.23634861
92	0xbe44ea1c	-0.1922993
93	0x3e1c46ad	0.15261336
94	0x3e84ca42	0.2593556
95	0xbe613703	-0.21993642
96	0xbee85590	-0.4537778
97	0xbeda1378	-0.42592978
98	0xbe8a4d13	-0.27011928
99	0xbeca752a	-0.39542514
100	0xbea2f4f4	-0.3182751
101	0xbea74294	-0.32667983
102	0xbe535989	-0.20639624
103	0xbea5b012	-0.32360893
104	0x3dda41a1	0.10657049
105	0x3e8e6b58	0.27816272
106	0x3ef325a0	0.47489643
107	0x3e8c6525	0.27420917
108	0x3efc3978	0.49262595
109	0x3eabb1f4	0.33534205
110	0x3ebb8320	0.36623478
111	0x3efec66f	0.49760768
112	0x3f035a13	0.5130932
113	0x3ecf7626	0.40519828
114	0x3ec2ce5f	0.38048074
115	0x3e86e968	0.2634995
116	0x3ce62829	0.028095322
117	0xbd0fc0f1	-0.035096113
118	0xbe9e3a78	-0.30903983
119	0xbe38578a	-0.18002144
120	0xbf09f494	-0.5388882
121	0xbef1aa5e	-0.47200292
122	0xbe9d8c0f	-0.3077092
123	0x3e44af95	0.19207604
124	0xbe7fc9fe	-0.24979398
125	0x3dc83bad	0.09777007
126	0xbe44215c	-0.1915335
127	0x3e4d5df1	0.20055367
128	0x3e2eb1df	0.1706004
129	0x3ddf3b84	0.109000236
130	0x3d607633	0.054800224
131	0xbea51c35	-0.32248083
132	0x3dcb0d8a	0.09914692
133	0x3e4d6d0c	0.2006113
134	0x3e6c6ad4	0.23087627
135	0x3e48e131	0.19617154
136	0x3e30b887	0.17257892
137	0x3edb70da	0.42859536
138	0x3ed725f3	0.4202114
139	0xbe95cab5	-0.29256216
140	0x3e4f4218	0.20240057
141	0x3e3fa8ac	0.18716687
142	0xbeb2b4db	-0.34903607
143	0xbdad68b6	-0.08467238
144	0x3e7828fb	0.24234383
145	0xbe1f13f8	-0.15534961
146	0xbf0593ac	-0.52178454
147	0xbd30a7af	-0.043128666
148	0xbe55dfab	-0.20886104
149	0x3e3d8313	0.18507032
150	0xbe343ba8	-0.17600882
151	0xbebc833d	-0.36818877
152	0x3ebcfdc0	0.36912346
153	0x3ed80129	0.42188385
154	0x3e93f050	0.2889428
155	0xbe8a2ad5	-0.26985803
156	0x3e78f0c9	0.24310602
157	0xbed299b9	-0.41132906
158	0x3ea90b27	0.3301632
159	0x3e676c66	0.22599944
160	0x3e562024	0.20910698
161	0x3e94ce80	0.29063797
162	0x3ed3e19d	0.41383067
163	0x3ec80668	0.39067388
164	0x3e6d18b2	0.23153952
165	0xbea161e8	-0.3152001
166	0xbd0e9182	-0.034806736
167	0xbe9cb91d	-0.3060998
168	0x3ef5c7a1	0.48003867
169	0x3f1c6f7d	0.6110762
170	0x3edb9ed9	0.4289463
171	0xbe8b87da	-0.27252084
172	0x3e9d79bf	0.30756947
173	0x3de5cfba	0.11221261
174	0xbe6684ab	-0.22511546
175	0xbee00fb7	-0.4376199
176	0xbe60d568	-0.21956408
177	0xbdf531b9	-0.119723745
178	0xbeb1b94f	-0.34711692
179	0xbe7b40a9	-0.24536385
180	0xbe236e54	-0.15960056
181	0x3d8478b6	0.06468336
182	0xbdd5f50a	-0.10447128
183	0x3ebd1a08	0.36933923
184	0x3f0a1dc5	0.53951675
185	0x3e531ca1	0.2061639
186	0x3eae2614	0.34013426
187	0x3e8f986a	0.2804597
188	0x3ea703f8	0.32620215
189	0xbddfaf38	-0.10922092
190	0x3e95d64d	0.2926506
191	0x3e77daed	0.24204607
192	0xbcb35fe6	-0.021896314
193	0x3e766733	0.24062805
194	0x3eb21f9d	0.34789744
195	0xbe9033b5	-0.2816445
196	0x3e7e9232	0.24860457
197	0x3e5e2495	0.21693642
198	0x3e41df71	0.18932892
199	0x3ebeeed6	0.37291592
200	0x3e99a3bb	0.3000773
201	0x3e721e21	0.23644306
202	0x3e7151f5	0.2356642
203	0x3eacb508	0.33731866
204	0x3eea11cf	0.45716712
205	0x3e29417d	0.16528888
206	0x3e718b00	0.2358818
207	0x3ed7a77d	0.4211997
208	0x3edb72e9	0.42861107
209	0x3ef290a5	0.4737598
210	0x3ed2533d	0.4107913
211	0x3e40ba46	0.18821058
212	0x3e6f5745	0.23373134
213	0x3eadeaec	0.33968294
214	0x3e4084ec	0.18800706
215	0xbee736f8	-0.45159125
216	0x3ecf5a44	0.40498555
217	0x3e41a7cb	0.18911664
218	0xbeda26b1	-0.42607644
219	0x3e29bca7	0.16575871
220	0x3e2f1190	0.17096543
221	0xbe8d8af0	-0.27645063
222	0x3e7531b3	0.2394474
223	0xbd076eb6	-0.033064567
224	0xbed5a7b2	-0.41729504
225	0x3ee84d92	0.4537168
226	0x3ece0af2	0.40242726
227	0xbd74aa0f	-0.059732493
228	0x3e13c8f2	0.14432123
229	0x3eec7170	0.46180296
230	0x3e26a433	0.16273575
231	0xbc70fe75	-0.014709105
232	0x3e6331e8	0.22187006
233	0xbe82f84f	-0.2558007
234	0x3ecbdcd0	0.39816904
235	0x3e55372e	0.2082183
236	0x3dc56394	0.09638134
237	0x3ed532eb	0.4164041
238	0x3e80d41c	0.25161827
239	0x3e735843	0.23764138
240	0xbd8bc9b6	-0.06825583
241	0x3b5d121b	0.0033732716
242	0xbedb1575	-0.42789808
243	0x3effe51a	0.49979478
244	0x3f11b5a0	0.5691776
245	0x3e132231	0.14368512
246	0xbd3cdeb3	-0.04611082
247	0xbcc85264	-0.02445335
248	0xbf01bb74	-0.50676656
249	0xbebf6f57	-0.37389633
250	0xbe9e34fe	-0.30899805
251	0xbf1f85a2	-0.6231328
252	0xbe8130d3	-0.25232562
253	0x3e91a0fb	0.2844313
254	0x3f129b3e	0.5726813
255	0x3ed4667b	0.41484436

dense1.bias f4 [50]
0	0x3d6f1938	0.05837366
1	0x3e947e40	0.2900257
2	0x3e28c919	0.16482963
3	0x3ee57bb3	0.44820938
4	0xbd98b155	-0.074556984
5	0x3dd4cfa2	0.10391165
6	0xbe81e1b9	-0.25367525
7	0x3d53325c	0.0515617
8	0x3e51217a	0.20422927
9	0xbf15932c	-0.5842769
10	0x3da440c3	0.08020165
11	0xbed2c29d	-0.41164103
12	0xbece7e9f	-0.4033098
13	0x3e8d7518	0.27628398
14	0xbe4b1dcb	-0.19835584
15	0xbde58f85	-0.11209015
16	0x3f0047fc	0.5010984
17	0xbea7e9f3	-0.32795677
18	0xbe5c48c3	-0.21512131
19	0x3e6f2f2b	0.23357837
20	0xbea1b512	-0.31583458
21	0xbe2dfd44	-0.16991144
22	0x3ec83e41	0.39109996
23	0x3e89a6eb	0.2688516
24	0xbe451660	-0.19246817
25	0xbe4f2699	-0.20229568
26	0xbeb7d65b	-0.35905728
27	0xbe31a757	-0.17348991
28	0x3e75c973	0.24002628
29	0x3ec37a13	0.38179073
30	0x3da53a1e	0.080677256
31	0xbe978ea8	-0.29601026
32	0xba088580	-0.00052078813
33	0xbd0275de	-0.03185069
34	0xbd92add2	-0.0716206
35	0xbe91952f	-0.2843413
36	0xbe9af308	-0.30263543
37	0x3e48ef2d	0.19622488
38	0xbe918239	-0.28419665
39	0xbe8b6e12	-0.27232414
40	0x3e993eb9	0.29930666
41	0x3eb705b0	0.35746527
42	0x3e9769c1	0.2957287
43	0x3ed1fbf7	0.41012546
44	0xbec5880a	-0.38580352
45	0x3e820ccb	0.25400385
46	0x3ebebd75	0.3725392
47	0xbd347293	-0.04405458
48	0x3ed88d9a	0.42295533
49	0xbe494cdf	-0.1965823

dense2.weight f4 [1, 50]
0	0xbf67ec3e	-0.9059485
1	0xbdc0b059	-0.09408636
2	0xbd6c21a4	-0.05764927
3	0xbe386f8e	-0.18011305
4	0x3f52bb27	0.8231682
5	0x3f76725e	0.9626826
6	0xbec07814	-0.37591612
7	0xbf1ee9a8	-0.6207528
8	0xbdf84a88	-0.12123591
9	0x3f8583bc	1.0430827
10	0x3e840888	0.2578776
11	0x3e7c104c	0.24615592
12	0x3ee3177d	0.44353858
13	0xbdfa3248	-0.12216622
14	0xbf3752a3	-0.7161047
15	0x3d4c65b7	0.04990169
16	0x3e1a55ed	0.1507184
17	0xbe12a680	-0.14321327
18	0xbed57e9d	-0.4169816
19	0x3e5c5391	0.21516253
20	0xbf8322f6	-1.0245044
21	0x3d8069c9	0.06270177
22	0x3d6ab258	0.057298988
23	0xbda04e30	-0.07827413
24	0xbc0373dd	-0.008023229
25	0xbea8cd6d	-0.32969227
26	0x3f0f7d2f	0.5605039
27	0x3de96065	0.11395339
28	0x3cf647fe	0.030063625
29	0x3da027e9	0.07820112
30	0xbe01e19f	-0.12683724
31	0xbf022986	-0.5084461
32	0x3f7663b1	0.96245867
33	0xbf86ce37	-1.0531682
34	0x3f2804fd	0.6563261
35	0xbf099e23	-0.5375692
36	0xbe6ec774	-0.23318273
37	0xbddd1750	-0.10795462
38	0x3df51408	0.11966711
39	0x3ef4d115	0.47815767
40	0xbc262f55	-0.010143121
41	0xbdeef63a	-0.11668058
42	0x3e6a087d	0.228548
43	0x3e09d9db	0.13462012
44	0x3efc2746	0.49248713
45	0xbd93ed8e	-0.07223044
46	0xbdb0073b	-0.08595129
47	0x3e00ae08	0.12566388
48	0xbd76b5e7	-0.06023207
49	0xbcc323b9	-0.023820745

bachnorm1.weight f4 [50]
0	0x3f800000	1.0
1	0x3eeb0410	0.45901537
2	0x3f185c56	0.59515893
3	0x3e0d575f	0.1380286
4	0x3f800000	1.0
5	0x3f800000	1.0
6	0x3f7343a2	0.95025074
7	0x3f800000	1.0
8	0x3e8be0fe	0.27320093
9	0x3fd0c3dd	1.6309773
10	0x3f402351	0.7505389
11	0x3f60baa6	0.877848
12	0x3f75a26d	0.9595097
13	0x3e67f592	0.22652271
14	0x3f24fa9f	0.6444492
15	0x3e8c76f2	0.27434498
16	0x3f1cb7bb	0.6121785
17	0x3f1b6a03	0.60708636
18	0x3f1f9677	0.62338966
19	0x3f52dafd	0.823654
20	0x3f30f333	0.6912109
21	0x3f5006e9	0.81260544
22	0x3efd21e1	0.4943991
23	0x3efaaa06	0.48957843
24	0x3f37b554	0.7176106
25	0x3f356a3f	0.70865244
26	0x3fb43e4a	1.4081509
27	0x3f25e0ba	0.6479603
28	0x3f0dd5b2	0.554042
29	0x3eebf008	0.46081567
30	0x3f06b682	0.52622235
31	0x3eccc22f	0.399919
32	0x3f800000	1.0
33	0x3f800000	1.0
34	0x3f800000	1.0
35	0x3f2cb64c	0.6746566
36	0x3f32f359	0.6990257
37	0x3e7cce45	0.2468806
38	0x3f320ee3	0.69553965
39	0x3fa5eed4	1.296351
40	0x3ed006b8	0.40630126
41	0x3f1492f4	0.5803673
42	0x3e62ffc4	0.2216788
43	0x3e8e8c39	0.27841356
44	0x3f26c072	0.651374
45	0x3e9b2207	0.30299398
46	0x3ef73ea2	0.48289973
47	0x3f136b70	0.5758581
48	0xbe384802	-0.17996219
49	0x3f332344	0.69975686

bachnorm1.bias f4 [50]
0	0x3f306481	0.68903357
1	0x3e23d520	0.1599927
2	0xbec8deaa	-0.3923238
3	0x3ef7495c	0.48298156
4	0xbf4e939c	-0.80693984
5	0xbf8ee6d4	-1.1164193
6	0x3e748d50	0.23882031
7	0x3f1220a8	0.5708108
8	0x3d9e1c01	0.07720185
9	0xbf2606aa	-0.6485392
10	0xbdfb84ba	-0.12281175
11	0x3eb67357	0.35634872
12	0xbf086fad	-0.53295404
13	0x3e75a229	0.2398764
14	0x3f3eb0c5	0.7448848
15	0xbe5d0b76	-0.21586403
16	0xbef28d0f	-0.47373244
17	0x3eb39e5e	0.35081762
18	0x3f220e88	0.6330342
19	0xbed636a4	-0.41838562
20	0x3f8615d3	1.047541
21	0x3efc0de0	0.49229336
22	0x3e05aca2	0.13054135
23	0xbe89c20d	-0.26905861
24	0xbe7b08f0	-0.24515128
25	0x3dd35504	0.1031895
26	0xbf42b6bf	-0.760601
27	0xbee23d90	-0.44187593
28	0xbed55d49	-0.41672733
29	0xbed4b681	-0.4154549
30	0xbecd4968	-0.40095067
31	0x3f409c10	0.7523813
32	0xbf7a41f0	-0.9775686
33	0x3f46a839	0.7760044
34	0xbf2f67bd	-0.6851767
35	0x3f0d8da8	0.55294275
36	0x3f1e5d75	0.61861354
37	0xbded1d51	-0.11577857
38	0x3e29c119	0.16577567
39	0xbf10632c	-0.56401324
40	0x3e663b63	0.22483592
41	0xbeec1828	-0.4611218
42	0xbf168b3a	-0.5880619
43	0x3e7cae1d	0.24675794
44	0xbf24177b	-0.6409833
45	0x3eb43a92	0.35200936
46	0x3ef65e1c	0.48118675
47	0x3e2a4858	0.1662916
48	0x3eb0c450	0.34524775
49	0x3df1b7fc	0.1180267

bachnorm_conv1.weight f4 [6]
0	0x3f59c783	0.85070056
1	0x3fa3bb4c	1.2791533
2	0x3f667532	0.90022576
3	0x3f86bb9b	1.0526003
4	0x3fac1b6e	1.3445871
5	0x3f3d20af	0.73877996

bachnorm_conv1.bias f4 [6]
0	0x3e35f8c7	0.17770682
1	0xbe59f770	-0.21285796
2	0x3dbc1141	0.091829784
3	0x3cd7769f	0.02630168
4	0xbdefe591	-0.11713708
5	0x3e502746	0.20327482

bachnorm_conv2.weight f4 [3]
0	0x3f53e137	0.82765526
1	0x3f74cf62	0.9562894
2	0x3f0d2e62	0.551489

bachnorm_conv2.bias f4 [3]
0	0xbdd70eaa	-0.10500844
1	0x3ddc4ba2	0.10756613
2	0xbdfa5e50	-0.1222502
