best_model_becker.pt (torch, 7135 bytes, 5 tensors)

dense1.weight f4 [50, 20]
0	0xbc7b69c0	-0.015345037
1	0xbed759ef	-0.420608
2	0xbcffee5b	-0.031241586
3	0x3f125abb	0.57169694
4	0x3eca4a62	0.39509875
5	0xbf02b404	-0.5105593
6	0xbe82eff0	-0.25573683
7	0xbe4a5bdc	-0.19761604
8	0xbe4c8652	-0.19973114
9	0xbd8a4322	-0.06751086
10	0xbe09bbf4	-0.13450605
11	0x3db270e0	0.087129354
12	0xbe73b8e6	-0.23801002
13	0x3f0e603e	0.55615604
14	0x3ef49ca3	0.47775754
15	0x3cc600a5	0.02417023
16	0xbcf9c62f	-0.03049001
17	0xbd9c209e	-0.07623409
18	0xbf1e9c8b	-0.61957616
19	0xbcc737b0	-0.024318546
20	0x3d929860	0.071579695
21	0x3e05559e	0.13020942
22	0xbee60e34	-0.4493271
23	0xbe25af7b	-0.16180222
24	0xbe4c85a1	-0.1997285
25	0xbee35289	-0.44398907
26	0xbf0d22a5	-0.5513099
27	0x3d717da0	0.058957696
28	0x3cc80c98	0.024420068
29	0xbee38aa7	-0.4444172
30	0xbcf24c58	-0.02957742
31	0x3e2e9ece	0.17052767
32	0xbec2942f	-0.3800368
33	0xbed182d9	-0.4092014
34	0xbed1c9fd	-0.40974417
35	0xbee15c08	-0.44015527
36	0xbeae4b29	-0.34041718
37	0x3ef42bc1	0.47689632
38	0x3d246cea	0.04014293
39	0x3de4171c	0.1113722
40	0x3dd057dc	0.10173008
41	0xbf05a9bb	-0.52212113
42	0xbdb677bb	-0.089095555
43	0xbed5b466	-0.41739196
44	0xbe87056f	-0.26371333
45	0xbec7d77a	-0.39031583
46	0xbda805c8	-0.08204228
47	0x3edc8887	0.43072912
48	0x3eb66662	0.35624987
49	0x3ec8dfa1	0.39233115
50	0x3e33758c	0.1752531
51	0xbe7e6391	-0.24842669
52	0x3d947a49	0.072498865
53	0x3d880864	0.066422254
54	0x3e0ed092	0.13946751
55	0xbe9cac59	-0.3060024
56	0xbddfad4d	-0.109217264
57	0x3efd3201	0.49452212
58	0x3eac9058	0.33703876
59	0x3ccba980	0.024861097
60	0x3e2a0bcc	0.16606063
61	0x3c2b614f	0.010460212
62	0x3eb6e20e	0.3571934
63	0x3ec6489f	0.3872728
64	0x3ea2599b	0.3170899
65	0x3e86e45a	0.26346093
66	0x3e9720f5	0.29517332
67	0x3eb0b205	0.34510818
68	0x3eca7b11	0.39547017
69	0x3ee2d02f	0.44299456
70	0xbdc941a2	-0.098269716
71	0x3d923feb	0.07141098
72	0x3d94124c	0.07230052
73	0x3d132b6f	0.035930093
74	0x3d2c9705	0.04213621
75	0x3e2b5e48	0.16735184
76	0x3d6bd933	0.057580184
77	0x3ee41881	0.44549945
78	0x3f0202fb	0.507858
79	0x3dc40edc	0.09573147
80	0x3ce206a0	0.02759105
81	0xbf09337b	-0.5359418
82	0xbeaa8bdc	-0.3330983
83	0xbe851530	-0.25992727
84	0xbe161001	-0.14654543
85	0xbc6cb4a6	-0.014447367
86	0xbeac854d	-0.3369545
87	0xbe1e79f8	-0.15476215
88	0xbef6eae1	-0.48226073
89	0xbe7e7a8c	-0.24851435
90	0x3cd26270	0.025681704
91	0x3edc382f	0.43011615
92	0xbec870de	-0.3914861
93	0xbeee25a4	-0.46513093
94	0xbe7fc217	-0.24976383
95	0xbe12ccbd	-0.14335914
96	0xbee89ed2	-0.4543367
97	0xbec3ea87	-0.38264868
98	0xbe94de64	-0.2907592
99	0x3e62594e	0.2210438
100	0x3d073118	0.033005804
101	0x3ed2bb3b	0.4115847
102	0x3ef4548e	0.4772076
103	0x3e8dd548	0.27701783
104	0x3ec13b3e	0.3774051
105	0x3e94ccf2	0.2906261
106	0x3ecab14c	0.39588392
107	0x3e275c81	0.16343881
108	0x3ea9d191	0.331677
109	0x3f225c4c	0.63422084
110	0x3c8c1d70	0.01710388
111	0x3eb74b41	0.35799602
112	0xbbed1739	-0.0072354344
113	0x3e2bb606	0.16768655
114	0x3ec3629c	0.3816117
115	0xbf004c07	-0.5011601
116	0xbdf6e1f8	-0.12054819
117	0xbf0d4a2a	-0.5519129
118	0x3ce3b88c	0.02779796
119	0xbce0c4e8	-0.027437642
120	0x3c824380	0.015901327
121	0xbebbd5ab	-0.36686453
122	0xbeb3d0ed	-0.35120335
123	0xbefb7c45	-0.49118248
124	0xbf3b9b4a	-0.7328383
125	0xbef004bd	-0.46878615
126	0xbd714c43	-0.05891062
127	0x3dc43380	0.09580135
128	0xbd97eeee	-0.07418619
129	0x3e9c9f0e	0.305901
130	0xbe248464	-0.16066128
131	0xbe42879f	-0.18997048
132	0xbe42cf2f	-0.19024347
133	0xbecd67e9	-0.4011834
134	0xbf141e35	-0.5785859
135	0xbec773bd	-0.3895549
136	0xbee80ec3	-0.45323762
137	0xbd65602e	-0.055999927
138	0xbee2cc69	-0.44296578
139	0xbdaeabb0	-0.085288405
140	0xbc9614c0	-0.018320441
141	0x3ef1db36	0.47237557
142	0xbea9689a	-0.33087617
143	0xbe9e4687	-0.30913183
144	0xbd6d6577	-0.057958093
145	0xbea7df15	-0.32787386
146	0xbea981d7	-0.33106872
147	0xbf09127e	-0.5354384
148	0xbe895cc9	-0.26828602
149	0xbea1d8bb	-0.31610665
150	0x3e0f4530	0.13991237
151	0x3ed8e545	0.4236242
152	0xbd992815	-0.07478348
153	0xbe9f7363	-0.3114272
154	0xbe529d5e	-0.20567843
155	0xbef6f73f	-0.4823551
156	0xbe20c0af	-0.15698503
157	0xbed283a0	-0.41116047
158	0x3d87ab75	0.066245
159	0xbe2b942c	-0.16755742
160	0xbe16cebc	-0.147273
161	0x3d3a8f20	0.04554665
162	0x3e054cb8	0.13017547
163	0xbe492ba4	-0.19645554
164	0xbe49d68e	-0.19710752
165	0xbcf6b768	-0.030116752
166	0xbe4018e4	-0.18759495
167	0xbe0024de	-0.12514064
168	0xbe97be58	-0.29637408
169	0xbeecd67b	-0.46257386
170	0x3d6bad18	0.057538122
171	0x3e27701c	0.1635136
172	0x3d04a2f0	0.03238195
173	0xbe252c63	-0.16130213
174	0x3d161c48	0.036648065
175	0xbe2bfe2f	-0.16796182
176	0x3e02f18a	0.12787452
177	0x3e8e8f8d	0.27843896
178	0x3eb24346	0.3481695
179	0xbcf4c9b0	-0.029881328
180	0xbe37b357	-0.17939506
181	0xbe74035b	-0.23829405
182	0x3efa035f	0.48830697
183	0xbeb615f4	-0.35563624
184	0xbec5e14b	-0.38648447
185	0xbf01c61d	-0.5069292
186	0xbe169dfc	-0.14708704
187	0xbe862f50	-0.26207972
188	0xbef8b885	-0.48578277
189	0xbf0bbbba	-0.54583323
190	0x3e1c7d2e	0.15282127
191	0x3df1c437	0.11805003
192	0x3e88b643	0.26701555
193	0x3e67e97e	0.22647664
194	0x3e95b7a0	0.29241657
195	0x3e1e7362	0.15473703
196	0xbd8c7161	-0.06857563
197	0x3e14b0c9	0.14520563
198	0x3e3d7aa1	0.1850381
199	0xbe08a81c	-0.13345379
200	0x3d53a780	0.051673412
201	0xbf27aed2	-0.6550113
202	0xbec47aba	-0.38374883
203	0xbddc4605	-0.10755543
204	0x3e78ffd3	0.24316339
205	0xbc640906	-0.013918167
206	0xbd586b15	-0.052836496
207	0x3e742455	0.23841985
208	0xbc36c489	-0.011155256
209	0xbee69a27	-0.45039484
210	0x3e318708	0.17336667
211	0xbe1c8677	-0.1528567
212	0x3f623918	0.8836837
213	0x3f117e6a	0.5683352
214	0x3f1eabb5	0.61980754
215	0xbe79de0f	-0.24401115
216	0x3d6e0491	0.058109824
217	0x3f0af4b1	0.5427962
218	0x3f054052	0.5205127
219	0xbdc2c9e4	-0.09511164
220	0x3d64ae10	0.05583006
221	0x3e07ef58	0.13274896
222	0x3d68c540	0.056828737
223	0x3eb921ee	0.361587
224	0x3eddff78	0.4335897
225	0x3f16ef87	0.5895924
226	0x3efe5cb7	0.4968011
227	0x3e8a0ce4	0.2696296
228	0xbddb11fd	-0.1069679
229	0xbe22b91d	-0.15890928
230	0x3e2ce5ae	0.16884491
231	0xbd07d99b	-0.03316651
232	0x3eae2269	0.34010628
233	0x3ef0eb72	0.4705463
234	0x3ed8cd41	0.42344096
235	0x3e8b03df	0.2715139
236	0x3eb1ad44	0.34702504
237	0x3f130c4a	0.57440627
238	0x3ef3ca61	0.4761534
239	0x3d0ed8f8	0.034874886
240	0xbe4145d2	-0.1887429
241	0xbe66395c	-0.22482818
242	0x3d8795ae	0.06620346
243	0xbe8d4582	-0.27592093
244	0xbe9af1de	-0.30262655
245	0xbecdf470	-0.40225554
246	0x3aeddeb3	0.0018148035
247	0xbf637ac0	-0.88859177
248	0xbf5dde29	-0.86667114
249	0xbeb44cff	-0.35214993
250	0xbde22b9d	-0.11043475
251	0x3c7daa30	0.01548247
252	0x3e492aa5	0.19645174
253	0xbea3e171	-0.32007936
254	0xbd9867a3	-0.07441642
255	0xbf02ea91	-0.5113917

dense1.bias f4 [50]
0	0xbe8a8669	-0.27055672
1	0xbebc8db1	-0.36826852
2	0x3ec518c5	0.3849546
3	0x3f02a357	0.51030487
4	0xbf0b571b	-0.5442979
5	0x3f5fc2ae	0.8740643
6	0x3eb7754b	0.35831675
7	0xbe45ce5e	-0.19317004
8	0xbecf42d1	-0.40480664
9	0xbeda6fca	-0.42663413
10	0xbe1617af	-0.14657472
11	0xbe8de268	-0.27711797
12	0xbbf8366e	-0.007574848
13	0x3e298fcb	0.16558759
14	0x3dd71b96	0.105033085
15	0xbec56812	-0.38555962
16	0xbec9ea72	-0.3943668
17	0x3e35baec	0.17747086
18	0xbde41f3e	-0.111387715
19	0x3e9781c8	0.29591203
20	0x3c81610b	0.015793344
21	0x3ea6fee1	0.32616332
22	0xbe996a52	-0.29963928
23	0xbe9cf14e	-0.3065285
24	0x3e0fdc8a	0.14048973
25	0x3e73cdb8	0.23808944
26	0x3eaa1bba	0.3322428
27	0xbdfc1005	-0.12307743
28	0x3bdebf70	0.0067977235
29	0xbf0d2841	-0.5513955
30	0x3da56386	0.08075623
31	0xbee01093	-0.43762645
32	0x3f1ae7ee	0.60510147
33	0x3f067d40	0.52534866
34	0xbe0059ae	-0.1253421
35	0xbe787896	-0.2426475
36	0xbeee93c2	-0.46597105
37	0x3ddccddc	0.10781452
38	0x3e9a52f3	0.3014141
39	0x3d7bd83d	0.061485518
40	0xbeca7c58	-0.39547992
41	0x3e58c2b9	0.21168031
42	0xbeac5b34	-0.33663332
43	0x3df13fb9	0.11779732
44	0x3f03601f	0.51318544
45	0xbea57262	-0.3231383
46	0x3f0107fa	0.50402796
47	0xbeec91e7	-0.46205065
48	0xbebffdcb	-0.37498316
49	0x3ed045aa	0.4067815

dense2.weight f4 [1, 50]
0	0x3e0d297e	0.1378536
1	0x3d023429	0.031788025
2	0xbe89e8dd	-0.26935473
3	0xbe22c524	-0.15895516
4	0x3da3c581	0.07996655
5	0x3eceab1b	0.40364918
6	0xbdfe3bd7	-0.12413757
7	0x3cb1cbc9	0.021703618
8	0xbdb9d5c8	-0.09073979
9	0x3e61c5cd	0.22048111
10	0xbe0e91de	-0.13922831
11	0xbcddb0a6	-0.027061772
12	0x3f679107	0.9045567
13	0xbea920e1	-0.33032897
14	0x3ea920b6	0.3303277
15	0xbf64ce69	-0.89377457
16	0x3eacc99e	0.33747572
17	0x3dc81a04	0.09770587
18	0xbedc43d3	-0.43020496
19	0x3e2a12c3	0.1660872
20	0x3d8e412c	0.06946024
21	0xbecc38f5	-0.39887205
22	0x3e7dead7	0.24796616
23	0xbcea4e97	-0.028601928
24	0x3efd5fa6	0.49487036
25	0x3ca6f5f0	0.020380944
26	0x3e8678d2	0.26264054
27	0x3dc09bbb	0.09404703
28	0xbcf6ad47	-0.030111922
29	0x3ddc95bc	0.10770747
30	0xbd723372	-0.059131093
31	0xbf6893d1	-0.9085055
32	0x3e40963c	0.1880731
33	0xbdb9f22d	-0.090793945
34	0x3e602a74	0.21891195
35	0x3f735ca2	0.9506322
36	0xbdf3804b	-0.11889704
37	0xbcd59bcd	-0.026075268
38	0x3da32a44	0.07967046
39	0xbe1a581c	-0.15072674
40	0xbf1695a1	-0.58822066
41	0xbda386d8	-0.07984704
42	0xbe1569db	-0.14591162
43	0xbb8f2ea7	-0.004369575
44	0xbe366e75	-0.17815574
45	0x3ae19135	0.0017209413
46	0xbeafa1a3	-0.34303007
47	0x3f0d169f	0.5511264
48	0x3cabca05	0.020970354
49	0x3e8c5351	0.27407315

bachnorm1.weight f4 [50]
0	0x3f18eec4	0.5973933
1	0x3f0c23ef	0.5474233
2	0x3f7b3fc1	0.98144156
3	0x3f576c24	0.84149384
4	0x3f2ef9e0	0.6835003
5	0x3f8782df	1.0586814
6	0x3f3b0294	0.7305081
7	0x3f04dc12	0.518983
8	0x3f31cd7f	0.6945419
9	0x3f36d5af	0.71419805
10	0x3ea173f7	0.31533787
11	0x3ebefe6a	0.37303478
12	0x3f8dfaff	1.1092223
13	0x3f80eabf	1.0071639
14	0x3f8f4e20	1.1195717
15	0x3f3037ce	0.6883515
16	0x3f6d5dcd	0.92721254
17	0x3f28d92d	0.65956384
18	0x3f21f660	0.63266563
19	0x3f5e2a80	0.867836
20	0x3f589b5d	0.84612066
21	0x3f8334b7	1.0250462
22	0x3f72b7a0	0.9481144
23	0x3f16d4e2	0.58918583
24	0x3fa26b4c	1.2688994
25	0x3f4053a8	0.7512765
26	0x3f550c1b	0.83221596
27	0x3f38e2ee	0.7222127
28	0x3f2827d3	0.65685767
29	0x3f2d7a9b	0.67765206
30	0x3f28131b	0.6565415
31	0x3f332299	0.69974667
32	0x3f673e15	0.90329105
33	0x3f2e8516	0.68171823
34	0x3f34672e	0.7046994
35	0x3fa61c62	1.2977412
36	0x3f43dc9f	0.76508516
37	0x3f2fb969	0.6864229
38	0x3f23cc0a	0.63983214
39	0x3f038d3d	0.5138739
40	0x3f3321dd	0.69973546
41	0x3f06c38f	0.5264215
42	0x3f336c7e	0.7008742
43	0x3efc4e39	0.4927843
44	0x3f4734dc	0.7781503
45	0x3f0d790e	0.5526284
46	0x3f28aacd	0.6588562
47	0x3f850be1	1.039425
48	0x3f35d936	0.7103456
49	0x3f5c574b	0.860707

bachnorm1.bias f4 [50]
0	0x3e8aa681	0.27080157
1	0x3eea02ce	0.45705265
2	0x3f52bdc3	0.82320803
3	0x3f108c08	0.5646367
4	0x3f0944e5	0.5362075
5	0xbdc3eaa7	-0.09566241
6	0xbf365dcf	-0.7123689
7	0x3ee73622	0.45158488
8	0x3ecd7c8d	0.40134087
9	0xbe8333d9	-0.25625494
10	0xbe584a62	-0.21122125
11	0x3ca311fd	0.019906038
12	0xbf73cf6a	-0.95238364
13	0x3f455e82	0.7709733
14	0xbf62abf6	-0.8854364
15	0x3f73fb16	0.95305
16	0xbf60876b	-0.8770663
17	0xbee24d69	-0.44199684
18	0x3ef2d612	0.47428948
19	0xbf473f9b	-0.7783143
20	0xbf43029c	-0.76175857
21	0x3f37bd69	0.7177339
22	0xbf63be4e	-0.88962257
23	0xbf3e3645	-0.7430156
24	0xbf74088c	-0.9532554
25	0x3efff5bc	0.49992168
26	0x3e87ceb8	0.265249
27	0xbf15f25e	-0.5857295
28	0xbf303de1	-0.6884442
29	0x3ebcec41	0.36898997
30	0xbf2502e7	-0.64457554
31	0x3f46d456	0.7766775
32	0xbf3969b9	-0.72426945
33	0xbf4cb94d	-0.79970247
34	0xbebf3153	-0.3734232
35	0xbf5eff7d	-0.87108594
36	0x3d007219	0.031358812
37	0xbf2727f6	-0.6529535
38	0x3c951976	0.018200617
39	0xbf08fc46	-0.5350994
40	0x3f1264cf	0.5718507
41	0x3eeb8205	0.45997635
42	0x3e8c2296	0.27370137
43	0x3e9ca972	0.30598027
44	0x3eb54105	0.35401168
45	0xbf3abdcd	-0.72945863
46	0xbe0394a6	-0.12849674
47	0xbf6e71e4	-0.93142533
48	0xbf339757	-0.701528
49	0xbf4fed7e	-0.8122176
