best_model_becker.pt (torch, 22047 bytes, 13 tensors)

conv1.weight f4 [6, 2, 3]
000000 c3 8a ba 3d 1c 05 95 be 54 81 a9 3e 0f eb 17 bd
       0.09108498 -0.2910546 0.33106482 -0.037089404
000010 eb ea 6d 3e c0 87 18 3f c1 11 b3 bd c2 70 8d be
       0.23234145 0.5958214 -0.08743621 -0.2762509
000020 3f 1a 16 3f 17 c9 4c bf 8e 0a 9b 3d 6a 99 50 3e
       0.586338 -0.7999434 0.075703725 0.20371023
000030 23 66 e0 be fe 83 a6 3e fe d9 07 bf f3 cd 0d 3f
       -0.43827924 0.32522577 -0.53067005 0.5539238
000040 1b be 4d 3e 73 13 f9 3d 3d 91 c1 3d 49 ba 8f 3d
       0.2009205 0.12161913 0.0945153 0.07017953
000050 63 c5 34 ba 4c 16 24 3f 38 c4 b9 3e fb f3 52 3f
       -0.0006895868 0.6409652 0.36282516 0.82403535
000060 8f 89 5d be c1 e5 c5 be 74 8e a2 bd a7 50 1f be
       -0.21634506 -0.3865185 -0.07937327 -0.1555811
000070 2b 23 0d bf b2 87 07 bf 6a 41 f6 be e2 1c b1 3d
       -0.5513179 -0.5294143 -0.48096782 0.08648087
000080 73 bf 20 bf 37 58 0e 3f c7 c8 8d 3e 93 0a 3c 3e
       -0.6279213 0.55603355 0.27692243 0.18363409

conv1.bias f4 [6]
000000 b0 0a e6 3d 94 af 16 3e 2d c0 0e bf bb 8a 4a 3f
       0.11232507 0.14715415 -0.55761987 0.79117936
000010 2d 8a 2e 3f 2d 85 57 bd
       0.6817959 -0.05261724

conv2.weight f4 [3, 6, 3]
000000 c5 e3 57 3e 64 d0 f4 bd 01 f7 78 3d 6f e3 07 bc
       0.21082981 -0.1195381 0.060782436 -0.0082939705
000010 6d 39 80 3e c3 6b 47 be 12 1d 20 3e 2f 80 3d 3e
       0.25043812 -0.19474702 0.1563609 0.1850593
000020 98 e0 27 3f 72 fa c5 3e aa 3d ed bd 50 af a7 3c
       0.6557708 0.38667637 -0.11584027 0.020469338
000030 2b 0a 08 3f e2 0a 47 be bd 25 0e be 18 52 53 3f
       0.53140515 -0.19437745 -0.13881584 0.8254714
000040 58 b5 03 3f b4 91 7d be 1f 27 c2 3e 15 2f 53 3d
       0.51448584 -0.24762613 0.37920472 0.051558573
000050 2d 6e 24 bb 95 16 23 3f ae cf 8e bd 7c 46 43 bd
       -0.0025090084 0.6370633 -0.069732055 -0.04767464
000060 8a 8e 86 be e5 89 49 3f 1d 9e b8 be e2 73 cb 3d
       -0.26280624 0.78726035 -0.3605813 0.09934212
000070 20 dc f8 be 6a 29 c7 be 6d ed f6 3d 7b 20 b2 3d
       -0.48605442 -0.38898784 0.12057004 0.086976014
000080 52 43 2a bd eb b6 45 be 2f 04 25 3e 00 6b 04 bf
       -0.041568108 -0.19308059 0.16114877 -0.5172577
000090 a2 4b 9e bc 12 ab d8 3c 9b 26 cf be 35 36 d9 be
       -0.019323174 0.02644876 -0.4045914 -0.4242417
0000a0 c7 1e 13 be f6 d5 cb be a7 58 5b 3f ba 14 24 be
       -0.1436721 -0.39811677 0.8568215 -0.16023532
0000b0 68 40 99 3e 3f d3 69 bd 27 a8 aa 3e f4 37 5b be
       0.2993195 -0.057086226 0.33331415 -0.21408063
0000c0 83 c6 31 3c 7e e0 8d 3d f9 92 e3 3d bf 5f 11 3f
       0.010850552 0.06927584 0.11112017 0.5678672
0000d0 50 29 ba bc af db c7 3c
       -0.022724777 0.024396745

conv2.bias f4 [3]
000000 05 ff 20 3d c8 19 b0 3e 68 87 93 be
       0.039305706 0.3439467 -0.28814244

dense1.weight f4 [50, 80]
000000 14 87 a0 3d 3c a4 98 bc 20 b3 8e bd 24 cf 27 bd
       0.07838264 -0.018633 -0.06967759 -0.04096903
000010 dc 43 d5 3d 38 1f b5 bc 50 17 e1 3c cc 15 d6 bd
       0.10413334 -0.022109613 0.027476937 -0.10453376
000020 8e 19 45 bd 5c 7f 94 bc 20 75 76 3b 20 9f b5 bd
       -0.048120074 -0.018127136 0.0037606433 -0.08868241
000030 f8 c1 48 bc a4 83 05 bd bc b8 c7 3d 35 fe 5b bd
       -0.012253277 -0.032596245 0.09752032 -0.053709228
000040 74 c1 68 3d e6 41 29 bd b8 4b b5 3c 48 3c 68 3d
       0.056825116 -0.04132261 0.022130832 0.056698114
000050 6c 3d cc bc 00 a6 77 3c 0c d4 e1 bd a2 b2 ae 3d
       -0.024931632 0.015115261 -0.11026773 0.08530165
000060 d8 54 50 bc 28 0e a6 3d 52 b1 df 3d 3d 76 b7 bd
       -0.012715541 0.08108169 0.10922493 -0.08958099
000070 49 98 96 bd 8a 6b 2d bd f6 45 c2 3d 71 24 d2 bd
       -0.07353265 -0.042338885 0.09486 -0.10260857
000080 74 b8 dd bd 52 a4 5b bd 10 b1 c3 3c 00 39 87 3d
       -0.10826197 -0.053623505 0.02388814 0.06602669
000090 36 eb b9 3d 90 7c 2d 3c 20 e3 1c bb d8 71 d9 3c
       0.09078066 0.01058878 -0.0023939088 0.026543543
0000a0 5a 78 bd bd ca 70 c0 3d 20 9d 8c 3d 7e 07 c4 bd
       -0.09251471 0.09396513 0.06865907 -0.095717415
0000b0 cc 5e 60 3d 97 27 ba bd 58 68 9f bd ac 72 a3 3d
       0.054777905 -0.090895824 -0.07783574 0.07980856
0000c0 5c 76 84 bd 60 0b 75 bb 40 13 85 bb 70 7e b2 bc
       -0.06467888 -0.0037390813 -0.0040611327 -0.021788806
0000d0 4c 8c 8c bc e0 6b 30 bd da 9b bc 3d 00 c8 47 b8
       -0.017156743 -0.043071628 0.09209414 -4.763156e-05
0000e0 a8 ef 60 3d e4 5f 12 3d 14 2a a6 bd 18 0e 42 bc
       0.054916054 0.03573598 -0.081134945 -0.0118441805
0000f0 50 0b b5 3d 8c 9d 27 bd 4e b8 bf 3d 9c 20 aa 3d
       0.08840048 -0.040921733 0.09361325 0.08307001
000100 4d a6 cb bd 58 de a7 3d e0 f4 18 3b ca f1 9e bd
       -0.09943829 0.081967056 0.0023339316 -0.07760961
000110 10 3e f4 3b d0 a0 da 3c a6 33 26 bd 42 b9 08 bd
       0.0074536875 0.02668801 -0.0405766 -0.0333798
000120 3e af 90 3d 45 c4 c2 bd 32 7d 14 bd 75 33 5e bd
       0.07064675 -0.09510092 -0.036252208 -0.054248292
000130 98 ac 35 3d a0 06 73 bb 12 a8 bc bd 78 89 07 bc
       0.04435405 -0.0037082806 -0.09211744 -0.008272521
000140 05 36 cd be 63 ed cc 3e 9b b6 99 3e d2 ce bf 3e
       -0.40080276 0.40024862 0.3002213 0.3746248
000150 35 68 80 3e 8e a2 c7 3e b2 7d 9b 3e 4d ac b2 be
       0.25079504 0.38991207 0.30369335 -0.3489708
000160 72 5d a1 be 6f 8b 6b 3e 9d 1c 83 be 06 cc 8a be
       -0.31516606 0.23002408 -0.25607768 -0.27108783
000170 c8 e8 b5 be 4a 4d 4a 3e 74 cc 95 3e a2 a6 bc 3e
       -0.3552916 0.19756046 0.29257548 0.3684588
000180 98 c9 70 be c5 c9 73 be 56 98 c2 be 70 9f 70 3e
       -0.23514402 -0.23807438 -0.38006848 0.2349832
000190 b1 fb 99 be 74 f6 5f 3e 58 52 d1 3e 59 17 be be
       -0.30074838 0.21871358 0.40883136 -0.37127188
0001a0 d7 a0 a2 3e 52 72 9e 3e 0f fb b4 be c0 06 5d be
       0.31763336 0.30946594 -0.35347793 -0.21584606
0001b0 7a 97 d2 3e 55 76 73 3e 83 b5 58 3e f9 3c c8 3e
       0.41131192 0.23775609 0.21162991 0.39109018
0001c0 00 05 be 3e 50 24 a9 be d1 e8 59 3e 2a 25 9f 3e
       0.3711319 -0.33035517 0.21280219 0.3108304
0001d0 01 ef 9d be de 50 ca 3e 00 fb bd be 7d 4a 47 be
       -0.30846408 0.39514822 -0.3710556 -0.19462009
0001e0 5b 0f c8 be 80 f4 b2 3e f8 67 bc be d7 09 9b 3e
       -0.39074215 0.34952164 -0.36798072 0.30280945
0001f0 f2 d8 43 3e 96 e6 4a 3e 4b dd c3 be c7 e4 98 be
       0.19125727 0.19814524 -0.3825477 -0.29862043
000200 d6 de c4 3e 7f ec 67 be 17 d1 c5 3e 7c 03 9f 3e
       0.3845126 -0.2264881 0.38636085 0.31057346
000210 d1 fb a6 be 6e 82 79 be dd 57 71 be 33 d9 8b be
       -0.32613996 -0.24366161 -0.23568673 -0.27314147
000220 6d 5d 6d 3e fc 75 aa be 61 ec da be d9 d6 c2 be
       0.2318017 -0.3329314 -0.42758468 -0.3805454
000230 ef 11 c0 be 49 54 c1 be c0 84 50 be 92 e2 af be
       -0.37513682 -0.37759617 -0.2036314 -0.34352547
000240 25 fd c2 be 9f 24 79 be e0 eb 6d 3e 88 80 96 be
       -0.3808376 -0.24330376 0.2323451 -0.29394937
000250 e3 f0 6b 3e f1 fd b2 be ee 0e 58 be 7f 1a 4e 3e
       0.2304111 -0.34959367 -0.21099445 0.20127295
000260 08 19 aa 3e 42 55 4c 3e 3d 7f 70 3e d2 a0 88 3e
       0.33222222 0.19954398 0.23486038 0.26685196
000270 81 6b c0 be 18 61 79 3e 37 5c 8f be 09 88 cd be
       -0.3758202 0.24353445 -0.28000042 -0.4014285
000280 e2 59 9e 3d 48 d2 e2 3c 80 b1 2c 3d a0 f2 a6 3b
       0.077319875 0.02768816 0.042161465 0.005094841
000290 f5 e9 cb bd ce 96 46 bd 08 72 20 3d 22 c6 ce 3d
       -0.09956733 -0.048483662 0.03917125 0.100963846
0002a0 e6 26 70 bd 88 fb e2 bd c0 15 86 3d c8 5a 00 bd
       -0.058630846 -0.11083132 0.06547117 -0.031336576
0002b0 06 fd df 3d 40 a2 a6 3c 09 8b da bd a0 0f e5 bb
       0.10936932 0.020341039 -0.1067105 -0.006990388
0002c0 63 67 d4 bd d0 d2 d9 bb 4d 70 d7 bd 28 5e 8b 3d
       -0.10371282 -0.0066474453 -0.105194665 0.06805068
0002d0 7e d0 9a 3d 56 86 89 3d 08 d6 49 3d b3 11 91 bd
       0.07559298 0.06715076 0.04927638 -0.07083454
0002e0 90 25 e2 3b f0 bd d5 3c 20 ca 5f 3d b8 29 22 3c
       0.0069014505 0.026091546 0.05463612 0.009897642
0002f0 b0 d4 ac bc 90 58 e7 3c 44 5f 0a 3d 72 f4 39 bd
       -0.021097511 0.028240472 0.03378226 -0.045399137
000300 a8 df 0a 3d 7f 3b 60 bd 00 72 2a bb 36 fb cd bd
       0.0339047 -0.05474424 -0.002600789 -0.1005768
000310 ec e8 68 3d 0a 7a 41 bd d0 7c 37 bc d8 04 43 bc
       0.056862757 -0.047235526 -0.011199191 -0.01190301
000320 f8 fb fc bc f0 9c 92 3d 97 f5 a4 bd f8 e0 d8 3c
       -0.030881867 0.0715884 -0.08054655 0.026474461
000330 c0 2a 50 3c a4 3e ab 3d 88 d8 ba 3c 06 38 9c 3d
       0.012705505 0.08361557 0.022808328 0.07627873
000340 82 98 c7 3d c4 a2 bd bc 18 dd 11 3c 36 f2 47 bd
       0.097458854 -0.023148902 0.0089028105 -0.048814975
000350 a8 30 35 3d f2 cd d1 3d 4d a4 8d bd 30 fb 79 bd
       0.044235855 0.10244359 -0.069161035 -0.061030567
000360 18 56 f0 3c ee 55 9a bd 60 ea 28 3d 6c b1 c3 bc
       0.029337928 -0.07535921 0.041239142 -0.023888312
000370 5e b8 83 bd 00 2c 09 ba 18 91 47 3d bb 8a c9 bd
       -0.064316496 -0.0005232692 0.048722357 -0.09840914
000380 f8 26 2f 3d 26 e2 86 bd 68 e6 b2 3c 19 11 dc bd
       0.042761773 -0.06586103 0.021838382 -0.107454486
000390 72 3c ad 3d 6a 94 d9 3d 14 f7 d0 3d 08 81 04 3d
       0.08458795 0.10624011 0.102033764 0.032349616
0003a0 fa 58 3e bd 32 31 a4 3d 58 17 0a 3d 80 8f 34 3d
       -0.046471573 0.08017196 0.03371367 0.044082165
0003b0 90 6f f6 3c dc eb 6a 3d 18 65 b2 bd 10 b7 21 3c
       0.030082494 0.05735384 -0.08710688 0.009870306
0003c0 c8 aa a9 3e ae 8c a8 3e 78 5e a6 3c 8f 7a 60 bd
       0.33138108 0.3291983 0.020308718 -0.05480438
0003d0 81 43 2e be 0c f5 15 3f 64 c5 cb 3e 17 24 ed 3e
       -0.17017938 0.58577037 0.39799035 0.46316597
0003e0 1d a4 88 3e 71 47 b2 3b 1e c7 06 be e5 03 67 be
       0.26687708 0.0054406454 -0.13161895 -0.2256008
0003f0 59 97 76 be a4 f9 0e 3e 33 1e 12 be 2c 03 d0 3e
       -0.24081172 0.13962418 -0.14269333 0.4062742

dense1.bias f4 [50]
000000 fa 51 dc 3d 2f 1d a1 be f8 d5 56 3d 8a ef 68 3e
       0.10757823 -0.31467578 0.05245015 0.22747627
000010 5a 02 a5 be b3 da d3 be 98 39 ea 3e 5e fa a7 3e
       -0.32228357 -0.41377792 0.45747066 0.32808203
000020 25 b5 94 be 01 76 b5 3e f3 e2 47 3e 47 5f 95 3e
       -0.29044452 0.35441592 0.19520168 0.29174253
000030 65 e8 76 3e 36 03 c5 be f8 c0 97 3e e4 1e 99 be
       0.24112089 -0.38479012 0.2963941 -0.2990638
000040 58 7c c0 3e 20 ab 3e 3c 12 be a5 3e 73 24 1e be
       0.37594867 0.011637479 0.32371575 -0.15443592
000050 f9 95 9e bd a6 d1 71 3e 32 58 bd 3e ad 8c b8 be
       -0.07743449 0.23615131 0.3698135 -0.36044827
000060 d0 d4 95 bc 8a d6 2e 3e fd 21 17 be 42 84 d0 3e
       -0.018289953 0.17074028 -0.14759059 0.40725905
000070 10 cf b6 3d 7e 1a ca be 4c 12 a1 3e c4 7e 52 3e
       0.08926213 -0.39473337 0.31459272 0.2055617
000080 e1 c5 69 3e 98 e9 df 3c 1a b0 b4 3d e9 d0 22 3e
       0.22829391 0.027333066 0.08822651 0.15900005
000090 6c f0 84 3d 0c d1 17 bf b1 82 08 3f 6b 74 b7 be
       0.06491169 -0.59303355 0.5332442 -0.35831007
0000a0 50 ac ae 3b a9 49 4b be 72 71 a8 be 05 32 60 be
       0.0053306 -0.19852318 -0.32899052 -0.21894081
0000b0 d8 cf 8d be 5b dd d0 3e db 6a 9f be 2a 83 00 be
       -0.27697635 0.4079388 -0.31136212 -0.12550035
0000c0 c0 b4 8b 3d ac a6 8f bd
       0.06821585 -0.07014212

dense2.weight f4 [1, 50]
000000 9f fe 27 3f 93 a4 19 3e 97 04 51 3f e4 a4 a9 3d
       0.65622896 0.15004186 0.8164763 0.082834035
000010 00 36 ed 3e 1a 37 f1 be 36 59 74 3d d5 f2 33 be
       0.4633026 -0.47112352 0.05965539 -0.17573102
000020 18 00 3a 3e fe 3c 62 be 75 66 70 be 0b c8 3b 3e
       0.18164098 -0.22093579 -0.23476584 0.18338029
000030 c5 67 6f 3d d3 c8 86 be 20 79 50 be 19 be 2f 3e
       0.05844857 -0.26325092 -0.20358706 0.1716236
000040 c2 5c 5d bd ab 3b 58 3f 04 66 38 3d 16 35 6d be
       -0.05404354 0.84466046 0.045019165 -0.23164782
000050 e1 64 5a 3f 69 45 1d bd 57 d3 5a be 10 fc 57 3e
       0.8531018 -0.038396273 -0.21369682 0.21092248
000060 b9 f6 49 bf bb 63 66 be 84 af 28 bf 31 a9 bb 3c
       -0.78892094 -0.22498982 -0.65892816 0.022907825
000070 ae 19 3d bf 44 89 ab 3d b8 66 a8 be 1c 0d 8e be
       -0.7386731 0.08375791 -0.32890868 -0.27744377
000080 c4 a6 dd bd 3a 62 38 3f 85 97 4b 3f 68 b5 51 bd
       -0.10822824 0.7202488 0.79528075 -0.051198393
000090 39 b9 16 bf a0 e3 36 3f ed 55 e2 3e 02 52 c8 be
       -0.5887638 0.7144108 0.4420618 -0.39125067
0000a0 15 95 69 3f 66 c3 3b be 7e 75 87 3d 79 03 4e bc
       0.91243106 -0.18336257 0.06614207 -0.01257407
0000b0 3c 16 48 be a3 14 05 be 27 29 0f bd fb 89 28 3e
       -0.19539732 -0.12996154 -0.034951355 0.16458885
0000c0 f6 e6 46 bf eb 23 30 bf
       -0.7769617 -0.68804806

bachnorm1.weight f4 [50]
000000 00 00 80 3f fe f7 2d 3f 00 00 80 3f 46 35 8d 3e
       1.0 0.6795653 1.0 0.27579707
000010 66 e1 1d 3f 0b ec 14 3f 42 fa 6e 3f 38 8a 6d 3f
       0.61672056 0.58172673 0.93350613 0.9278903
000020 5e b7 41 3e a1 a2 6b 3f ca 80 1b 3f 22 a5 d1 3e
       0.18917605 0.92045027 0.6074339 0.409463
000030 8c d2 ad 3e ba 75 24 3f 69 44 07 3f 73 2d 04 3f
       0.33949697 0.64242136 0.5283876 0.5163185
000040 e0 68 2b 3f 00 00 80 3f 07 db 11 3f 91 6f 18 3f
       0.669569 1.0 0.56974834 0.59545237
000050 00 00 80 3f ef 5f eb 3e 95 62 6f 3f c1 12 f4 3e
       1.0 0.4597163 0.935098 0.47670558
000060 00 00 80 3f 5e b6 5c 3f ec ef 3d 3f 74 31 00 3f
       1.0 0.8621577 0.74194217 0.5007546
000070 00 00 80 3f c4 d6 16 3f b3 66 f6 3e 95 4a 67 3f
       1.0 0.58921456 0.48125228 0.9034818
000080 57 42 26 3f 00 00 80 3f 00 00 80 3f 7a ab 06 3f
       0.64944977 1.0 1.0 0.526054
000090 00 00 80 3f fe 33 17 3f 44 01 78 3f 20 d8 76 3f
       1.0 0.5906371 0.9687693 0.9642353
0000a0 00 00 80 3f 68 ee 4d 3f 78 7c 27 3f 8e 3f 1e 3f
       1.0 0.80441904 0.654243 0.61815727
0000b0 dc 8d 03 3f e0 e7 12 3e fd b0 2c 3f 49 37 4b 3f
       0.51388335 0.14346266 0.6745756 0.79381233
0000c0 00 00 80 3f 00 00 80 3f
       1.0 1.0

bachnorm1.bias f4 [50]
000000 39 4d 15 bf 51 c2 c9 be 51 19 73 bf 7c 70 ac be
       -0.5832096 -0.39406064 -0.94960505 -0.3367957
000010 78 f7 2c bf 6c da 19 3f 6d 40 2c bf fd fa 89 bd
       -0.6756511 0.6009891 -0.67285806 -0.06737325
000020 9b 51 8d 3e 79 d9 cc be bd ca 8b bd 43 5f aa 3e
       0.27601323 -0.40009668 -0.06825779 0.33275804
000030 d3 eb 88 3e c4 7a e9 3e 11 de bb be 51 99 b7 3e
       0.2674242 0.45601475 -0.3669286 0.3585916
000040 bd f9 65 bd 6c 07 34 bf 19 73 89 be d7 42 ad be
       -0.056146372 -0.70323825 -0.26845625 -0.33840057
000050 f1 b4 3b bf 01 18 81 be db 9f 5a 3d c9 8d 87 3e
       -0.7332297 -0.25213626 0.053375106 0.2647536
000060 30 1b 1d 3f d0 10 3b 3f 80 6a 42 3f 29 0e a1 3e
       0.6136961 0.7307253 0.75943756 0.31456116
000070 3b 41 4e 3f 8f 5c fc 3e aa fd 2c 3f eb c5 0b 3e
       0.80568284 0.49289367 0.6757456 0.13649718
000080 c9 93 4e be 3c 86 47 bf ec df 4d bf 26 db e5 be
       -0.20173563 -0.779392 -0.804198 -0.4489376
000090 ff 76 1c 3f b4 7b 28 bf 64 01 61 bf 11 0e 25 3f
       0.61119074 -0.65813756 -0.87892747 0.6447459
0000a0 eb 9e 39 bf 49 29 50 3f 1b 49 f0 3e 1c f7 b4 3e
       -0.72508115 0.81312996 0.46930775 0.3534478
0000b0 24 ba 6d 3e 64 a5 14 be fc fe f6 be 7b ec 1e bf
       0.23215538 -0.14516217 -0.48241413 -0.6207959
0000c0 14 c9 2b 3f 02 10 60 3f
       0.67103696 0.87524426

bachnorm_conv1.weight f4 [6]
000000 74 08 1e 3f 48 08 43 3f 22 03 f0 3f df da 0f 3f
       0.6173165 0.7618451 1.8750956 0.56193346
000010 cb 96 68 3f 66 ee a4 3f
       0.9085509 1.2885253

bachnorm_conv1.bias f4 [6]
000000 de 15 b2 3e 50 c1 94 bd a4 01 e3 bd d1 05 a4 bc
       0.34782308 -0.07263434 -0.11084297 -0.020022305
000010 a4 a4 a5 be 75 55 8b 3e
       -0.32352173 0.27213636

bachnorm_conv2.weight f4 [3]
000000 03 94 51 3f c3 84 88 3f b0 9f ca 3e
       0.8186647 1.0665516 0.39574957

bachnorm_conv2.bias f4 [3]
000000 a6 95 83 3d 4a b8 64 3f e8 ba 94 3e
       0.064250275 0.893437 0.29048848
