best_model_becker.pt (torch, 64031 bytes, 13 tensors)

conv1.weight f4 [6, 2, 3]
0	0x3f14c0a1	0.5810643
1	0x3e68c5d2	0.22731712
2	0x3e297ed8	0.16552293
3	0x3d4c24a7	0.049839642
4	0xbe6684d2	-0.22511604
5	0xbf1f3007	-0.6218266
6	0xbe2c6ced	-0.16838427
7	0x3e9b348d	0.3031353
8	0x3eefc592	0.46830422
9	0xbf3bd436	-0.73370683
10	0xbe81d66d	-0.25358906
11	0xbf0556a1	-0.5208531
12	0x3eb49f3c	0.35277736
13	0x3f32304a	0.69604933
14	0x3d048be4	0.032359973
15	0x3f2cbf81	0.6747971
16	0x3e883fff	0.26611325
17	0x3d3c67d4	0.045997456
18	0x3da4240b	0.08014687
19	0xbec0b70a	-0.37639648
20	0xbec7a210	-0.3899083
21	0xbf015fa3	-0.50536555
22	0xbeb49858	-0.3527248
23	0xbf937f40	-1.1523209
24	0xbdb558c5	-0.08854822
25	0xbf59dd76	-0.8510355
26	0x3e288ee0	0.16460752
27	0xbe92b0c5	-0.2865049
28	0xbf0dde2d	-0.5541714
29	0xbf7fe583	-0.9995958
30	0x3e1007e8	0.14065516
31	0x3e3d4b01	0.18485643
32	0x3f7710ec	0.96510196
33	0xbf52a481	-0.82282263
34	0xbe961240	-0.293108
35	0x3f028538	0.50984526

conv1.bias f4 [6]
0	0xbe8612a8	-0.2618611
1	0xbc18a6a8	-0.009317078
2	0x3f17cad0	0.5929384
3	0xbdab1ab0	-0.083546996
4	0x3ea18d9b	0.3155335
5	0x3e0d3db9	0.13793077

conv2.weight f4 [3, 6, 3]
0	0x3ca82d1e	0.020529326
1	0xbe4f689b	-0.20254748
2	0xbed3e6d3	-0.41387042
3	0xbf4fed8d	-0.8122185
4	0xbe96c51c	-0.29447258
5	0xbf4e199e	-0.8050784
6	0xbec21403	-0.37905893
7	0xbd7bae6f	-0.06144565
8	0x3ec6ae0d	0.38804665
9	0xbf03ceb7	-0.51487297
10	0xbf17a7e3	-0.5924055
11	0xbec9e332	-0.3943115
12	0xbf23e604	-0.6402285
13	0xbe11b790	-0.1423018
14	0xbeb6ed7e	-0.35728067
15	0x3dc3c6c0	0.09559393
16	0x3f185362	0.5950223
17	0x3f74dcfe	0.9564971
18	0xbf002c08	-0.50067186
19	0xbeed644c	-0.46365583
20	0xbe80e474	-0.25174296
21	0xbe568a38	-0.20951164
22	0xbe91a2d2	-0.28444535
23	0xbe3b0cac	-0.18266553
24	0xbee5c65c	-0.448779
25	0xbf8f0b01	-1.1175233
26	0xbf4e0a66	-0.80484617
27	0xbe9140fe	-0.28369898
28	0x3db38a34	0.087665945
29	0xbcf0d97d	-0.029400581
30	0xbe9acac3	-0.3023282
31	0xbd1faaa2	-0.038981088
32	0x3eba69a4	0.36408722
33	0xbf0e6283	-0.55619067
34	0xbf1705cc	-0.5899322
35	0xbea738b9	-0.32660463
36	0xbe81b00b	-0.25329623
37	0x3e562f6b	0.20916526
38	0x3d474bcd	0.048656274
39	0xbedd1ace	-0.43184513
40	0xbdb9e65f	-0.09077143
41	0xbea9853d	-0.33109465
42	0xbedcf92c	-0.43158853
43	0xbe0ca4e3	-0.13734774
44	0x3e8d8b54	0.2764536
45	0xbf06391b	-0.52430886
46	0xbc966ec3	-0.018363362
47	0x3cd69e15	0.026198426
48	0xbc031b5a	-0.008002127
49	0xbd6e5a3d	-0.058191527
50	0xbe409f42	-0.18810752
51	0x3f8b7208	1.0894175
52	0xbeafd538	-0.3434236
53	0x3f40c75e	0.7530421

conv2.bias f4 [3]
0	0xbf1dd12c	-0.61647296
1	0x3e4339dd	0.19065042
2	0xbf0f2ad5	-0.5592473

dense1.weight f4 [50, 290]
0	0xbed75956	-0.42060345
1	0xbed8b33e	-0.4232425
2	0xbeba23c4	-0.36355412
3	0x3e7029c8	0.23453438
4	0xbe979862	-0.29608446
5	0xbf24322a	-0.64139044
6	0xbf41f583	-0.75765246
7	0x3f0af764	0.5428374
8	0xbed938cd	-0.42426148
9	0xbeabb446	-0.33535975
10	0xbe57fe55	-0.21093114
11	0xbf7af096	-0.98023355
12	0xbfbc666e	-1.4718759
13	0xbebebb0c	-0.3725208
14	0x3cb258a3	0.02177078
15	0xbf1c764d	-0.6111801
16	0xbe4f4027	-0.20239316
17	0x3f0a11f2	0.5393363
18	0x3e8a89ba	0.27058202
19	0x3eb7f557	0.35929367
20	0x3e1e453b	0.15456097
21	0x3ec0bf59	0.37645987
22	0xbd8a8df7	-0.06765359
23	0x3cca5f20	0.024703562
24	0xbd67b7f9	-0.056571934
25	0xbde5f308	-0.11227995
26	0xbebe523c	-0.37172115
27	0xbf7bef1d	-0.9841173
28	0xbf0da526	-0.5533012
29	0xbee3212a	-0.4436124
30	0xbdb8c5b0	-0.09022081
31	0xbec2b3c8	-0.38027787
32	0xbf005b89	-0.5013967
33	0xbf1797de	-0.59216106
34	0xbf18a076	-0.59619844
35	0xbf0fb3ea	-0.561339
36	0xbed6233d	-0.4182376
37	0xbe388172	-0.1801813
38	0x3e29a00c	0.1656496
39	0xbeb73e0f	-0.35789534
40	0xbeffe2b2	-0.49977642
41	0xbd98a25c	-0.074528426
42	0xbf52cd1f	-0.8234424
43	0xbf9984eb	-1.1993688
44	0xbf8484ff	-1.0353087
45	0xbf787ac7	-0.97062343
46	0xbfa32112	-1.2744467
47	0xbfaeb211	-1.3648092
48	0xbf539e4d	-0.8266342
49	0x3efbcc0e	0.4917912
50	0x3f01fc2f	0.50775427
51	0x3e47464a	0.19460407
52	0x3e6edd84	0.23326689
53	0x3e1617dd	0.1465754
54	0xbd5add9f	-0.05343401
55	0xbf2ead6e	-0.6823338
56	0xbf1e2cb4	-0.6178696
57	0xbe9118f3	-0.28339347
58	0xbf471a6f	-0.7777471
59	0xbe25643c	-0.16151518
60	0xbe86f6e5	-0.2636024
61	0x3bbb938e	0.005724377
62	0xbed6e7a0	-0.4197359
63	0xbf08e651	-0.53476435
64	0xbf1bdfa4	-0.60888124
65	0xbf7cfcb9	-0.98823124
66	0x3df59629	0.119915314
67	0x3f4cc872	0.79993355
68	0x3f19be2d	0.6005581
69	0x3f377e93	0.7167751
70	0x3e94f73c	0.29094875
71	0xbeb6b69a	-0.3568619
72	0xbec93092	-0.3929487
73	0xbf3fa745	-0.7486461
74	0xbf72d438	-0.9485507
75	0x3f24e358	0.644094
76	0x3f31520f	0.69265836
77	0xbf307108	-0.6892247
78	0x3e94699e	0.2898683
79	0x3f95cc11	1.1702901
80	0xbf795707	-0.9739842
81	0xbf054e00	-0.52072144
82	0xbe90910e	-0.28235668
83	0x3dd5a9b4	0.10432759
84	0x3f1c8613	0.6114208
85	0xbdb3252d	-0.08747325
86	0xbecd25d5	-0.40067926
87	0x3e8290a4	0.25500977
88	0xbf0545fc	-0.5205991
89	0x3e8df7da	0.27728158
90	0x3ed1d20f	0.40980574
91	0xbe2c3394	-0.1681655
92	0x3e10b79c	0.14132541
93	0x3f042d84	0.5163195
94	0xbdb31b64	-0.08745459
95	0xbf158ef0	-0.5842123
96	0x3d856011	0.06512464
97	0xbe933c91	-0.28757146
98	0x3de6c24f	0.1126753
99	0xbc53742a	-0.012906114
100	0xbe5fbd17	-0.21849476
101	0xbf6620db	-0.89893883
102	0xbf4e6ba1	-0.8063298
103	0xbf282a41	-0.65689474
104	0x3e23b107	0.159855
105	0xbdc6903d	-0.0969548
106	0x3f18a953	0.5963337
107	0x3f5cf859	0.8631645
108	0x3fa805f2	1.3126814
109	0x3fa22de6	1.2670257
110	0x3f0e12c9	0.55497414
111	0x3f9f4cab	1.2445272
112	0x3f81f646	1.0153282
113	0x3e9b9c8d	0.30392876
114	0x3f08fbe8	0.5350938
115	0x3ba0c02f	0.0049057226
116	0xbe80b086	-0.25134677
117	0xbc466aa0	-0.012110382
118	0xbeaf1ea7	-0.34203073
119	0xbf4038dd	-0.75086766
120	0xbef383dd	-0.4756154
121	0xbf476361	-0.77886015
122	0xbebf9e83	-0.37425622
123	0xbe694af1	-0.22782494
124	0x3d923dd9	0.07140703
125	0x3e474f00	0.1946373
126	0xbede9fd6	-0.4348132
127	0xbf2938da	-0.66102374
128	0xbe766bc6	-0.2406455
129	0x3e3da0cc	0.1851837
130	0xbddc2720	-0.1074965
131	0x3dfcdfe8	0.12347394
132	0xbbf7563e	-0.0075481227
133	0xbf0ab5e5	-0.541838
134	0xbf1a2a8d	-0.6022118
135	0xbe0da23c	-0.13831419
136	0x3e3e383d	0.1857614
137	0xbe0d7ae9	-0.13816418
138	0xbef099f4	-0.46992457
139	0xbe0e4ac4	-0.13895708
140	0x3ea005d2	0.3125444
141	0xbd00da62	-0.031458266
142	0xbec4fa3f	-0.38472173
143	0xbd03c08c	-0.03216605
144	0x3e91f175	0.2850453
145	0x3cb7ddcc	0.022444628
146	0xbe5d95b1	-0.21639134
147	0xbe6575a7	-0.22408162
148	0xbeeca592	-0.4622007
149	0xbe93c999	-0.28864744
150	0x3d781f39	0.06057665
151	0x3e69ac20	0.22819567
152	0x3d2c6d03	0.04209615
153	0x3dee2247	0.11627632
154	0x3e7f913d	0.24957748
155	0xbf0e0ca8	-0.5548806
156	0xbec29a9a	-0.38008577
157	0xbe96bf24	-0.29442704
158	0xbdb67b18	-0.08910197
159	0x3d83708d	0.06417952
160	0xbe14dbdb	-0.14536993
161	0x3daf2c78	0.085534036
162	0xbd798121	-0.060914163
163	0x3dc6f548	0.097147524
164	0xbe479e7a	-0.19494048
165	0x3ee9a9f2	0.4563747
166	0xbe9ad9f5	-0.30244413
167	0xbe8964dd	-0.26834765
168	0xbea90fc1	-0.33019832
169	0xbefd423a	-0.4946459
170	0x3c289ecd	0.010291767
171	0x3cf247b0	0.029575199
172	0x3e8374ef	0.2567515
173	0xbebac42d	-0.36477795
174	0xbe87a4f6	-0.26493043
175	0xbde2f395	-0.11081616
176	0xbe2d7b6a	-0.1694161
177	0x3e8f6f98	0.28014827
178	0x3ea4da0c	0.32197607
179	0x3dbe2d64	0.09286001
180	0xbf1a3552	-0.6023761
181	0x3e8452df	0.25844476
182	0x3efe6e93	0.49693736
183	0xbf08395f	-0.5321254
184	0xbf32c5ed	-0.6983326
185	0xbe045ceb	-0.1292607
186	0x3db19dc6	0.08672671
187	0xbeb46bea	-0.35238582
188	0xbf432302	-0.7622529
189	0x3bd40d96	0.006471346
190	0xbebeec0e	-0.3728947
191	0xbe1a5831	-0.15072705
192	0xbe89cb6b	-0.26913008
193	0x3e8205d9	0.25395086
194	0xbc64b502	-0.013959171
195	0x3d8b74f2	0.06809415
196	0x3e26ac86	0.1627675
197	0x3e8b54fb	0.27213272
198	0xbeae90e1	-0.3409491
199	0x3f07c857	0.5304007
200	0xbf48c70d	-0.7842873
201	0x3e1fc2e6	0.15601692
202	0xbec641c4	-0.3872205
203	0xbf28cdb1	-0.6593886
204	0xbfb263e5	-1.3936735
205	0xbf36a055	-0.713384
206	0xbf4777fb	-0.7791745
207	0xbf0cf987	-0.5506825
208	0x3d83be4f	0.06432783
209	0x3e05098f	0.12991928
210	0x3e3da250	0.18518949
211	0x3e8c90af	0.27454135
212	0x3be1062f	0.006867192
213	0x3ecd5bd7	0.4010913
214	0xbeedcaff	-0.46443936
215	0x3df119f0	0.11772525
216	0xbf1ac455	-0.6045583
217	0xbe4bdb38	-0.19907844
218	0xbf05c196	-0.52248514
219	0xbf56ce6e	-0.83908737
220	0xbe73112d	-0.23737021
221	0xbe0c9f50	-0.13732648
222	0x3f6c49a3	0.9229986
223	0xbdd23f32	-0.1026596
224	0x3dfa0e96	0.12209813
225	0xbe63b1bb	-0.22235768
226	0xbebbab8d	-0.3665432
227	0xbe2b2468	-0.16713107
228	0xbec41346	-0.38295954
229	0x3e31cee1	0.17364074
230	0x3e9c830b	0.30568728
231	0xbf682684	-0.9068377
232	0xbf550a97	-0.83219284
233	0xbdd18a55	-0.10231463
234	0xbf4bc41c	-0.79596114
235	0xbf6aa1c4	-0.91653085
236	0xbe8fcfcb	-0.2808822
237	0xbecd9501	-0.40152743
238	0xbebcd3a8	-0.3688023
239	0xbf4e353b	-0.80549973
240	0xbea0418c	-0.31300008
241	0x3ea1449e	0.31497663
242	0x3e095fb7	0.13415419
243	0x3e74d1ab	0.23908107
244	0x3e9afa37	0.30269024
245	0x3e10f635	0.1415642
246	0xbd86a2f8	-0.065740526
247	0xbe976625	-0.29570118
248	0xbecf32c7	-0.40468428
249	0x3e8db5ac	0.27677667
250	0xbe53c064	-0.2067886
251	0x3dc4d899	0.09611625
252	0xbea15418	-0.3150947
253	0xbd83fda9	-0.06444866
254	0xbeebaeb4	-0.46031725
255	0xbe46e8a2	-0.1942468

dense1.bias f4 [50]
0	0x3ee93a88	0.45552468
1	0x3ed1cf4d	0.4097847
2	0x3dc54573	0.09632387
3	0xbdfec515	-0.12439934
4	0x3e3ff6bb	0.18746464
5	0xbefcfe84	-0.4941293
6	0x3eee4f73	0.4654499
7	0x3eb6897d	0.3565177
8	0xbe8ff37f	-0.2811546
9	0xbed5e69d	-0.41777506
10	0xbeb9de11	-0.36302236
11	0xbf0413c0	-0.51592636
12	0xbe963959	-0.29340628
13	0xbf1867bd	-0.5953329
14	0xbb84f1d4	-0.0040571485
15	0x3f11d2a3	0.5696203
16	0x3ebf131f	0.37319276
17	0x3ca83d2a	0.020536978
18	0x3ee12619	0.4397438
19	0x3ec44149	0.3833106
20	0xbb6da493	-0.0036261424
21	0x3e8d6c2e	0.27621597
22	0x3f35f0d0	0.71070576
23	0xbe9c5c2f	-0.3053908
24	0x3e9b573d	0.30339995
25	0xbef490f5	-0.47766843
26	0x3e968c84	0.2940408
27	0x3ee3eda6	0.4451725
28	0x3ebe8091	0.37207463
29	0x3e205136	0.1565598
30	0x3e4335c9	0.19063486
31	0x3e996f5a	0.29967767
32	0xbe153f7b	-0.14574997
33	0xbeaa9b2d	-0.33321515
34	0xbd9dbf4c	-0.077025026
35	0x3e903ebe	0.28172868
36	0xbec30ea6	-0.38097113
37	0xbef8c496	-0.48587483
38	0x3d502c90	0.050823748
39	0x3f1cd6e6	0.6126541
40	0x3d6b42fe	0.057436936
41	0x3f08518b	0.53249425
42	0xbe40028e	-0.18750975
43	0x3ef5662d	0.47929516
44	0x3e359991	0.17734362
45	0xbed064bc	-0.40701854
46	0x3e072a8c	0.13199824
47	0x3e16b1d8	0.1471628
48	0xbee63f97	-0.4497039
49	0x3e8154e9	0.25260094

dense2.weight f4 [1, 50]
0	0x3f1106cb	0.5665099
1	0xbebe5a2a	-0.37178165
2	0xbf43ffef	-0.765624
3	0xbeac7a49	-0.33687046
4	0x3f0eccc0	0.55781174
5	0xbf65fdb0	-0.8984022
6	0xbf459d80	-0.7719345
7	0x3f181ca8	0.59418726
8	0xbeb9f14a	-0.363169
9	0x3ed386ae	0.4131369
10	0x3ee35a26	0.44404715
11	0x3ed31c33	0.41232452
12	0xbd55b3eb	-0.052173536
13	0xbf039823	-0.5140402
14	0xbea39c00	-0.31954956
15	0xbe708683	-0.23488812
16	0xbf4a39be	-0.7899436
17	0xbf5a3752	-0.8524066
18	0xbf4f5222	-0.809847
19	0x3ec3e792	0.38262612
20	0xbf1cc089	-0.61231285
21	0x3f1a956d	0.60384256
22	0x3f05c722	0.5225698
23	0xbeaf441a	-0.34231645
24	0x3d589f30	0.052886188
25	0xbeb1d7f5	-0.34735075
26	0x3f28b209	0.6589666
27	0x3ebaa8b1	0.36456826
28	0x3f01331a	0.504686
29	0x3f7ca5fc	0.9869077
30	0xbf4d129c	-0.8010652
31	0xbf51d1ec	-0.8196094
32	0xbf2266f6	-0.63438356
33	0xbf98e4a7	-1.1944779
34	0x3eb557bc	0.354185
35	0xbeb67b14	-0.35640776
36	0xbdc2432a	-0.09485467
37	0x3e4d9231	0.20075299
38	0xbf10b518	-0.5652633
39	0x3f26b305	0.6511691
40	0xbf38a934	-0.72133183
41	0x3ef8da32	0.4860397
42	0xbf686c68	-0.90790415
43	0x3ecf9c73	0.4054905
44	0x3f23b191	0.6394282
45	0x3f1bc32c	0.60844684
46	0x3f464852	0.774541
47	0x3f34c5da	0.706144
48	0x3d6667fd	0.056251515
49	0xbf382806	-0.7193607

bachnorm1.weight f4 [50]
0	0x3fb02664	1.3761716
1	0x3f0b3cf6	0.54389894
2	0x3fbb3600	1.4625854
3	0x3f16283e	0.58655155
4	0x3f0757d2	0.5286838
5	0x3fee2a3c	1.8606639
6	0x3f7dfaa1	0.99210554
7	0x3f74756d	0.9549168
8	0x3f77d66c	0.96811557
9	0x3e0c5685	0.1370488
10	0x3f0066d5	0.5015691
11	0x3f175d2a	0.5912653
12	0x3f2e0286	0.679726
13	0x3f02413a	0.5088078
14	0x3f13fc8f	0.5780725
15	0x3f5e6582	0.8687364
16	0x3fac9506	1.3482978
17	0x3fd0481b	1.6272005
18	0x3fcf599a	1.6199219
19	0x3f854a46	1.0413291
20	0x3fd8d01a	1.6938508
21	0x3fa7372f	1.3063716
22	0x3fa0cabc	1.256187
23	0x3f3d1894	0.7386563
24	0x3dab20f7	0.08355897
25	0x3ef1943a	0.471834
26	0x3fc3909f	1.527851
27	0x3f8cddbf	1.1005172
28	0x3f4c836f	0.7988805
29	0x3ff37fa6	1.902333
30	0x3fbf9ef7	1.4970387
31	0x3f89aa82	1.075516
32	0x3f588b8d	0.8458794
33	0x403805cb	2.8753536
34	0x3ef3ac41	0.47592357
35	0x3f8e9fc4	1.1142507
36	0x3ef83cd9	0.48483923
37	0x3f6d294e	0.9264115
38	0x3fa91c4e	1.3211763
39	0x3fb83d3f	1.4393691
40	0x3fd13f9c	1.6347537
41	0x3f8dc9f3	1.1077255
42	0x3f981a15	1.188296
43	0x3f90e343	1.1319355
44	0x3fa5472f	1.2912349
45	0x3f1d6eaa	0.61496985
46	0x3fbb3f2e	1.4628656
47	0x3fbd93e1	1.4810754
48	0x3f39340a	0.7234503
49	0x3fd3cfdd	1.654781

bachnorm1.bias f4 [50]
0	0xbf184e59	-0.5949455
1	0x3f6cb226	0.9245933
2	0x3f410090	0.75391483
3	0xbf811808	-1.0085459
4	0xbf78ec24	-0.9723532
5	0x3f36aec2	0.7136041
6	0x3fec9e7f	1.8485869
7	0xbfad1d8c	-1.3524642
8	0x3db69bd1	0.08916438
9	0xbf11b9b5	-0.5692399
10	0xbef5fa6b	-0.48042616
11	0xbf452809	-0.77014214
12	0xbe8fffbb	-0.28124794
13	0x3eef0964	0.46686852
14	0x3f826ff9	1.0190421
15	0x3fa22aae	1.2669275
16	0x3cda09a4	0.026615925
17	0x3f65d44d	0.8977707
18	0x3f285b1a	0.6576401
19	0xbf7f11d1	-0.9963656
20	0x3f42ef4c	0.7614639
21	0xbf2e7310	-0.6814432
22	0xbf4452a8	-0.76688623
23	0x3f835eb3	1.0263275
24	0x3e9a23cb	0.30105433
25	0x3cd98272	0.026551459
26	0xbf37991a	-0.7171799
27	0xbf571fa5	-0.8403266
28	0xbf603080	-0.87574005
29	0xbf8a50ae	-1.0805871
30	0x3f77f812	0.968629
31	0x3f7fc0b7	0.99903435
32	0x3f03d450	0.5149584
33	0x3f18fdd8	0.59762335
34	0xbf0678a0	-0.5252781
35	0x3f4444a4	0.7666724
36	0xbe173dab	-0.14769618
37	0xbed0f75e	-0.40813726
38	0x3f0de618	0.5542922
39	0xbf5abf9d	-0.8544863
40	0x3f003946	0.5008739
41	0xbede327f	-0.433979
42	0x3f70fef8	0.9413905
43	0xbeb3d6d6	-0.35124844
44	0xbf8b77ed	-1.0895973
45	0xbf9a3d06	-1.2049873
46	0xbf900efe	-1.1254575
47	0x3eed9d00	0.46408844
48	0xbe38c9da	-0.1804575
49	0x3e8d713b	0.2762545

bachnorm_conv1.weight f4 [6]
0	0x3f094eb3	0.5363571
1	0x3f8f4c75	1.1195208
2	0x3fac6d2c	1.3470817
3	0x3f2f32f0	0.684371
4	0x3f5df4e1	0.8670178
5	0x3fd00f60	1.6254692

bachnorm_conv1.bias f4 [6]
0	0xbe33fd77	-0.17577158
1	0x3eb1dbb4	0.34737933
2	0x3dd0de0e	0.101986036
3	0x3eedbe84	0.46434414
4	0x3e0f45b8	0.1399144
5	0xbf673b79	-0.90325123

bachnorm_conv2.weight f4 [3]
0	0x402e3728	2.7221165
1	0x3f0d3d05	0.55171233
2	0x3f8a05c6	1.0783012

bachnorm_conv2.bias f4 [3]
0	0xbf2b5141	-0.6692086
1	0xbeea8053	-0.4580103
2	0xbeab518c	-0.33460653
