best_model_becker.pt (torch, 298015 bytes, 13 tensors)

conv1.weight f4 [6, 2, 3]
0.39980933 0.45385763 0.4602498 -0.3949015 -0.83901256 -2.3502116 -1.5874541 0.048036855
-0.69455296 -0.746513 -0.8125855 -1.2191885 0.66676384 -0.44530618 -0.32736892 0.54959565
-0.0066827945 1.4977189 -0.11146689 -0.83201694 -0.68901384 -0.21946041 -1.1573056 -0.7021564
0.5659749 -0.6338968 -0.91582286 0.26107043 0.6905653 0.28110105 -0.01161312 -2.2965467
3.692776 -1.8664486 0.6922898 0.52986765
00000000: cfb3 cc3e 0760 e83e dda5 eb3e 8830 cabe
00000010: 87c9 56bf de69 16c0 b231 cbbf 4bc2 443d
00000020: 39ce 31bf 7a1b 3fbf 9a05 50bf 5e0e 9cbf
00000030: 09b1 2a3f 2cff e3be e69c a7be 4db2 0c3f
00000040: 58fb dabb 41b5 bf3f c148 e4bd 10ff 54bf
00000050: 3663 30bf 3bba 60be 9722 94bf 86c0 33bf
00000060: bbe3 103f 1047 22bf 5e73 6abf 06ab 853e
00000070: e3c8 303f 7aec 8f3e f544 3ebc 9ffa 12c0
00000080: 7156 6c40 cae7 eebf e839 313f 68a5 073f

conv1.bias f4 [6]
1.5975311 -0.71808225 -0.27590814 -0.1483166 -0.35658506 -0.026285503
00000000: e67b cc3f 3dd4 37bf d543 8dbe 4fe0 17be
00000010: 5192 b6be b254 d7bc

conv2.weight f4 [3, 6, 3]
0.050090026 -0.5297434 -0.539097 0.3549161 0.016773075 -0.16535217 -0.052572396 -0.4776514
-0.6354799 -0.9181556 -0.5766036 -0.15803286 -0.58867645 -0.27237722 -0.5323181 -1.1869285
1.1996343 -1.0809195 -0.93154705 -1.7891463 -1.7382557 0.0926521 -0.08517421 0.7489309
1.0284061 0.7718313 0.86665374 0.6921151 -0.21022803 -0.5454998 0.9986384 0.581743
0.88720566 0.23589881 -1.2034763 0.45812577 0.63810784 0.78663117 0.80706525 -0.30726334
-0.5553689 -0.465611 -0.22835824 -0.28211445 -0.53864044 -0.25899577 -0.21080947 -0.2296355
-0.21783401 0.38185897 0.33024374 0.13904573 -0.5588967 -0.23310278
00000000: 332b 4d3d 439d 07bf 4302 0abf 90b7 b53e
00000010: b067 893c 1452 29be 2756 57bd b98e f4be
00000020: d0ae 22bf 3f0c 6bbf 4b9c 13bf 5ed3 21be
00000030: 80b3 16bf 0775 8bbe 0046 08bf 46ed 97bf
00000040: 9e8d 993f 925b 8abf de79 6ebf bf02 e5bf
00000050: 2a7f debf 62c0 bd3d d16f aebd efb9 3f3f
00000060: d0a2 833f bc96 453f 05dd 5d3f 752e 313f
00000070: 0446 57be e0a5 0bbf c4a6 7f3f 1ced 143f
00000080: e91f 633f 758f 713e 830b 9abf 768f ea3e
00000090: 095b 233f a960 493f d49b 4e3f 9f51 9dbe
000000a0: a82c 0ebf 9164 eebe bed6 69be 4e71 90be
000000b0: 57e4 09bf 189b 84be 70de 57be 9225 6bbe
000000c0: e10f 5fbe 0583 c33e b515 a93e 0162 0e3e
000000d0: db13 0fbf 7fb2 6ebe

conv2.bias f4 [3]
-0.61710906 1.381792 0.029864328
00000000: dcfa 1dbf 8fde b03f 09a6 f43c

dense1.weight f4 [50, 1460]
0.30082086 0.27941826 0.3094628 0.329614 0.28899905 0.2758158 0.28820974 0.2914434
0.29801843 0.27073732 0.2937593 2.103259 1.4512923 1.4507495 1.4784497 0.6773988
0.29280943 0.3062016 0.33554468 0.32033134 0.29659083 0.24404466 0.27030867 0.31089038
0.343759 0.32936603 0.37626 0.65585065 0.7080291 0.21106856 0.10670621 0.2233157
0.15020445 0.17698886 0.67758423 0.7416238 2.7518203 0.37864274 0.2891457 0.25564343
0.38665855 0.57946295 0.78006566 0.6744308 0.5243815 2.994836 1.8973503 2.0921361
2.2590022 2.315872 1.2818124 1.0611343 0.20609218 0.090505674 0.2932731 2.9740157
1.8125527 2.6418316 0.041303135 2.6706681 2.5937977 2.654108 2.9473193 2.5656238
0.2047052 0.15754046 2.813114 1.4714761 1.5641924 1.8519868 2.0744677 2.169179
2.7101898 0.63286275 2.706375 -0.04903097 0.01663401 0.3322187 2.6218622 2.0818315
2.161854 1.411679 1.5473392 1.0775585 0.65151054 0.16388871 0.40539208 0.80115896
1.1900057 0.481695 0.8721392 0.83249766 -0.11595787 0.70019436 0.69138706 0.3535728
0.57025135 0.1865382 0.45058823 1.1492208 0.6207632 0.50618446 0.40484732 0.4470508
0.5663091 0.30530792 0.5022106 0.8271835 0.62332386 -0.05721399 1.1255362 0.80093354
0.43125877 0.9614421 0.8562876 0.43201032 0.3218648 0.18578371 -0.24980266 0.20708321
0.74995583 0.15239738 0.6906283 0.23974372 0.25349343 -0.041678082 0.15242592 0.20514767
0.13328561 0.10260148 0.002450057 0.3782613 0.034724087 0.048489325 -0.05808693 0.10603354
-0.11396482 -0.019370269 0.21530433 1.0123961 0.3746297 0.5214226 0.049053084 0.25652188
0.078644164 0.3358571 0.41198605 0.45208368 0.6999292 0.3091101 0.6240311 0.9350021
0.29848418 0.3202401 0.610152 0.021255178 0.49200538 -0.25497767 -0.18382436 -0.42680585
-0.5237009 0.1566828 1.54949 0.4956879 0.34965333 0.2512985 0.109382145 1.0864738
-0.058573943 0.64450794 0.078785315 0.3400445 0.80748296 -0.18177278 0.047003448 -0.46792197
0.38202888 0.40671656 -0.1275749 0.4196998 0.357356 -0.675346 0.7601512 0.55349237
0.71150106 0.7078493 0.56329846 0.67835367 0.5182752 0.4867494 0.6160031 0.2890083
0.6624732 0.522833 0.08715055 0.19286557 -0.27944934 1.4703234 1.6945848 0.6289143
0.20694199 -0.064284936 -0.36470008 0.65394324 1.124344 -0.8542193 0.33049548 1.2804986
0.003956326 -0.038063932 -0.19005038 -0.3060522 0.3336699 1.4974666 0.029011356 0.5770965
0.7253946 0.7300929 1.1840457 0.05955887 0.7238745 0.5184407 0.84031296 1.2476846
1.6974992 2.1638389 2.7896948 1.2577885 1.6967117 1.0935452 1.1013241 -0.92674786
2.4798682 1.9974778 2.0345953 1.4557592 2.3605752 0.74483466 0.93706125 1.626526
1.4740002 1.7644213 1.3927966 0.92109406 0.8263242 1.0777997 1.0783713 1.0104014
1.4576123 1.0219724 1.7228647 1.0640852 1.4713857 1.0513735 1.6787747 1.2956456
00000000: 3105 9a3e e90f 8f3e e871 9e3e 2bc3 a83e
00000010: aff7 933e bb37 8d3e 3a90 933e 1238 953e
00000020: df95 983e 159e 8a3e 9e67 963e cc9b 0640
00000030: f2c3 b93f 29b2 b93f d73d bd3f 026a 2d3f
00000040: 1eeb 953e 75c6 9c3e 83cc ab3e 7802 a43e
00000050: c1da 973e d8e6 793e e665 8a3e 062d 9f3e
00000060: 2e01 b03e aaa2 a83e 27a5 c03e d4e5 273f
00000070: 6541 353f 5b22 583e c988 da3d dfac 643e
00000080: 32cf 193e 913c 353e 2976 2d3f 0fdb 3d3f
00000090: d31d 3040 76dd c13e e80a 943e b2e3 823e
000000a0: 1cf8 c53e af57 143f 62b2 473f 7fa7 2c3f
000000b0: de3d 063f 65ab 3f40 60dc f23f 8fe5 0540
000000c0: 7e93 1040 3f37 1440 6e12 a43f 40d3 873f
000000d0: d409 533e 0a5b b93d e427 963e 4656 3e40
000000e0: ba01 e83f c513 2940 7a2d 293d 3aec 2a40
000000f0: c800 2640 e8dc 2940 e1a0 3c40 2e33 2440
00000100: 3d9e 513e 4952 213e 0f0a 3440 5459 bc3f
00000110: 7537 c83f e70d ed3f 14c4 0440 d4d3 0a40
00000120: c073 2d40 4b03 223f 3f35 2d40 b3d4 48bd
00000130: 0c44 883c 9218 aa3e 97cc 2740 ba3c 0540
00000140: d15b 0a40 e6b1 b43f 360f c63f 70ed 893f
00000150: 65c9 263f 71d2 273e 8d8f cf3e c118 4d3f
00000160: 1b52 983f baa0 f63e 8444 5f3f 911e 553f
00000170: 527b edbd f03f 333f befe 303f 7e07 b53e
00000180: fefb 113f df03 3f3e 80b3 e63e ab19 933f
00000190: 56ea 1e3f 4e95 013f 2648 cf3e d8e3 e43e
000001a0: a2f9 103f 5251 9c3e e090 003f 4cc2 533f
000001b0: 2792 1f3f 3759 6abd 9211 903f fb09 4d3f
000001c0: f3cd dc3e 1221 763f aa35 5b3f 7530 dd3e
000001d0: 77cb a43e 163e 3e3e 45cc 7fbe 9f0d 543e
000001e0: 1bfd 3f3f 0f0e 1c3e 04cd 303f 617f 753e
000001f0: e4c9 813e a3b6 2abd 8a15 1c3e 3b12 523e
00000200: 067c 083e ba20 d23d 2391 203b 77ab c13e
00000210: d83a 0e3d be9c 463d 90ec 6dbd 1d28 d93d
00000220: 6366 e9bd 66ae 9ebc bd78 5c3e 3296 813f
00000230: 77cf bf3e f47b 053f e3eb 483d d656 833e
00000240: 3110 a13d 76f5 ab3e d6ef d23e 8377 e73e
00000250: 8f2e 333f ae43 9e3e 81c0 1f3f 4c5c 6f3f
00000260: ebd2 983e 83f6 a33e ec32 1c3f 571f ae3c
00000270: 21e8 fb3e 6f8c 82be 743c 3cbe 4c86 dabe
00000280: 4311 06bf 7571 203e b055 c63f ceca fd3e
00000290: c305 b33e 32aa 803e bf03 e03d 9311 8b3f
000002a0: 3beb 6fbd 79fe 243f 325a a13d 501a ae3e
000002b0: 34b7 4e3f a522 3abe b086 403d 7893 efbe
000002c0: 4a99 c33e 273d d03e ffa2 02be e4e2 d63e
000002d0: 5ef7 b63e 7ae3 2cbf 4599 423f adb1 0d3f
000002e0: ef24 363f 9d35 353f 5434 103f 96a8 2d3f
000002f0: afad 043f 3837 f93e 61b2 1d3f e5f8 933e
00000300: d897 293f 62d8 053f fd7b b23d 8d7e 453e
00000310: fc13 8fbe 8f33 bc3f 28e8 d83f 8700 213f
00000320: 9ae8 533e d2a7 83bd f8b9 babe d368 273f
00000330: 81ea 8f3f 1eae 5abf b436 a93e 61e7 a33f
00000340: 11a4 813b ede8 1bbd 919c 42be e0b2 9cbe
00000350: c8d6 aa3e fcac bf3f 39a9 ed3c 99bc 133f
00000360: 76b3 393f 5ee7 3a3f cf8e 973f 00f4 733d
00000370: d74f 393f 88b8 043f c01e 573f 21b4 9f3f
00000380: a747 d93f 567c 0a40 5c8a 3240 37ff a03f
00000390: d92d d93f 4af9 8b3f 30f8 8c3f 593f 6dbf
000003a0: 29b6 1e40 5aad ff3f cf36 0240 5156 ba3f
000003b0: aa13 1740 7cad 3e3f 3fe3 6f3f 0132 d03f
000003c0: 0aac bc3f 8fd8 e13f 2947 b23f d2cc 6b3f
000003d0: fc89 533f 57f5 893f 1208 8a3f d554 813f
000003e0: 0a93 ba3f fecf 823f d586 dc3f f233 883f
000003f0: 5e56 bc3f 6893 863f 17e2 d63f b7d7 a53f

dense1.bias f4 [50]
-0.94384855 -0.20706932 -0.2109085 -0.6646064 -0.48584604 0.05451078 -0.29832026 0.27046356
-0.4012573 -0.38097373 0.4498816 -0.3405715 0.66017306 -0.067419335 -0.38745144 -0.9048538
-0.41980994 0.14732999 -0.11473699 0.19924727 -1.0457557 0.67083466 1.1310519 0.13110596
0.7118986 -0.9019155 -0.36548868 1.4064224 0.3595564 -0.5131502 0.37314668 0.36004546
-0.8825128 -0.61293715 -0.11287513 1.1054511 0.03883961 -0.8460309 0.41465023 -0.29208007
-1.3261077 0.44666234 0.7301956 -0.38755977 0.2522763 0.59479195 -0.47011268 0.27002212
-0.6085001 0.14441511
00000000: 0fa0 71bf fb09 54be 66f8 57be a523 2abf
00000010: d0c0 f8be b246 5f3d 6fbd 98be 337a 8a3e
00000020: 9971 cdbe fd0e c3be e256 e63e 635f aebe
00000030: 1a01 293f 2613 8abd 0960 c6be 80a4 67bf
00000040: 54f1 d6be acdd 163e 3afb eabd 7a07 4c3e
00000050: 53db 85bf d2bb 2b3f 4fc6 903f a440 063e
00000060: fd3e 363f efe3 66bf 5521 bbbe a605 b43f
00000070: c717 b83e d05d 03bf 150d bf3e e157 b83e
00000080: 5cec 61bf 73e9 1cbf 132b e7bd 6c7f 8d3f
00000090: 4816 1f3d 7b95 58bf 094d d43e 858b 95be
000000a0: e6bd a9bf edb0 e43e 19ee 3a3f 3c6e c6be
000000b0: 5c2a 813e 4944 183f 9cb2 f0be 5740 8a3e
000000c0: aac6 1bbf 8ee1 133e

dense2.weight f4 [1, 50]
-1.5331123 0.77146935 0.016408402 -3.3120563 0.010311149 -0.57725 -0.046603728 -0.14093775
-3.0580022 -0.38487786 -0.027836174 -0.17005697 0.0056709573 -0.2116372 0.0007983462 -1.7057492
-0.39256975 0.13249908 -4.348381 -0.018283255 -2.1680634 -0.13456129 0.9033545 -0.022652784
0.06698883 -3.1986156 0.035150528 0.0027208405 -0.030801639 -0.026898205 -0.012815722 -0.07569312
-3.7752926 -0.067696854 0.024016187 0.016023079 -0.06940133 -3.3661406 0.030429244 -2.857755
-3.6321197 0.0030364776 0.04447432 -0.96750486 0.16600837 -0.04687294 0.001484579 -0.047980864
-0.2161019 0.08049074
00000000: 063d c4bf 047f 453f ea6a 863c bbf8 53c0
00000010: 18f0 283c a8c6 13bf 8de3 3ebd fc51 10be
00000020: 4fb6 43c0 b60e c5be b008 e4bc 6a23 2ebe
00000030: 70d3 b93b 6cb7 58be 1b48 513a fd55 dabf
00000040: e7fe c8be d7ad 073e f025 8bc0 c4c6 95bc
00000050: 8dc1 0ac0 6fca 09be 3e42 673f 5592 b9bc
00000060: 7131 893d 1eb6 4cc0 00fa 0f3d 2150 323b
00000070: b853 fcbc a059 dcbc 09f9 51bc ff04 9bbd
00000080: 659e 71c0 a6a4 8abd 98bd c43c d542 833c
00000090: 4922 8ebd d96e 57c0 c046 f93c 75e5 36c0
000000a0: a674 68c0 a4ff 463b b42a 363d 66ae 77bf
000000b0: 19fe 293e d7fd 3fbd 3596 c23a 9587 44bd
000000c0: d149 5dbe 54d8 a43d

bachnorm1.weight f4 [50]
3.386094 1.5373482 1.6156523 7.7958784 0.01365059 1.8513225 1.1767142 0.7326157
5.207294 1.5927342 0.10902241 1.264459 0.79682386 1.5968118 0.046862714 6.977437
1.9250845 0.19136971 7.7540503 0.87836283 4.1071744 0.35317332 1.9401618 0.7120425
0.46553752 5.1217318 0.27789968 0.21012555 0.58814377 1.0398147 0.5331941 0.45399505
6.9561896 0.8765466 1.0151716 0.19021565 0.79009855 5.31329 0.33825198 5.419953
9.469502 0.25055212 0.21146822 2.4411767 0.71482795 -0.11190882 0.1705422 0.83533484
2.0366092 0.28176475
00000000: c4b5 5840 d3c7 c43f b2cd ce3f d677 f940
00000010: b9a6 5f3c 23f8 ec3f 929e 963f b48c 3b3f
00000020: 27a2 a640 b7de cb3f 2447 df3d cbd9 a13f
00000030: a6fc 4b3f 5464 cc3f 1ef3 3f3d 2a47 df40
00000040: 2b69 f63f 6cf6 433e 2e21 f840 63dc 603f
00000050: f96d 8340 22d3 b43e 3957 f83f 6b48 363f
00000060: ef5a ee3e 3ae5 a340 de48 8e3e 272b 573e
00000070: 9790 163f a618 853f 697f 083f 0a72 e83e
00000080: 1b99 de40 5c65 603f 25f1 813f e4c7 423e
00000090: e643 4a3f 7906 aa40 5d2f ad3e 4170 ad40
000000a0: 1583 1741 5e48 803e 208b 583e 3d3c 1c40
000000b0: f7fe 363f 7430 e5bd 9da2 2e3e 81d8 553f
000000c0: ce57 0240 7843 903e

bachnorm1.bias f4 [50]
0.08448508 -0.05884404 0.3094421 0.07307833 -0.03966115 0.076239094 0.0056755953 0.067515165
0.04263573 0.030159427 -0.02590331 0.006265108 0.09163409 0.015671575 0.007843621 0.057589423
0.028405009 0.030324215 0.23445918 0.022618921 0.049423687 0.018502759 -0.043707255 0.15701295
-0.10553506 0.04458327 -0.033140212 -0.052215472 -0.063286595 0.112557895 -0.13514267 -0.0007032627
0.12965581 0.053912163 0.31581292 -0.13154384 0.36796492 0.042273875 -0.08078449 0.4581097
0.043996472 -0.1097431 -0.18862678 0.06245937 -0.12427472 -0.05979768 -0.0013997545 0.03828624
0.020547712 0.03637283
00000000: 8306 ad3d 7306 71bd 326f 9e3e 17aa 953d
00000010: bb73 22bd 3e23 9c3d 58fa b93b 6445 8a3d
00000020: cea2 2e3d e710 f73c 2e33 d4bc 894b cd3b
00000030: a7aa bb3d ad61 803c 8882 003c e3e2 6b3d
00000040: 9fb1 e83c 7d6a f83c 1116 703e 514b b93c
00000050: 7e70 4a3d 1993 973c 6106 33bd 01c8 203e
00000060: c422 d8bd f29c 363d 08be 07bd e4df 55bd
00000070: 679c 81bd c184 e63d d762 0abe 295b 38ba
00000080: 7ec4 043e 00d3 5c3d 3bb2 a13e 6eb3 06be
00000090: e665 bc3e 5f27 2d3d 5772 a5bd 5b8d ea3e
000000a0: a535 343d fec0 e0bd 6127 41be 65d5 7f3d
000000b0: bf83 febd 69ee 74bd f877 b7ba 08d2 1c3d
000000c0: ad53 a83c adfb 143d

bachnorm_conv1.weight f4 [6]
1.9630427 0.0760813 0.9022925 0.91276765 0.6673233 2.4919512
00000000: fc44 fb3f 83d0 9b3d a4fc 663f 24ab 693f
00000010: b3d5 2a3f 217c 1f40

bachnorm_conv1.bias f4 [6]
-0.6325732 0.21763644 0.20802902 -0.055835158 0.69758874 -0.12142281
00000000: 51f0 21bf 16dc 5e3e 8f05 553e 68b3 64bd
00000010: 2d95 323f 86ac f8bd

bachnorm_conv2.weight f4 [3]
1.4101964 1.5017747 0.6708639
00000000: 5181 b43f 273a c03f bdbd 2b3f

bachnorm_conv2.bias f4 [3]
-1.0965183 -0.65782183 -1.5167888
00000000: b65a 8cbf 0367 28bf 2326 c2bf
