best_model_becker.pt (torch, 99999 bytes, 13 tensors)

conv1.weight f4 [6, 2, 3]
00000000: 8dd7 49bc 830c 7cbe 6be5 133e d853 3f3f
00000010: 58ba 703d 97bd 0fbe b3aa 92be f713 4abf
00000020: f2b7 fdbe 84c0 e0be 09bb 87be 4361 103e
00000030: 8d7d 88be 545e 17be d305 33bd 0d8f 173f
00000040: a0ff 64be a3d2 8fbe 5746 cb3d 71f9 a23e
00000050: 64d1 843e d928 06bf cd13 6dbe 2e31 0ebf
00000060: 5781 c0be 764b bdbe 5814 a1bd 469f 3fbe
00000070: 0424 c4bc ab9d 1e3f 2443 853e 96b3 edbd
00000080: 81e4 00bf 4f6a 62bf 1ec2 ca3e c377 823e
-0.012319458 -0.24614148 0.14442985 0.7473731 0.05877146 -0.14037167 -0.28645858 -0.78936714
-0.49554402 -0.43896878 -0.26509884 0.14099602 -0.26658288 -0.14782077 -0.043706726 0.59202653
-0.22363138 -0.2809039 0.09925526 0.31830934 0.25941002 -0.5240608 -0.23152085 -0.5554379
-0.37598678 -0.36971635 -0.078652084 -0.18713102 -0.023942955 0.6195933 0.26027787 -0.11606519
-0.5034867 -0.88443464 0.39601225 0.25481996

conv1.bias f4 [6]
00000000: 5ff7 81be 842b 77be 7232 0ebf 16f4 09bf
00000010: fd6c 26bf b612 e2bd
-0.25384042 -0.24137694 -0.55545723 -0.5388807 -0.6501005 -0.11038725

conv2.weight f4 [3, 6, 3]
00000000: 308a f33e 254c fa3e fa0f 48bc f1b6 ac3e
00000010: d73d 273e af98 66be 813c a93e 7bf9 f03e
00000020: 042b 793e 6c3e 52be 88f1 d53e 3460 5c3e
00000030: cbf9 0dbd 5598 cebe 6aad 15bf f41a f9bd
00000040: 7e20 2dbf bb61 77be 656d 183f c029 c3bc
00000050: 0722 7d3e c326 59bd 66e3 04bf c9c7 a4bc
00000060: c1cc da3e ab85 013f b4d7 ce3d c6b9 adbc
00000070: 65e2 87be f94d d2bd 0888 dfbe 0a07 f2be
00000080: 0766 3abe 74ef 38be a5fa 67be ce81 cbbe
00000090: 9634 963e 92e8 2e3f b0a8 1fbe 8cc6 a03e
000000a0: a6f2 df3e 1583 7fbe 341b ab3e 2541 173f
000000b0: bc96 c33e c741 babe b383 acbe f59d d5be
000000c0: 4b58 18bd afc6 0b3f 3c4c 46be bbad c53e
000000d0: 4ecd 83bd 81a1 703e
0.47566366 0.4888622 -0.01221084 0.33733323 0.16332184 -0.22519182 0.33053973 0.47065338
0.24332815 -0.20531625 0.41785836 0.21521074 -0.03466205 -0.40350595 -0.58467734 -0.12163344
-0.67627704 -0.24158375 0.5954192 -0.023823619 0.24720012 -0.05301548 -0.5190948 -0.020114796
0.4273434 0.50594586 0.10099736 -0.021206748 -0.26539913 -0.10268778 -0.4365847 -0.47270995
-0.18202983 -0.18060094 -0.22654207 -0.3974747 0.29336995 0.68323624 -0.15591693 0.3140148
0.43739814 -0.24952348 0.33419192 0.5908378 0.3820094 -0.3637831 -0.3369423 -0.41722074
-0.037193578 0.5460004 -0.19365019 0.38609108 -0.06435643 0.23499109

conv2.bias f4 [3]
00000000: 26de 78bd 71a9 913e 959e 513e
-0.060758732 0.28449586 0.2047065

dense1.weight f4 [50, 470]
00000000: 307c d93d 50d5 ab3e c767 873e f509 9a3e
00000010: 5878 a23e ec9b b73e fcb4 b53e 20b1 863e
00000020: f1ac ae3e ded2 d2be eba3 893e 38c0 763e
00000030: 58d9 bc3e b12d ac3e 821e bbbe f351 2abe
00000040: 8e5b 933e e2b3 973e 1879 853e 5895 893e
00000050: 2155 813e 27b1 973e df33 b33e f056 42be
00000060: 2af0 eabd d71c afbe 720b 1fbe 4d6f 10be
00000070: c367 c5be 33b9 d9be 70df 97be 4a40 cb3e
00000080: ba5c c6be 2681 c1be 1751 a1be e429 9d3e
00000090: 252e 59be 8985 dfbe c47f 803e 43bd 77bd
000000a0: eb5b d63e ba43 86be 95ac ba3e d408 b4be
000000b0: 1c52 85be d4a3 dfbd a03b cf3e ce56 ea3e
000000c0: abd7 623e f970 733e cb73 8ebe bde8 90be
000000d0: 83b1 b23e b490 4bbe 3fcd b1be b35e 993d
000000e0: 671a 99be 8dc3 96be 631a ba3e 53c7 bc3e
000000f0: 823c 9abe 6324 b53e 7688 d1be 005a a0be
00000100: c1f5 90be 785d 9a3e 8a63 1dbc bab5 433e
00000110: 9f36 96be e9c1 9e3e fa42 a53e 64fd 5e3e
00000120: daa7 54be cea1 60be af83 be3e e956 973e
00000130: fa20 d73e db55 9cbe da31 843e c014 883e
00000140: df43 013f fff4 93be 9bcf 943e afa5 8f3e
00000150: 1e62 30be 6d8b d43e 4e30 94be 08f6 c4be
00000160: 9d17 e43e f65f 90be a39d d43e 91db 7ebe
00000170: 0afe a23e 271d d83e 3079 113e 1e67 10be
00000180: 3f27 99be f44f 9c3e c017 953e 9183 d1be
00000190: bb88 8cbe 015c a63e 3e29 9b3e f8b5 69be
000001a0: 6832 923e 445d 8e3e 09ee 973e ae66 d03e
000001b0: b0da a93e fa6d cc3e 9d72 8ebe 8373 85be
000001c0: 099d d63e 2b42 c33e ec55 a13e 8e07 94be
000001d0: ecb9 ac3e 818f 2f3e 144d 063f 80bf 53be
000001e0: ebd6 3fbe 8652 9abe 6f2a 8dbd b733 7cbe
000001f0: 566c c93e 88b9 81be e968 93be e154 8bbe
00000200: a2ec 8f3e b247 a63e 3ccb d83e 5dd8 733d
00000210: 5c63 40be ada2 ab3e 87b2 003f bc30 57be
00000220: e46f 88be dcf2 8abd c296 babd d9d7 d4be
00000230: cf5b 5b3e 593e 903e 87b0 75be 1de4 9ebe
00000240: b8af 8ebe 4e01 f33e 20f9 5dbe 07b1 8bbe
00000250: ec23 9b3d 280c bf3e b394 59bc f9d5 cbbd
00000260: af28 adbe 25f4 8bbe e85c be3e 8934 b9be
00000270: 4132 83be 4491 96be 8c02 adbe cbb9 98be
00000280: 6147 8ebe 87f8 a2be 2ce8 9fbe 8d7d 9dbe
00000290: 1dfa b5be 32e6 86be 9844 b3be eb7a 98be
000002a0: bb95 9bbe bf4e 1bbd f88b 99be fa3e 6d3e
000002b0: c431 8bbe cd6a a6be 9a5e 9ebe 4249 763e
000002c0: 2518 8d3e 83a3 aa3e f154 a83e 5b2f 8b3e
000002d0: a6e6 833e a644 913e 24fe 8b3e c35b ab3e
000002e0: 06b8 8c3e 455c ab3e 9a14 b83e 98fa 83be
000002f0: 65c3 4abe 9b89 a33e 0f4f a83e 2d67 963e
00000300: ac75 a73e 98f0 af3e 40c7 973e d45f a73e
00000310: 5f54 ad3e 5bc9 a43e 3a88 cc3e 322f b73e
00000320: 13b6 7a3e 0070 c83e 8f00 0abe 08f3 22be
00000330: 95bc e73e 0139 61be 7265 513e 4398 80be
00000340: 3d44 82be 608d c73e 09b8 eb3e a6c8 eb3e
00000350: 26ac d83e 3d98 d83e a082 b83e 0aed 2bbe
00000360: cdb7 df3e 2e2e 2dbe d19d 01be 974e 5ebe
00000370: b1b6 d53e e792 8bbe 60df 99bd 20d0 0cbe
00000380: 8e5a 29be b787 99bd c5e3 27be 98ac 1d3e
00000390: 1121 b1bc eeae cf3e 889e c73e 3752 d13e
000003a0: 774f e83e 378a c03e 276f cb3e 78bb 3bbc
000003b0: 2ef0 b73e 1e63 ae3e b803 e03e b46a c23e
000003c0: 8b01 b93e 80e2 ca3e 5b56 af3e a0d9 673c
000003d0: fd86 b83e 805b a83e 3a85 ec3e b157 c53e
000003e0: 7451 93be 4fa8 c73e 496d e43e 6ff1 c23e
000003f0: 33ce 7d3e c1d3 b63e 043f c43e 69fb 8b3e
0.1061939 0.33561182 0.26446363 0.30085722 0.3173244 0.35861146 0.35489643 0.2630701
0.3411632 -0.41176504 0.26882872 0.24096763 0.3688457 0.3362861 -0.36546713 -0.16632824
0.28780788 0.29629427 0.2606895 0.26871753 0.2526026 0.29627344 0.35000512 -0.18978477
-0.11471589 -0.3420169 -0.1553171 -0.14104958 -0.38555726 -0.42524108 -0.29662657 0.39697486
-0.3874262 -0.37793845 -0.3150718 0.30696023 -0.21209009 -0.43656567 0.25097477 -0.06048323
0.41867003 -0.26223546 0.36459795 -0.35162985 -0.26039207 -0.109199196 0.40475178 0.45769352
0.22152583 0.23773564 -0.27822718 -0.28302565 0.34901056 -0.19879419 -0.34726903 0.074887656
-0.29902956 -0.29446068 0.36348256 0.36870822 -0.3012429 0.35379323 -0.40924424 -0.31318665
-0.28312495 0.30149436 -0.0096062515 0.19112292 -0.29338548 0.31007317 0.32277662 0.21776348
-0.20767155 -0.21936724 0.37209842 0.29558495 0.42017347 -0.30534253 0.25819284 0.2657833
0.5049419 -0.28897855 0.2906464 0.28056094 -0.17224929 0.41512623 -0.28943104 -0.38468957
0.44549266 -0.28198212 0.41526517 -0.24888445 0.3183444 0.4220974 0.14206386 -0.14101836
-0.29912755 0.3052975 0.29119682 -0.4092069 -0.27448067 0.32492068 0.30304903 -0.22823322
0.28554082 0.2780553 0.29673794 0.40703338 0.33174658 0.39927655 -0.27821818 -0.2606469
0.41916683 0.3813642 0.31510866 -0.28912014 0.33735597 0.17144586 0.5246136 -0.2067852
-0.18734328 -0.30141085 -0.06892859 -0.24629103 0.39340466 -0.25336862 -0.28790978 -0.27213195
0.28110224 0.32476574 0.42342556 0.059532512 -0.18787903 0.3352255 0.5027241 -0.21014684
-0.26647866 -0.06784603 -0.09110786 -0.4157093 0.21421741 0.28172567 -0.23993121 -0.31033412
-0.27868438 0.47461933 -0.21677065 -0.272835 0.07575211 0.37313962 -0.013280082 -0.099529214
-0.33820102 -0.27334705 0.37180257 -0.36172894 -0.25624278 -0.29407704 -0.33791006 -0.2982925
-0.27788833 -0.31830236 -0.3123182 -0.3075985 -0.35542384 -0.263475 -0.3501327 -0.2978128
-0.30387673 -0.037916895 -0.299896 0.23168555 -0.27186406 -0.32503358 -0.3093155 0.24051383
0.27557483 0.33327875 0.32877305 0.27184567 0.25761908 0.28372687 0.2734233 0.33468446
0.2748415 0.33468834 0.35953218 -0.25777125 -0.198011 0.31940922 0.32872817 0.29375592
0.32706964 0.34363246 0.29644203 0.326903 0.33853433 0.32184872 0.39947683 0.35778195
0.24483518 0.3914795 -0.13476776 -0.15913022 0.45261064 -0.21994402 0.20448855 -0.25116166
-0.25442687 0.38975048 0.46038845 0.4605152 0.4231884 0.4230365 0.3603716 -0.16789642
0.43694916 -0.16912147 -0.12657858 -0.21709667 0.41740945 -0.27260515 -0.075133085 -0.13751268
-0.1653845 -0.07496589 -0.16395481 0.1539787 -0.021622213 0.40563148 0.38988137 0.40883037
0.45373127 0.3760545 0.3973324 -0.01145827 0.3592543 0.34059995 0.43752837 0.37972033
0.3613399 0.3962593 0.34245571 0.014151007 0.36040488 0.3288231 0.46195394 0.38543466
-0.2877308 0.38995597 0.44614628 0.38074824 0.2478569 0.3570843 0.38329327 0.27340248

dense1.bias f4 [50]
00000000: 5e17 a43e dcd4 10bf cbf9 afbe 3cc9 86be
00000010: ba7e 16be 9ddf b03e d297 ae3e 745b a23e
00000020: dcb9 933d eaf2 643e ee78 edbe 1224 243e
00000030: 805f e6be 85cd 8c3e 7352 8c3e 5dc3 573d
00000040: cdb0 babe ad9e cfbc e6c9 9fbe f0ef 6f3e
00000050: 7b08 673e bae5 a83e a25c 9dbe cbaa 583e
00000060: 50d2 223f f3fc 65be 846d e33e 6bce 843d
00000070: 528e ea3d 419c b73e 1658 33be bef1 963e
00000080: a31d bebe 88b2 683e a8e9 17bf 6adc 9d3e
00000090: a87a e0be 9af0 563e e043 f6bc 0079 e03e
000000a0: ae71 9f3e fa75 b03e 9a47 ac3e 5b71 8e3e
000000b0: d546 2dbd f8c5 9ebe a715 91be facb e43e
000000c0: 7447 0b3f c54c 9c3e
0.32049078 -0.565748 -0.34370264 -0.26325405 -0.1469678 0.34545603 0.34100205 0.31710398
0.07213184 0.2235829 -0.46381325 0.16029385 -0.44994736 0.2750055 0.27406654 0.052676547
-0.36463013 -0.025344217 -0.31208724 0.23431373 0.22561829 0.32987767 -0.30734736 0.21158902
0.6360216 -0.22459774 0.4441949 0.064846836 0.11452927 0.358614 -0.17514071 0.2948131
-0.37131986 0.22724354 -0.59340906 0.30832225 -0.4384358 0.2099022 -0.030061662 0.43842316
0.31141418 0.3446501 0.33648378 0.27820858 -0.04230388 -0.31010413 -0.28336832 0.44686872
0.54405904 0.3052732

dense2.weight f4 [1, 50]
00000000: 530e 4f3e 5b82 6f3f 8d47 563f 9eb8 703f
00000010: e28c 71bf 1480 1bbf 3aae 2dbf e373 053f
00000020: f941 3dbf 83b3 bdbe 14d4 2cbe 8a06 083f
00000030: d11b 3f3f 4607 033f 943f ff3e e3e9 31bf
00000040: ebf8 5d3f 4b12 6fbf 9c21 553f e912 b73e
00000050: e9c3 a73e 0ffb 90be 0db2 0d3f 6a5b eabe
00000060: 6256 19bf 62ad 21bf fb5e 33bf db09 923e
00000070: 0041 bd3e b327 423f 2d34 c43e 1a93 29bf
00000080: 3658 7fbf 3233 31bf 2464 323f 5837 01bf
00000090: d031 fbbe 28e7 54bf a765 40be 6243 1f3f
000000a0: 530c 1dbf 4f99 0bbf 0b82 393f 814c 033f
000000b0: 9279 d8be 1970 34bf 8eea b1be da26 cebe
000000c0: c4f5 123f d932 9dbe
0.20220308 0.9355828 0.8370293 0.94031703 -0.94355595 -0.60742307 -0.67843974 0.52129954
-0.7392879 -0.3705102 -0.16877776 0.5313498 0.7465182 0.51182973 0.49853194 -0.6949751
0.86707944 -0.9338729 0.8325441 0.35756615 0.32766655 -0.28316543 0.5534981 -0.45772868
-0.59897435 -0.63155186 -0.70066804 0.28523144 0.36963654 0.75841826 0.38321057 -0.66240084
-0.99743974 -0.6921874 0.6968405 -0.5047507 -0.4906144 -0.83165216 -0.18788777 0.62212193
-0.6134693 -0.54530805 0.72464055 0.5128861 -0.4228025 -0.7048355 -0.34749264 -0.40264016
0.5740626 -0.30702856

bachnorm1.weight f4 [50]
00000000: 1a78 7d3f 3bd6 883f f021 a03f 035a b63e
00000010: f216 7b3f de34 603f b5b7 813f c20c 023f
00000020: fcd7 603f bf28 1b3f cc7d 463e 5606 6d3f
00000030: d133 4a3f c76f 5f3f 2299 923f 17e4 853f
00000040: 8ecd 7d3f 0000 803f c8f2 b73f 9e0e 473f
00000050: 9ac2 343f bdf2 cd3e cf89 4c3f 48d1 643f
00000060: 2d12 643f a181 7d3f f7a7 7d3f c43a f23e
00000070: 2d07 113f 3927 7a3f 10bb afbc 33a9 803f
00000080: ec6c b13f 90a0 8d3f cb81 973f 4612 703f
00000090: 99b9 f1bc 19ad ac3f 5f3e dc3e 879f 923f
000000a0: 27a8 793f 8c55 6e3f b543 ae3f 7073 753f
000000b0: 85de 353f 6e43 163f 9461 463f 7c65 903f
000000c0: 583a 3f3f 397d 1a3f
0.99011385 1.0690378 1.2510357 0.35615548 0.98081887 0.8758067 1.0134188 0.50800717
0.87829566 0.6060905 0.19383925 0.9258779 0.78985316 0.87279934 1.1452982 1.0460232
0.99141777 1.0 1.4370966 0.7775668 0.7060944 0.40224257 0.7989778 0.8938184
0.89090234 0.99025923 0.9908442 0.4731046 0.56651574 0.977161 -0.021451503 1.0051636
1.3861365 1.1064625 1.1836485 0.93777883 -0.029507445 1.3490325 0.43016335 1.1454934
0.97522205 0.93099284 1.3614413 0.9587927 0.7104266 0.5869664 0.7749264 1.128097
0.746984 0.60347325

bachnorm1.bias f4 [50]
00000000: 0365 2bbd 122f 703f 22af 5e3f 9e4d 5c3f
00000010: 27b8 7ebf bc90 62bf 7542 5ebf a559 6d3f
00000020: a4f0 68bf ce20 67bf 4869 94be ad4d 653f
00000030: 6104 603f bdbd 653f a171 d73e 8955 63bf
00000040: df22 753f a447 74bf 392d 6c3f e523 533f
00000050: ba3e 593f f251 5fbf cf30 623f 51ff 68bf
00000060: 59bf 70bf 1354 5fbf cccb 65bf 75ba 593f
00000070: 3fbc 4e3f 9751 683f c8e6 4b3f 7d6e 5cbf
00000080: b7e7 76bf a095 68bf a289 683f 4ffa 5bbf
00000090: f52d 26bf 09d9 6abf 04d3 5bbf bf43 653f
000000a0: 0e9d 59bf e03e 60bf 4da5 5a3f 95a6 363f
000000b0: 506f 61bf b693 6abf bf87 d2be b213 2cbf
000000c0: 6c7e 5e3f 8250 61bf
-0.04184438 0.93821824 0.8698598 0.86055934 -0.99499744 -0.885021 -0.86820155 0.9271491
-0.9099219 -0.9028443 -0.28986573 0.8957165 0.8750668 0.8974264 0.4207888 -0.8880239
0.95756334 -0.95421815 0.92256504 0.82476646 0.8486134 -0.87234414 0.88355726 -0.9101458
-0.94041973 -0.8723766 -0.89764094 0.85050136 0.8075599 0.90749496 0.7964902 -0.8610609
-0.9644732 -0.9085331 0.9083501 -0.85928816 -0.64913875 -0.9173742 -0.8586886 0.895565
-0.8500527 -0.8759594 0.8540848 0.71347934 -0.88060474 -0.9163164 -0.4111919 -0.6721755
0.86911654 -0.8801347

bachnorm_conv1.weight f4 [6]
00000000: 504d 8d3f 26d2 633f bcb8 983f cc43 743f
00000010: ec0c 8b3f 6f3b 1f3f
1.1039219 0.88992536 1.1931376 0.9541595 1.0863318 0.62200063

bachnorm_conv1.bias f4 [6]
00000000: 258b 90be 37bd 84be fe5b 8dbd 832b 883e
00000010: 4034 1ebd 4bc8 a73d
-0.2823116 -0.2592561 -0.06902312 0.26595697 -0.03862405 0.081925

bachnorm_conv2.weight f4 [3]
00000000: e7df 983f caf5 853f a0a6 7b3f
1.194333 1.0465634 0.98301125

bachnorm_conv2.bias f4 [3]
00000000: 8ee8 efbe 19e0 d23e bc83 1abe
-0.46857113 0.41186598 -0.15089315
