best_model_becker.pt (torch, 22047 bytes, 13 tensors)

conv1.weight f4 [6, 2, 3]
000000 f2 13 1c bf 8b b0 a6 3d 74 c6 0b 3f cb ee 12 be
       -0.60967934 0.08139142 0.5459969 -0.14348905
000010 18 b3 2f 3e f9 46 54 3e cd cd d8 3c dc b0 83 be
       0.17158163 0.20730199 0.026465321 -0.2572087
000020 78 96 0c bf ac 42 c3 3c f9 9a 0e bf 2c 7e 2a bf
       -0.549171 0.023835503 -0.5570522 -0.66598773
000030 ca 9c 00 3f 1f 5f 07 bf 9b ff 95 3d 9c 2b 3f be
       0.5023924 -0.5287952 0.073241435 -0.1866898
000040 b5 8c b8 bd 32 8a 1a 3e f2 3b 00 bf 64 c1 00 3d
       -0.09011213 0.1509178 -0.5009147 0.03143443
000050 ab e9 13 3f c7 bb 00 3d 7e 3d 3d 3e 9a 5d 95 3e
       0.57778424 0.03142908 0.18480489 0.29172975
000060 79 57 d2 3e 7d cc 0f bf 8e 47 3f 3e 45 2e cd be
       0.4108236 -0.561714 0.1867964 -0.40074363
000070 76 07 2b bf 1b 92 87 be 21 b1 09 bd 1e fe 9a 3e
       -0.6680826 -0.26478657 -0.03361619 0.30272
000080 16 d2 f6 3e a8 fd 0f bf 1f 42 23 3f 15 2a c3 3e
       0.48207158 -0.56246424 0.6377277 0.38118044

conv1.bias f4 [6]
000000 bf cd 91 be 14 97 b7 be bf 68 ec 3e 6f 5f fe 3e
       -0.28477284 -0.3585745 0.46173665 0.49682185
000010 f6 1f 27 be ee 49 d4 be
       -0.16320786 -0.41462654

conv2.weight f4 [3, 6, 3]
000000 40 98 93 be 2d 4f c9 bd 79 b6 2c 3f 7d 46 89 3e
       -0.28827095 -0.09829555 0.6746593 0.2681159
000010 ef ab bc 3e 40 71 79 3e 8e 8c aa bd 19 5c 9b 3e
       0.36849925 0.24359608 -0.0832759 0.30343702
000020 64 b8 e6 3d f5 e0 c7 3e df 1c 04 bd ad 9e 4f 3e
       0.112656385 0.39038816 -0.032254096 0.20275374
000030 da 71 7c be fb a1 b0 3d 00 3c d3 bb c6 a8 f1 be
       -0.24652806 0.08624645 -0.0064463615 -0.47199076
000040 b1 6e 96 3c 40 4e 01 3f 59 76 01 bf 7d 1b 70 3e
       0.018363329 0.50510025 -0.5057121 0.23447986
000050 cb 67 00 3f 9a 88 18 3f 95 96 49 be ec 9a 46 3e
       0.50158376 0.5958344 -0.19686349 0.19395036
000060 4c dc 02 3f 92 7b 10 3e fd 0e f4 be 49 3a bc bd
       0.51117396 0.14109638 -0.47667685 -0.091908045
000070 a2 30 65 3e 50 97 03 be cc a6 6e 3e 60 6e 09 3d
       0.22381833 -0.1285069 0.23305815 0.033552527
000080 f2 2c 13 3d 97 05 82 be 9d b0 e1 bd 33 cc b6 be
       0.035931535 -0.2539489 -0.110200144 -0.35702667
000090 44 42 62 be 53 4b 9f 3e 42 49 82 be 4d 0d c4 3e
       -0.22095591 0.31112155 -0.25446516 0.38291398
0000a0 21 4c 90 be 92 7d 0e bf e9 e3 05 3f a8 50 a2 be
       -0.28183082 -0.55660355 0.5230089 -0.3170216
0000b0 ae b7 15 bf 72 c9 27 be d4 39 9f 3e 3f f7 d3 3c
       -0.584834 -0.16385439 0.31098807 0.025874732
0000c0 ae ec 9b 3d 7b 1d ff be 29 1b ad be ea 92 9e be
       0.076135024 -0.4982718 -0.33809784 -0.30971462
0000d0 f8 bf a4 3e aa 7a 31 3c
       0.3217771 0.010832468

conv2.bias f4 [3]
000000 4e bc 89 3e aa 52 c6 3d 5b 86 dc 3e
       0.26901478 0.09683736 0.43071255

dense1.weight f4 [50, 80]
000000 ba 92 c5 3d 00 8d 5e 3a 00 b1 4b 3a 80 7f c8 3d
       0.096471265 0.00084896386 0.00077702105 0.09789944
000010 80 cb 88 bb 62 2d 96 bd a2 bf 8a 3d fc 0c 82 bd
       -0.0041746497 -0.07332875 0.06774832 -0.06350133
000020 e0 5b 66 bd fc 8b c3 3d 6a 7b 2d bd 40 27 20 3d
       -0.056239963 0.09548184 -0.042354025 0.03909993
000030 58 bd aa bd c8 ea d2 bd 90 1e 0c 3d 48 66 86 3c
       -0.08336896 -0.10298687 0.034208834 0.016406193
000040 3c c7 60 3d 16 41 96 3d 04 01 d9 bc 90 0a 9e 3c
       0.054877505 0.07336633 -0.026489742 0.019292146
000050 7a bd 8d bd 26 71 e3 bd dc 1c bd 3d 56 db af bd
       -0.069209054 -0.11105566 0.0923402 -0.08586757
000060 78 da d2 bd e8 ff a4 bc fe 8d 1b bd 8a ee b0 bd
       -0.10295576 -0.020141557 -0.03797721 -0.08639248
000070 60 ae bb 3c 5a 52 99 3d 56 bd c7 3d c0 cb c1 3b
       0.022910297 0.074864104 0.0975291 0.0059141815
000080 29 11 a3 bd 5c 58 34 3d 65 27 90 bd 10 7e 5c 3c
       -0.079622574 0.04402958 -0.07038764 0.01345779
000090 88 50 f3 bc d0 ad 90 bd fa bc dc 3d fa 14 86 3d
       -0.029701486 -0.07064402 0.10778232 0.0654697
0000a0 24 1b 57 3d b8 32 30 3d a8 f2 36 bd ba 26 30 bd
       0.052516118 0.04301712 -0.04466501 -0.043005683
0000b0 f0 94 90 3c e1 08 61 bd 97 36 de bd 9a 28 9b 3d
       0.017649144 -0.05494011 -0.10850256 0.075761035
0000c0 90 b9 76 3c 98 f7 9f bd 36 83 e4 3d 08 a5 9d 3c
       0.01505889 -0.07810897 0.11157839 0.019243732
0000d0 3c 1c 34 3d 44 55 22 3d 4c 99 59 3d a4 5c 90 bc
       0.04397224 0.039632097 0.05312471 -0.0176223
0000e0 fe c7 8e bd a0 dd d6 bc 0e 34 54 bd 92 80 9d 3d
       -0.06971739 -0.026228726 -0.051807456 0.076905385
0000f0 a1 65 b3 bd 2d 99 c2 bd a2 e4 42 bd e6 fe cb 3d
       -0.087596186 -0.09501872 -0.047581322 0.099607274
000100 24 f6 e0 3d 60 ba 07 bd 30 84 41 3d 00 00 09 39
       0.109844476 -0.033136725 0.047245204 0.00013065338
000110 40 fa d8 bc 24 39 ba bc 34 cf e3 bc 3a 46 1f bd
       -0.026486516 -0.022732325 -0.027808763 -0.038885333
000120 f1 17 e3 bd ce f6 b0 3d e8 16 ce bc 74 76 ca 3d
       -0.11088551 0.08640824 -0.025157407 0.098858744
000130 63 9f 54 bd 27 74 ad bd 5d 91 e1 bd 60 d7 e2 3c
       -0.051909816 -0.0846942 -0.11014054 0.02769059
000140 7d 8f 79 3e 5c 2e 86 be af 9d 87 be 60 dd 8a be
       0.24371143 -0.26207244 -0.2648749 -0.2712202
000150 b6 e4 be 3e a9 51 8d 3e 3c b8 ce 3d 2d 22 8b be
       0.37283868 0.27601364 0.10093734 -0.27174512
000160 05 10 b1 3e b8 39 ac 3e 46 58 59 3e 9e b5 01 3f
       0.34582534 0.33637786 0.2122508 0.5066775
000170 e7 72 7f 3e f8 80 32 3e e7 9b 83 bd 41 1f 2c bf
       0.24946176 0.1743201 -0.064262204 -0.6723519
000180 07 52 0f be ec 4e 04 3f 02 1f a6 3e 76 04 5d 3e
       -0.13996135 0.51682925 0.32445532 0.21583733
000190 5e f5 ea bd d5 5f 4a be e7 28 95 bd c1 1f c5 3c
       -0.11472581 -0.1976312 -0.07283192 0.024062993
0001a0 ef ae 88 3e 2c a8 ae 3e 78 61 95 3e ba 1e 0b 3e
       0.26695964 0.3411268 0.29175925 0.1358594
0001b0 98 2e c7 be 42 0c c8 be 36 f1 90 3e 04 c1 bc 3e
       -0.38902736 -0.39071852 0.2830903 0.3686601
0001c0 4d e2 a4 3e 47 74 45 bc 6e e1 aa 3e eb fc 86 3e
       0.32203904 -0.012051648 0.33375114 0.26364836
0001d0 e8 ce 8b 3e e1 fe b2 be 5f 44 db 3e 8b 2d 14 3e
       0.27306294 -0.34960082 0.428256 0.14470498
0001e0 ba 31 2c 3e 26 85 03 be 31 ab 59 3e 13 5a 24 3d
       0.16815844 -0.12843761 0.2125671 0.040124964
0001f0 bb d0 13 3f c7 0d 9c 3e f4 fb 95 be b7 5d b7 be
       0.5774037 0.3047926 -0.29293787 -0.35813686
000200 a4 35 aa bd ec 48 23 bf fd b3 5f 3e f9 37 b6 3e
       -0.083110124 -0.63783145 0.21846004 0.3558958
000210 29 24 68 be ae 57 49 3e f8 23 80 3e 24 35 a3 be
       -0.22670044 0.19662353 0.25027442 -0.3187648
000220 e6 ed b0 be 0a 98 8e 3e 96 89 d4 3e 84 c3 fe 3d
       -0.34556502 0.27850372 0.4151122 0.124396354
000230 3c 11 b7 3e 55 dd a6 3e 70 7b 62 3e d6 8f 30 3e
       0.35755336 0.32590738 0.221174 0.17242369
000240 28 10 94 3e 9e 74 f4 be 0c c1 c6 3e e2 ed 8a bc
       0.28918576 -0.47745222 0.38819158 -0.016959134
000250 b0 3f a0 3e b6 b3 fe 3e 10 42 2c 3e b0 4a 98 3e
       0.3129859 0.49746484 0.16822076 0.29744482
000260 4a a4 78 3e d3 8d 20 3d 33 aa 01 bf 36 85 e0 3e
       0.24281421 0.039197754 -0.5065033 0.43851632
000270 c1 f8 01 bf e6 82 a7 bd 46 fb a2 3e cf 1d a6 3e
       -0.50770193 -0.08179264 0.3183233 0.32444617
000280 c4 fe a4 bc b8 23 e7 3c 51 c8 e4 bd bf b0 dd bd
       -0.020141013 0.028215274 -0.1117102 -0.10824727
000290 da 85 d9 3d d8 fa 34 3d 4e 69 3e bd f4 99 69 3d
       0.10621233 0.044184536 -0.046487145 0.057031587
0002a0 38 fd 20 bd 3a a7 92 3d bc 29 8d bc 90 ae 44 3d
       -0.03930399 0.07160802 -0.017231815 0.04801804
0002b0 50 31 8f bc 22 f5 db 3d c4 a3 aa bc 48 f6 bf bc
       -0.017479569 0.10740115 -0.020830043 -0.023432866
0002c0 d8 93 23 3d 70 f6 8b 3b a8 5a ac bc 68 d4 35 3d
       0.039935917 0.004271321 -0.021039322 0.04439202
0002d0 bf 60 c0 bd 15 ad 54 bd d6 f5 c6 3d 54 eb 15 3d
       -0.09393453 -0.051922876 0.09714858 0.03660138
0002e0 5c 46 a9 bc 54 24 d2 3d 80 28 87 3d 8b 19 8b bd
       -0.020663433 0.10260835 0.06599522 -0.06791981
0002f0 00 f3 85 3d 83 fb 8b bd 7b 7b 82 bd a8 86 ce 3d
       0.06540489 -0.068350814 -0.06371208 0.100842774
000300 7c 58 a2 bc 68 bc 40 3c 88 a3 80 3c 84 5d 39 bd
       -0.019817583 0.01176367 0.015702978 -0.0452552
000310 90 30 ed 3b 14 c8 68 bd 68 97 85 bc 40 f1 dd bd
       0.007238455 -0.056831434 -0.016307548 -0.108370304
000320 30 12 8f 3c 10 ac fe 3c 3c 0c 33 3d 52 7f dc 3d
       0.017464727 0.031087905 0.04371284 0.10766472
000330 6e 4e ca 3d bc 40 03 3d de 10 88 bd be 6c 4e bd
       0.098782405 0.032044157 -0.06643842 -0.050396673
000340 e0 a3 3d bc 90 25 0e 3d 1b 14 b5 bd 1c d4 e4 bc
       -0.011574715 0.03470379 -0.088417254 -0.027933173
000350 1c 90 5c 3d 5e 00 8d bd 94 45 23 bd ee c2 a0 3d
       0.05384837 -0.06884836 -0.039861277 0.0784968
000360 9c 3f 13 3d 48 83 24 bd 4e ca 02 bd 44 14 98 bd
       0.035949335 -0.040164262 -0.031931214 -0.0742574
000370 f9 0f 56 bd c6 9a a1 bd b2 63 8e bd 08 95 eb 3c
       -0.052261326 -0.07890849 -0.06952609 0.028757587
000380 a0 a7 d5 3c 90 1a 18 3d 1c b6 24 bd 68 fd e6 bc
       0.026080906 0.037134707 -0.040212736 -0.028197005
000390 67 3b da bd 04 87 8f 3d fe 41 bd 3d e6 49 43 bd
       -0.10655861 0.07008174 0.09241103 -0.047677897
0003a0 aa 2e 80 3d 90 2d e6 3b 54 17 a8 3d 58 40 75 bd
       0.062589005 0.0070244744 0.082075745 -0.059875816
0003b0 b2 cf 06 bd 40 85 cb 3d 7f 94 b0 bd 30 76 e2 3b
       -0.032912917 0.09937525 -0.086220734 0.0069110617
0003c0 3d ee e3 3e 9b 53 02 bf 4e 89 26 3e 4b d2 c1 3e
       0.445177 -0.5090882 0.16263315 0.37855753
0003d0 e1 74 08 3b 3f e1 ca 3c cc 3f b2 3e b3 97 3b 3e
       0.0020821618 0.024765609 0.34814298 0.18319587
0003e0 aa d9 5a 3e c3 92 0d 3e e5 46 ed 3e f8 09 f5 3e
       0.21372095 0.13825516 0.4634315 0.47859168
0003f0 d8 8e a2 3e d9 24 96 be 3f 37 5f 3e 79 5b 25 3c
       0.31749606 -0.29324988 0.21798418 0.01009261

dense1.bias f4 [50]
000000 68 3b bf bc 43 91 ca 3e b6 37 c8 3d 41 09 12 be
       -0.023343757 0.3956395 0.09776251 -0.14261343
000010 f5 32 a5 be 60 53 bf 3d e4 76 3d 3d 5e 1c b4 be
       -0.3226544 0.093420744 0.04625596 -0.35177892
000020 4c 57 9e be 0a 69 20 bc 00 3d 9d 3e 0c 54 a5 be
       -0.30925977 -0.009790668 0.30710602 -0.32290685
000030 60 72 11 3c 00 71 63 3c d7 ae 70 3e 75 80 ab be
       0.008877367 0.013881922 0.23504196 -0.33496442
000040 4b 50 83 3e ea a5 6b 3e 65 94 6e be 1a e0 cc 3e
       0.25647196 0.2301251 -0.23298796 0.40014726
000050 ab 2c 32 be bc 30 d3 be 14 33 4f 3e fc 10 85 be
       -0.17399852 -0.4124812 0.20234329 -0.2598952
000060 4d c1 98 be 81 2e 82 be 01 03 55 3e 7c 5c b7 3e
       -0.29834977 -0.25426105 0.20801927 0.35812747
000070 7f 9f a6 3e 66 13 c3 3e 8a 5d a9 be 8b 30 ce bd
       0.3254356 0.38100737 -0.33079177 -0.100678526
000080 24 32 93 bc 1e 12 1c 3e b4 1c 22 be 30 d6 e1 bc
       -0.017968245 0.15241286 -0.15831262 -0.027567953
000090 c8 88 b8 3c 24 bf 2b 3d af d6 4c 3e 66 40 20 be
       0.02252616 0.041930333 0.2000377 -0.15649566
0000a0 b8 32 35 3d 40 c0 34 3e ca 70 57 be 72 a7 c1 be
       0.044237822 0.17651463 -0.2103912 -0.37823063
0000b0 6f 13 c8 be 3c 23 56 3d 25 a4 7a 3e 23 61 7a be
       -0.39077327 0.052279696 0.24476679 -0.24451117
0000c0 a4 14 a0 be e8 49 45 3e
       -0.31265748 0.19266474

dense2.weight f4 [1, 50]
000000 d9 5a 2a bf 82 b1 c2 bd 39 b0 54 3f 1a 85 dd 3d
       -0.6654487 -0.09506513 0.83081394 0.10816403
000010 1e 72 40 bf d2 1e 19 bd 12 d0 43 bf 7e 06 42 3f
       -0.7517413 -0.03738291 -0.76489365 0.75791156
000020 67 85 d9 be c4 cc ad bd a2 64 12 be f1 9a 9a be
       -0.4248459 -0.084863216 -0.14296201 -0.30196336
000030 ef ab 36 3f 2c 5f 21 bf 4e 1f 1f 3e e6 8c 04 3e
       0.713561 -0.63035846 0.15539286 0.12944373
000040 07 9b f3 3d 35 b6 c5 3a ba c6 0d 3f c1 d6 3f 3e
       0.118948035 0.0015084209 0.5538136 0.18734266
000050 1a 16 d9 bc ff 75 c5 3c b4 7e fd 3d 60 d9 d8 bd
       -0.026499797 0.024104116 0.12377682 -0.10588336
000060 85 87 63 be 57 91 69 bf a4 14 5a be d5 b7 b6 bd
       -0.22219665 -0.91237396 -0.21296936 -0.08921782
000070 44 30 b1 bc cf 23 11 be 87 06 0c be 76 94 2e bf
       -0.02162946 -0.14173816 -0.13674365 -0.68195283
000080 8f d7 d1 be 65 da 14 3d 6e a8 73 bc 4e 7d 2c 3f
       -0.4098477 0.03634109 -0.0148717 0.673787
000090 7d a2 32 3f f4 b3 18 bf 11 fc 66 3d da 86 c9 bd
       0.6977919 -0.59649587 0.056392733 -0.09840174
0000a0 b3 9a 4a 3f a3 25 c5 bd fd be 40 3c 28 11 4f be
       0.791423 -0.09626319 0.011764285 -0.20221388
0000b0 a8 94 91 be a9 49 21 be bc 9e 55 bd db e7 71 bf
       -0.28433728 -0.15750755 -0.052153334 -0.9449441
0000c0 c2 e8 df bd 5b b1 6e 3d
       -0.10933067 0.058274608

bachnorm1.weight f4 [50]
000000 00 00 80 3f 5b 80 ac 3e 00 00 80 3f 18 43 31 3f
       1.0 0.33691677 1.0 0.69243
000010 fd 8e 3b 3f 98 db f6 3e 00 00 80 3f 5f 6f a6 3f
       0.7326506 0.48214412 1.0 1.3002738
000020 7e 23 33 3f 3b 47 3c 3f 2a 3d d7 3e f7 95 02 3f
       0.6997603 0.7354619 0.42038852 0.5101008
000030 00 00 80 3f 00 00 80 3f 95 30 42 3f c1 2d 46 3f
       1.0 1.0 0.7585538 0.77413565
000040 98 8f 23 3e 62 ba d7 3e 2b 6d a6 3f dc bc 39 3f
       0.15972745 0.42134386 1.3002065 0.725538
000050 03 09 de 3e be 93 4a 3f ee 3a 3a 3f 16 eb 30 3f
       0.4336625 0.79131687 0.7274617 0.6910871
000060 c1 86 69 3f 71 24 33 3f 31 1a 13 3f dc a1 08 3f
       0.91221243 0.6997748 0.5746184 0.5337198
000070 84 70 f6 3e d1 17 40 3f b6 a6 51 3f 00 00 80 3f
       0.48132718 0.7503634 0.81895006 1.0
000080 00 00 80 3f 6b 81 f8 3e 98 a7 31 3f 00 00 80 3f
       1.0 0.48536238 0.6939635 1.0
000090 00 00 80 3f 00 00 80 3f 01 7a 06 3f 88 42 b2 3e
       1.0 1.0 0.52529913 0.34816384
0000a0 00 00 80 3f e1 e9 87 3e 94 a9 12 3f 7d 21 33 3f
       1.0 0.26545623 0.57290006 0.69972974
0000b0 5e 0c 37 3f 88 ec f6 3e 4c 2c 25 3f f5 91 3b 3f
       0.71503246 0.48227334 0.64520717 0.7326959
0000c0 57 19 68 3f 0d 45 fe 3e
       0.90663666 0.49662057

bachnorm1.bias f4 [50]
000000 37 ee 25 3f 98 ea 7b be 52 03 29 bf 15 16 13 3e
       0.6481661 -0.24601209 -0.6602069 0.14363892
000010 a9 79 10 3f 19 ed c9 be a5 fe 41 3f 84 de 1c bf
       0.5643564 -0.39438704 0.7577918 -0.6127703
000020 e9 e6 e1 3e a5 f7 fa bd 19 65 fd be b0 33 a5 be
       0.44121483 -0.12254266 -0.49491194 -0.32265997
000030 06 be 2c bf 27 e2 0d 3f 4b 17 f4 be 28 69 0b bf
       -0.6747745 0.55423206 -0.4767402 -0.5445733
000040 62 56 87 be 63 d2 cb 3e 34 56 0d bf b7 d5 9a 3d
       -0.26433092 0.3980895 -0.5520966 0.07560294
000050 5a 3d 92 3e 67 ae 07 3f 96 f2 19 3e 90 ad d6 3e
       0.28562433 0.5300049 0.15033945 0.41929293
000060 26 a8 fd 3e 5b 01 88 3f 17 01 e4 be 31 11 c5 3e
       0.4954235 1.0625414 -0.4453208 0.38489679
000070 2c a4 05 3f 52 0e 0f bf 47 6b 0b 3f 90 5f 2a 3f
       0.5220363 -0.55881226 0.5446057 0.66552067
000080 de f1 03 3f 6d 16 3c 3e 65 9f b4 be f1 24 64 bf
       0.51540935 0.1836793 -0.35277858 -0.8911887
000090 1a 6c 11 bf 34 66 10 3f a8 8d 0b 3e a1 40 c3 be
       -0.56805575 0.5640595 0.13628256 -0.38135245
0000a0 21 ff 3e bf 50 c3 c0 bd 93 35 1a bc 18 7e cd 3e
       -0.74608046 -0.09412253 -0.009412187 0.40135264
0000b0 e5 7d f9 3e 9d 94 78 3e 00 eb 7f 3e 1a 13 46 3f
       0.48728862 0.24275441 0.24991989 0.77372897
0000c0 49 f3 ef 3e e4 69 e1 3e
       0.468653 0.440261

bachnorm_conv1.weight f4 [6]
000000 76 db a8 3f 50 8e 95 3f 2d 83 a0 3f 40 f0 56 3f
       1.3191974 1.1684055 1.2540032 0.8396034
000010 69 14 1d 3f 83 f2 71 3f
       0.6135927 0.9451067

bachnorm_conv1.bias f4 [6]
000000 0c 72 96 3e d2 5c b2 3e bf 62 98 3e 17 9d 00 be
       0.29383886 0.3483644 0.29762837 -0.12559925
000010 88 e0 10 bc e2 93 01 be
       -0.008842595 -0.12654069

bachnorm_conv2.weight f4 [3]
000000 1c bc 05 3f 45 de 85 3f 32 b4 58 3f
       0.5224016 1.0458456 0.84649956

bachnorm_conv2.bias f4 [3]
000000 ed dd b1 bd a4 b1 75 3e cb be 4d 3e
       -0.08684907 0.23993546 0.20092313
