best_model_becker.pt (torch, 22047 bytes, 13 tensors)

conv1.weight f4 [6, 2, 3]
-1.1007863 -0.7594763 0.1149241 -0.026597243 -0.30161878 1.8795583 1.2128253 -0.7746674
0.39733914 0.15666611 -0.36002886 -0.849334 -0.83956647 0.82600635 0.3753909 -0.12726067
1.4290618 -0.02892376 -0.31560147 -0.31832817 0.3410301 -0.57906854 -0.39721212 -0.8962205
-0.22557224 0.12265666 0.059059072 0.3894713 1.4904966 0.8498892 0.728096 -0.58222145
0.26588276 1.0532796 0.10072428 -0.46909982
00000000: 91e6 8cbf 0a6d 42bf 545d eb3d 76e2 d9bc
00000010: c76d 9abe 5e95 f03f dc3d 9b3f 9a50 46bf
00000020: 0970 cb3e 156d 203e b455 b8be f46d 59bf
00000030: d4ed 56bf 2775 533f 3c33 c03e 9f50 02be
00000040: 7feb b63f 85f1 ecbc 8496 a1be e9fb a2be
00000050: 7f9b ae3e d63d 14bf 635f cbbe b56e 65bf
00000060: 69fc 66be 6a33 fb3d ede7 713d c868 c73e
00000070: 98c8 be3f 5792 593f 8064 3a3f 770c 15bf
00000080: c921 883e ded1 863f 8848 ce3d da2d f0be

conv1.bias f4 [6]
-3.3781998 -0.9829894 -0.677619 -1.3282194 0.45985842 0.46170297
00000000: 6d34 58c0 31a5 7bbf 7078 2dbf 1803 aabf
00000010: 9072 eb3e 5564 ec3e

conv2.weight f4 [3, 6, 3]
1.8764296 1.3524283 1.0318216 -0.44362292 -0.38923204 -0.94049084 -1.0003163 -0.64869124
-0.26676905 -0.41367307 -0.4316749 -0.6102747 0.890357 0.24782807 0.4079479 0.14037496
-0.4261617 -0.20808277 -0.17838596 -0.16445768 -0.060391594 -0.4128956 -0.051315144 0.6642613
0.76531005 -0.84002405 0.06164857 0.7343031 1.1154174 1.7404984 -0.64483494 0.29291856
-0.48318586 0.40735638 0.12402429 0.25739753 0.58676386 0.11058934 -0.90599823 0.39181206
0.53045326 0.61155915 1.3785914 0.6776305 1.3852446 -0.029975189 0.7119248 0.018526934
-0.14904483 0.356325 -0.1282725 0.5653844 0.5336091 0.4091378
00000000: d82e f03f 5f1c ad3f bb12 843f 8b22 e3be
00000010: 6c49 c7be 02c4 70bf 5d0a 80bf a110 26bf
00000020: f495 88be f5cc d3be 7e04 ddbe f63a 1cbf
00000030: 70ee 633f a4c6 7d3e 8cde d03e 74be 0f3e
00000040: de31 dabe a613 55be cfaa 36be 9867 28be
00000050: 2d5d 77bd 0d67 d3be d42f 52bd 070d 2a3f
00000060: 5ceb 433f d10b 57bf 3683 7c3d 4afb 3b3f
00000070: ffc5 8e3f a7c8 de3f e713 25bf 6cf9 953e
00000080: 2364 f7be 0491 d03e 7200 fe3d 9cc9 833e
00000090: 2836 163f aa7c e23d 80ef 67bf 979b c83e
000000a0: c9cb 073f 248f 1c3f af75 b03f 3179 2d3f
000000b0: b24f b13f 878e f5bc b440 363f ccc5 973c
000000c0: 359f 18be 3b70 b63e de59 03be 08bd 103f
000000d0: 9b9a 083f 827a d13e

conv2.bias f4 [3]
-1.1017045 -1.0451473 0.46677572
00000000: a704 8dbf 63c7 85bf 3afd ee3e

dense1.weight f4 [50, 80]
1.6850185 0.801736 0.44213924 -0.1655191 0.3984519 0.259211 0.16036962 0.23390394
0.48027068 0.8344395 0.86265725 1.1408305 1.2992593 0.63415074 0.78392106 0.79133046
1.070453 1.7081939 1.9334123 1.774217 1.5050179 1.1264496 1.052441 0.9277847
1.4539958 1.3104714 -1.8938241 -1.5375736 -2.0673811 -2.0345604 -1.6387141 -1.6883333
-2.2743125 -1.7203008 -1.6207166 -0.89084256 -1.4901216 -2.032723 -1.4571514 -1.7294164
-1.6283307 -1.532234 -1.7037228 -0.8876368 -2.1120493 -1.4403301 -1.4525056 -2.2724469
-1.6480002 -0.6309397 -1.1286861 -2.26567 -2.1699772 -2.0979087 -2.2053607 -2.5194845
-2.3771706 -2.2024553 -2.2431817 -2.0116663 -1.858034 -1.7687624 -1.331704 -1.5756783
-1.5099639 -1.7564209 -1.3909607 -1.4850546 -1.5510926 -1.4977841 -0.95197755 -1.5993516
-0.71094644 -1.1661019 -1.4102635 -1.9820355 -0.5650129 -0.40984493 1.7617663 1.8144019
0.5079441 0.5058332 0.33742547 0.25513166 -0.10040781 0.193378 0.031592287 0.009186761
0.13601527 -0.01975531 -0.59008384 0.026175136 0.15829241 -0.3636927 0.08946816 0.033854626
0.11319208 -0.5198478 -0.238968 -0.3644565 -0.43637466 -0.27118668 -0.16714074 -0.31955442
-0.12497682 -0.3827981 0.42387578 0.32029167 0.27544668 0.52121127 0.280875 0.38825363
0.37604666 0.27967912 0.3358514 0.50133365 0.5041904 0.29785156 0.45266417 0.42830685
0.11064807 0.48659772 0.14809065 0.31972742 0.39127952 -0.16652952 0.051599354 -0.27065715
-0.28014788 -0.4688583 0.3682771 -0.48392883 0.2784195 0.29526696 0.25189042 0.36030847
0.41154143 -0.0020923216 0.07633462 0.20643546 0.16427416 0.0456461 -0.09683909 0.2938566
0.21162403 0.42787603 0.069964826 0.06454402 0.37177357 0.04042268 0.005841019 -0.16769315
0.005243469 0.069081016 -0.2475204 -0.113921806 -0.23526363 -0.30879045 -0.3089445 -0.33783367
-0.039339464 0.15766329 0.36393347 0.24717301 1.0161536 0.7941281 0.774778 0.14098513
0.33102682 0.122294724 0.47343612 -0.06848373 0.4214847 0.43653926 0.03756999 0.18568075
0.11297529 -0.5227115 0.6444357 0.23087895 0.46043423 0.7772379 0.17986901 -0.06604354
0.44093978 0.7844019 0.21388231 0.13461141 0.38173774 0.50194335 0.46359146 0.2308858
0.28358245 -0.05145663 0.06513762 -0.12854376 -0.3347746 0.3264333 -0.10494391 0.12140417
-0.021642076 0.07284845 -0.19348012 0.55645645 0.46046323 0.20664486 0.24974933 0.14777368
0.4521762 0.30970457 0.6350646 0.37009755 1.3703004 0.5716997 0.6219215 0.6350121
0.16299374 1.1764823 0.45933235 -0.05977794 0.51608735 -0.095664725 0.56482 0.0746558
0.417017 0.55872667 0.64389706 0.09739073 0.21457385 -0.07393451 0.8312329 0.58353865
0.39481294 0.6911555 0.7780154 -0.21522893 0.3887847 0.57368475 -0.3367042 -0.48754126
-0.48631972 -0.6358701 -0.5379838 -0.5661572 -0.56739724 -0.548357 -0.6495955 -0.52146417
-0.627258 -0.6759904 -0.6583306 -0.68855625 -0.56421226 -0.50935596 -0.6466695 -0.62428164
00000000: b0ae d73f 923e 4d3f 1360 e23e d77d 29be
00000010: e301 cc3e 4eb7 843e ef37 243e 8484 6f3e
00000020: 0ae6 f53e d49d 553f 1bd7 5c3f bc06 923f
00000030: 214e a63f b457 223f 0daf 483f a294 4a3f
00000040: 9b04 893f 19a6 da3f 0e7a f73f 8b19 e33f
00000050: 6da4 c03f 802f 903f 63b6 863f 4c83 6d3f
00000060: 891c ba3f 87bd a73f d468 f2bf 36cf c4bf
00000070: f94f 04c0 3d36 02c0 62c1 d1bf 4e1b d8bf
00000080: 568e 11c0 d132 dcbf a473 cfbf 420e 64bf
00000090: 4ebc bebf 2218 02c0 f083 babf 845d ddbf
000000a0: 246d d0bf 3e20 c4bf 9713 dabf 2a3c 63bf
000000b0: d12b 07c0 bd5c b8bf b4eb b9bf c56f 11c0
000000c0: acf1 d2bf 4485 21bf c978 90bf bd00 11c0
000000d0: e8e0 0ac0 2344 06c0 a124 0dc0 3c3f 21c0
000000e0: 9023 18c0 07f5 0cc0 4a90 0fc0 24bf 00c0
000000f0: 0fd4 edbf ce66 e2bf 4775 aabf d4af c9bf
00000100: 7f46 c1bf 66d2 e0bf 000b b2bf 4516 bebf
00000110: 348a c6bf 64b7 bfbf cdb4 73bf 8eb7 ccbf
00000120: 9600 36bf d442 95bf 8483 b4bf 57b3 fdbf
00000130: afa4 10bf 32d7 d1be 8f81 e13f 523e e83f
00000140: a008 023f 497e 013f 08c3 ac3e 9ea0 823e
00000150: 9ca2 cdbd e204 463e ea66 013d 1284 163c
00000160: 9647 0b3e e3d5 a1bc bc0f 17bf 3d6d d63c
00000170: 6817 223e ee35 babe 153b b73d 26ab 0a3d
00000180: 40d1 e73d bf14 05bf 07b4 74be 0b9a babe
00000190: 806c dfbe fbd8 8abe f126 2bbe a39c a3be
000001a0: d9f3 ffbd 1dfe c3be 3f06 d93e 45fd a33e
000001b0: 5907 8d3e 1a6e 053f d9ce 8f3e 2ec9 c63e
000001c0: 3089 c03e 1a32 8f3e b7f4 ab3e 6757 003f
000001d0: 9f12 013f 0080 983e 99c3 e73e 094b db3e
000001e0: 759b e23d 5623 f93e 13a5 173e 50b3 a33e
000001f0: ca55 c83e b786 2abe d859 533d 9393 8abe
00000200: 8b6f 8fbe 320e f0be d18e bc3e 85c5 f7be
00000210: 008d 8e3e 3b2d 973e c8f7 803e 5a7a b83e
00000220: 8fb5 d23e 551f 09bb 5355 9c3d d163 533e
00000230: 7c37 283e 68f7 3a3d 9353 c6bd 5f74 963e
00000240: f8b3 583e 9112 db3e b849 8f3d a82f 843d
00000250: 1b59 be3e 4192 253d 0566 bf3b c1b7 2bbe
00000260: 68d1 ab3b 597a 8d3d fd75 7dbe d64f e9bd
00000270: f3e8 70be c819 9ebe f92d 9ebe 89f8 acbe
00000280: 6b22 21bd 7c72 213e 7d55 ba3e ec1a 7d3e
00000290: 5211 823f fb4b 4b3f da57 463f 685e 103e
000002a0: 597c a93e a875 fa3d 3866 f23e 3341 8cbd
000002b0: d8cc d73e 1382 df3e fde2 193d 1823 3e3e
000002c0: 975f e73d 6cd0 05bf bdf9 243f 886b 6c3e
000002d0: 09be eb3e 10f9 463f 952f 383e d641 87bd
000002e0: dcc2 e13e 90ce 483f f703 5b3e 93d7 093e
000002f0: 2173 c33e 5c7f 003f dc5b ed3e 546d 6c3e
00000300: b831 913e 30c4 52bd df66 853d faa0 03be
00000310: 9467 abbe 4422 a73e d5ec d6bd c0a2 f83d
00000320: b94a b1bc 9131 953d a71f 46be ee73 0e3f
00000330: d6c1 eb3e b69a 533e 4abe 7f3e fc51 173e
00000340: a483 e73e 9991 9e3e 9893 223f 6d7d bd3e
00000350: 0166 af3f e95a 123f 3f36 1f3f 2790 223f
00000360: d5e7 263e f996 963f 9c2d eb3e b7d9 74bd
00000370: 4d1e 043f deeb c3bd 0b98 103f 24e5 983d
00000380: 4183 d53e b608 0f3f 70d6 243f cb74 c73d
00000390: 3fb9 5b3e fa6a 97bd aecb 543f ca62 153f
000003a0: ec24 ca3e 91ef 303f 042c 473f f964 5cbe
000003b0: ca0e c73e 01dd 123f 7e64 acbe 029f f9be
000003c0: e6fe f8be 62c8 22bf 4eb9 09bf aeef 10bf
000003d0: f240 11bf 2061 0cbf e44b 26bf ad7e 05bf
000003e0: fb93 20bf b50d 2dbf 5b88 28bf 3945 30bf
000003f0: 3770 10bf 2765 02bf 228c 25bf ecd0 1fbf

dense1.bias f4 [50]
1.6765527 -0.18342917 -0.5200311 -0.5403798 -0.3204354 0.060571954 -0.26179636 0.19089445
0.098608755 1.399215 0.014460459 -0.081193306 3.7666292 0.34133413 -0.42855337 -0.7205438
-0.39384726 -0.26894838 -0.3225339 -0.28436384 1.205772 -0.71626693 0.623128 0.43060213
-0.8697919 -0.36688367 -0.12435955 4.0793066 -1.6838114 1.5524145 -0.36489323 0.075645044
0.10065758 3.3326035 0.1022201 -0.28559837 -0.17249314 -0.88455117 4.096791 1.6506627
-0.16497982 -0.32121682 -0.5691917 3.1696362 -0.34527352 -0.70434904 -0.5069764 3.7785625
-0.873876 3.7954643
00000000: 4799 d63f dbd4 3bbe c220 05bf 5556 0abf
00000010: 1c10 a4be 4c1a 783d 2c0a 86be d679 433e
00000020: 63f3 c93d 7a19 b33f 90eb 6c3c ad48 a6bd
00000030: 7410 7140 59c3 ae3e 596b dbbe 8f75 38bf
00000040: 59a6 c9be 9ab3 89be 2a23 a5be 2398 91be
00000050: bd56 9a3f 455d 37bf 5185 1f3f e277 dc3e
00000060: afaa 5ebf 2dd8 bbbe 38b0 febd ae89 8240
00000070: 2287 d7bf 85b5 c63f 49d3 babe caeb 9a3d
00000080: 9025 ce3d 6049 5540 c658 d13d f339 92be
00000090: 0ba2 30be f271 62bf e918 8340 ea48 d33f
000000a0: 78f0 28be 8876 a4be 8cb6 11bf 52db 4a40
000000b0: b1c7 b0be 3850 34bf 35c9 01bf f8d3 7140
000000c0: 56b6 5fbf e3e8 7240

dense2.weight f4 [1, 50]
0.9390303 -0.49083102 -0.70094246 0.40855572 0.0038995498 0.5841292 0.33666065 -0.07544732
-0.0010328774 1.1229432 0.45703772 0.0042597535 0.1270683 0.13170682 0.016348451 -0.14147541
0.64979017 -0.61825234 -1.2185612 -0.16750371 0.19462666 0.09182064 0.00027439205 -0.87910914
-0.2715255 -0.29110166 -0.8942205 0.87111145 -0.5001394 0.40226555 0.034474384 -0.0027113967
-0.054398987 0.9278714 0.58759785 -0.9402986 -0.6660812 -0.104075976 0.45239702 0.09016435
1.7849559 -0.74281716 -1.1048529 0.38306192 -0.22787073 -0.7000317 -2.3965435 0.04678981
-1.8298748 0.38824302
00000000: 4a64 703f 344e fbbe f770 33bf 372e d13e
00000010: 978f 7f3b 7e89 153f c95e ac3e 2084 9abd
00000020: 9d61 87ba 9abc 8f3f d900 ea3e 6795 8b3b
00000030: 311e 023e 27de 063e 30ed 853c eede 10be
00000040: a658 263f c945 1ebf d0f9 9bbf 1886 2bbe
00000050: 364c 473e 760c bc3d 47dc 8f39 4c0d 61bf
00000060: 6405 8bbe 470b 95be a2eb 64bf 2901 5f3f
00000070: 2309 00bf c0f5 cd3e 0335 0d3d b0b1 31bb
00000080: 79d1 5ebd fb88 6d3f d06c 163f 69b7 70bf
00000090: 4c84 2abf c925 d5bd 95a0 e73e 16a8 b83d
000000a0: 6f79 e43f 4429 3ebf d26b 8dbf b120 c43e
000000b0: f256 69be 4735 33bf f860 19c0 aca6 3f3d
000000c0: 5639 eabf cac7 c63e

bachnorm1.weight f4 [50]
1.736798 0.43089768 1.7711059 0.4033492 0.40396908 1.0 1.3002751 -0.16703591
0.5102975 2.415243 1.0 1.0 0.8697101 -0.023632973 -0.17901365 0.97842556
0.76342934 1.2984394 2.4705544 0.80103326 0.5576254 0.83920896 0.47491267 1.866081
1.153295 0.69972533 2.828466 2.0589597 1.6115317 1.7347958 0.93025 1.0
-0.17278217 2.821333 1.0 1.2312065 2.4421015 0.4634377 1.5105965 1.3127527
3.1355035 2.017137 1.862361 0.5220235 0.7385686 1.5649344 4.3817196 1.4256387
3.9466054 1.1790638
00000000: 664f de3f 9f9e dc3e 99b3 e23f c983 ce3e
00000010: 09d5 ce3e 0000 803f 6a6f a63f 760b 2bbe
00000020: dba2 023f 5793 1a40 0000 803f 0000 803f
00000030: 52a5 5e3f f099 c1bc 5b4f 37be 197a 7a3f
00000040: 1b70 433f 4333 a63f 901d 1e40 8410 4d3f
00000050: 8ac0 0e3f 66d6 563f c127 f33e bedb ee3f
00000060: 2c9f 933f 3321 333f 9605 3540 ffc5 0340
00000070: ac46 ce3f ca0d de3f dd24 6e3f 0000 803f
00000080: cfed 30be b890 3440 0000 803f 2d98 9d3f
00000090: 644b 1c40 b547 ed3e 3a5b c13f 4808 a83f
000000a0: 17ac 4840 c618 0140 d861 ee3f 55a3 053f
000000b0: d512 3d3f c54f c83f 0c37 8c40 547b b63f
000000c0: 2f95 7c40 90eb 963f

bachnorm1.bias f4 [50]
-0.6062107 0.81856215 0.323937 -0.40154794 -0.0045396024 -0.5771771 -0.3035179 0.11625273
0.23268674 -0.49140456 -0.3384291 -0.012318439 -0.6503531 -0.31739786 -0.015766615 0.18482469
-0.77870876 0.585408 0.70219177 0.3829244 -0.10193831 -0.48200694 -0.6967521 0.4203348
0.47523457 0.34462968 1.1409731 -0.62147593 0.45697182 -0.63854903 -0.20182958 0.002115949
-0.010967802 -0.19532537 -0.58198094 0.97687715 -0.07829428 0.14689142 -0.34640604 0.07736508
-0.17665295 0.82892257 1.2414427 -0.7758653 0.22068845 0.4687389 -0.64641887 -0.450169
-0.23606022 -0.9769399
00000000: a030 1bbf 4a8d 513f 12db a53e b197 cdbe
00000010: f2c0 94bb e1c1 13bf b366 9bbe e915 ee3d
00000020: 6f45 6e3e 6199 fbbe 9446 adbe 47d3 49bc
00000030: 8a7d 26bf f981 a2be fd28 81bc af42 3d3e
00000040: 7559 47bf 4cdd 153f d7c2 333f ab0e c43e
00000050: 08c5 d0bd 9dc9 f6be 585e 32bf 1f36 d73e
00000060: f251 f33e 4d73 b03e 680b 923f 0c19 1fbf
00000070: 36f8 e93e f377 23bf 6aac 4ebe bcab 0a3b
00000080: 4cb2 33bc 6003 48be b4fc 14bf 9f14 7a3f
00000090: c058 a0bd b46a 163e 225c b1be 9571 9e3d
000000a0: 83e4 34be 4534 543f 98e7 9e3f 1c9f 46bf
000000b0: 27fc 613e 8cfe ef3e b57b 25bf 8d7c e6be
000000c0: c5b9 71be bc18 7abf

bachnorm_conv1.weight f4 [6]
1.4810096 1.3223315 0.4151348 2.3891466 1.2348957 -0.09589481
00000000: b991 bd3f 2942 a93f 8c8c d43e c7e7 1840
00000010: 1011 9e3f 8064 c4bd

bachnorm_conv1.bias f4 [6]
-1.7816808 0.5262272 2.0977826 -0.06932017 -1.193873 0.5092896
00000000: 1e0e e4bf d3b6 063f 1242 0640 bcf7 8dbd
00000010: d5d0 98bf ce60 023f

bachnorm_conv2.weight f4 [3]
1.8904291 1.150798 0.770274
00000000: 95f9 f13f 594d 933f ad30 453f

bachnorm_conv2.bias f4 [3]
3.1690705 -2.0570576 -2.7838554
00000000: 0dd2 4a40 d5a6 03c0 b02a 32c0
