best_model_becker.pt (torch, 298015 bytes, 13 tensors)

conv1.weight f4 [6, 2, 3]
0	0x3f0a7741	0.5408822
1	0xbf6e3334	-0.9304688
2	0xbf7ffce5	-0.9999526
3	0x3ebf8739	0.37407854
4	0x3deaa7d8	0.11457795
5	0x3ef51a1b	0.4787148
6	0xbba9d6cb	-0.005183076
7	0xbecb3fbc	-0.39697063
8	0xbf357865	-0.7088683
9	0xbd57d97c	-0.052697644
10	0x3e24eb39	0.16105355
11	0x3fa52803	1.2902836
12	0xbd57d071	-0.05268902
13	0xbf43a693	-0.7642605
14	0x3ec066df	0.37578484
15	0x3e6f8259	0.23389567
16	0x3ef0203c	0.46899593
17	0x3f778570	0.96687984
18	0x3e93c3ab	0.2886022
19	0xbf43ece8	-0.76533365
20	0xbda92db3	-0.082606696
21	0xbefdfc75	-0.49606672
22	0x3e857e80	0.26073074
23	0xbd738d48	-0.05946091
24	0xbe74cf52	-0.23907211
25	0xbdb664fa	-0.089059785
26	0x3e9cfba1	0.30660728
27	0xbe9fae01	-0.31187442
28	0xbf4f6117	-0.8100752
29	0x3f2ce9ce	0.6754426
30	0xbf00c460	-0.50299644
31	0xbcfeec9d	-0.031118685
32	0x3f3c4a08	0.7355046
33	0xbf746573	-0.954673
34	0x3f0b1571	0.5432959
35	0x3ec5345b	0.38516507

conv1.bias f4 [6]
0	0xbe39a773	-0.18130283
1	0x3d0d4780	0.034492016
2	0xbe45b6f8	-0.19308078
3	0xbfb06865	-1.3781859
4	0x3d65e1ef	0.05612367
5	0x3e0d4ad2	0.13798073

conv2.weight f4 [3, 6, 3]
0	0xbe8f4147	-0.2797949
1	0xbea11512	-0.31461388
2	0xbf1574bf	-0.58381265
3	0xbfaea679	-1.3644553
4	0xbfc5102f	-1.5395564
5	0xbfbc8e2d	-1.4730889
6	0xbf4e60ea	-0.8061663
7	0xbf7f7c33	-0.9979889
8	0xbf8766cd	-1.0578247
9	0xbe5e6434	-0.21717912
10	0x3eadcc47	0.33944914
11	0x3e204ef5	0.1565512
12	0xbe974e9f	-0.2955217
13	0xbeac5228	-0.3365643
14	0xbd8c86dc	-0.0686166
15	0xbe989391	-0.29800084
16	0xbf208e33	-0.6271698
17	0xbe56c592	-0.20973805
18	0x3f26cbee	0.6515492
19	0x3e998eea	0.29991847
20	0x3f3bb46b	0.7332217
21	0x3e393e94	0.18090278
22	0xbe1d043b	-0.15333645
23	0xbe3884d5	-0.18019421
24	0x3d5f6a09	0.054544482
25	0x3c48c918	0.012254976
26	0x3e67ed76	0.22649178
27	0xbf095fbc	-0.53661704
28	0xbe63c354	-0.2224248
29	0x3f055761	0.52086455
30	0xbd46a4e2	-0.04849709
31	0xbf5ed3db	-0.87042016
32	0xbf1daac0	-0.6158867
33	0xbe75ea79	-0.24015225
34	0xbe2466d7	-0.16054855
35	0xbe92bf3f	-0.28661534
36	0xbf88941c	-1.0670199
37	0xbf3974a3	-0.724436
38	0xbf3a2914	-0.7271893
39	0xbf81924e	-1.0122774
40	0xbf948d4e	-1.1605623
41	0xbf93fd2f	-1.156164
42	0xbf3aa225	-0.7290366
43	0xbf1f8184	-0.62307
44	0xbf246990	-0.64223576
45	0xbcab2e2f	-0.020896045
46	0xbad94d16	-0.001657876
47	0xbdb470e1	-0.088105924
48	0x3f4819d7	0.7816443
49	0x3f0db4ca	0.5535399
50	0xbed69e83	-0.4191781
51	0x3db64b5c	0.089010924
52	0xbe3a55de	-0.18196818
53	0xbf35c6ed	-0.7100666

conv2.bias f4 [3]
0	0x3f53f78e	0.82799613
1	0x3f66bda3	0.9013311
2	0xbe6ff916	-0.23434862

dense1.weight f4 [50, 1460]
0	0x3eac23df	0.33621117
1	0x3eaef67c	0.34172428
2	0x3e9a15c9	0.30094746
3	0x3ea8eef6	0.32994813
4	0x3e9048d4	0.28180563
5	0x3ea24d90	0.316998
6	0x3e9d8b95	0.30770555
7	0x3e8cec5e	0.27524084
8	0xbe88edda	-0.26743966
9	0x3ea02685	0.31279388
10	0x3e9e2427	0.30886957
11	0x3e945583	0.2897149
12	0x3ea1e7d9	0.31622198
13	0x3e953e20	0.2914896
14	0x3e973fd4	0.29540884
15	0x3e9d76d8	0.30754733
16	0xbe9b1d6a	-0.3029588
17	0xbe90a77f	-0.2825279
18	0x3eb12b0b	0.34603152
19	0x3ebf7889	0.3739665
20	0x3dfa0f68	0.1220997
21	0xbe8722ac	-0.2639364
22	0xbe85a2f3	-0.26100883
23	0xbe86793f	-0.26264378
24	0x3e8fcf69	0.2808793
25	0x3e9ed1fd	0.31019583
26	0xbe7e63f1	-0.24842812
27	0xbe901ff8	-0.2814939
28	0xbe89e498	-0.26932216
29	0x3e9dbf70	0.30810118
30	0x3e9f02f1	0.31056932
31	0xbe8aa4d6	-0.27078885
32	0xbea3c75f	-0.31988046
33	0x3e909163	0.2823592
34	0x3ea00b58	0.31258655
35	0x3ea136e9	0.31487206
36	0xbe96015a	-0.29297906
37	0xbe182b0b	-0.1486017
38	0xbebf4935	-0.3736054
39	0x3e766889	0.24063314
40	0x3e972229	0.2951825
41	0x3e9379a6	0.28803748
42	0x3e77c140	0.24194813
43	0x3e8f0cfe	0.279396
44	0x3ea829de	0.32844442
45	0x3ea44fab	0.32092032
46	0x3eac3c64	0.33639824
47	0x3e9dd92c	0.30829751
48	0xbe814ba5	-0.25253025
49	0xbeb9b02d	-0.36267224
50	0x3eb83048	0.35974336
51	0xbea95542	-0.3307286
52	0x3e9030d5	0.28162256
53	0x3e98a42e	0.2981276
54	0x3e373ae2	0.17893556
55	0xbea8517c	-0.32874668
56	0x3e376ba5	0.17912157
57	0x3e9c5494	0.30533278
58	0xbe97d1db	-0.29652295
59	0xbee207c3	-0.44146547
60	0xbe9f5d87	-0.31126043
61	0x3e80e741	0.25176433
62	0x3e434db0	0.19072604
63	0xbe976377	-0.29568073
64	0xbe9863a7	-0.2976353
65	0x3ea95524	0.3307277
66	0x3ea09f0c	0.31371343
67	0x3ea08039	0.31347826
68	0x3e9296da	0.28630716
69	0x3ea261e5	0.31715313
70	0xbe6ad66e	-0.22933361
71	0xbeb8034a	-0.3594001
72	0x3e926ad4	0.28597128
73	0x3e949efe	0.2902755
74	0xbe703542	-0.23457816
75	0x3e92be5b	0.28660855
76	0x3e9b1477	0.3028905
77	0x3e83df75	0.25756422
78	0x3e915da8	0.28391767
79	0x3e91becf	0.28465888
80	0x3e82ecf8	0.25571418
81	0x3e941763	0.28924093
82	0x3e9b94af	0.30386874
83	0x3ea4c3b2	0.32180554
84	0xbee6ec42	-0.45102125
85	0xbe9e740b	-0.3094791
86	0xbe70d038	-0.23516929
87	0x3e331416	0.17488131
88	0x3ead117b	0.338024
89	0x3eb32d5c	0.34995544
90	0x3ea881df	0.32911584
91	0x3eaf3a20	0.34224033
92	0xbe1a9314	-0.15095168
93	0x3eca5b15	0.39522615
94	0x3e9e1278	0.30873466
95	0x3eb99456	0.36245984
96	0xbe8a5ee1	-0.27025512
97	0xbe0a2edf	-0.13494442
98	0x3eaa8aa2	0.33308893
99	0x3ea6ebef	0.32601878
100	0x3ea3b2ae	0.3197226
101	0x3eb91a45	0.36152855
102	0x3ea39c3b	0.31955132
103	0x3ec1e449	0.3786948
104	0x3f2702b7	0.6523852
105	0x3ea88648	0.32914948
106	0x3edb36a5	0.42815128
107	0x3f1e0d3b	0.6173894
108	0xbe481204	-0.19538122
109	0x3e96a7f0	0.29425
110	0x3ee8da86	0.4547922
111	0x3ea6a279	0.32545832
112	0x3e9d0482	0.30667502
113	0x3eae4cca	0.3404296
114	0x3eb0e3f9	0.3454893
115	0x3ec9057f	0.39262006
116	0x3ea86aff	0.32894132
117	0x3ebfd206	0.37464923
118	0x3ea2303b	0.31677422
119	0x3e1fc0f6	0.15600953
120	0x3eadbe8c	0.33934438
121	0x3e4cb9dc	0.19992775
122	0x3ead65fe	0.33866876
123	0x3e93aa7d	0.2884101
124	0x3e5adebb	0.21374027
125	0xbed59ea7	-0.41722605
126	0x3e8f719f	0.28016374
127	0xbe1970b5	-0.149844
128	0x3e813ca0	0.25241566
129	0xbeb0512d	-0.34436932
130	0xbe9e3be1	-0.3090506
131	0xbe9e6535	-0.3093659
132	0x3e934350	0.28762293
133	0x3e97f994	0.296826
134	0x3e9c977f	0.30584332
135	0xbe854cc0	-0.26035118
136	0xbe9ac328	-0.30227017
137	0xbe9e89cd	-0.3096451
138	0xbe5ce112	-0.21570233
139	0xbe9bf572	-0.30460697
140	0x3e9d9c45	0.30783287
141	0x3e9309a4	0.28718293
142	0x3e75bff9	0.23999013
143	0xbea97457	-0.33096573
144	0xbeb7a5cc	-0.3586868
145	0xbe941625	-0.28923145
146	0x3e607b4a	0.21922031
147	0x3e9eec11	0.3103948
148	0xbeded447	-0.4352133
149	0xbe92a5f8	-0.2864225
150	0xbeba2581	-0.36356738
151	0x3e01536b	0.12629478
152	0xbea2ce9e	-0.3179826
153	0xbea85f78	-0.32885337
154	0xbeb2ec25	-0.3494579
155	0xbe8e2b1e	-0.2776727
156	0xbe97c5d3	-0.29643115
157	0xbe8859c8	-0.26630998
158	0xbe9f57ee	-0.31121773
159	0xbe9fe617	-0.31230232
160	0xbe96f09e	-0.2948045
161	0xbecccc8d	-0.3999981
162	0xbea33144	-0.31873524
163	0xbe9dc4ec	-0.30814302
164	0xbec2a583	-0.380169
165	0xbe97460b	-0.29545626
166	0xbeb65d07	-0.3561785
167	0xbeb2da25	-0.34932056
168	0xbe6989a3	-0.2280641
169	0xbecb17d2	-0.3966661
170	0xbecdba40	-0.4018116
171	0xbefbbada	-0.49165994
172	0xbec249ab	-0.3794683
173	0xbedf99e8	-0.4367211
174	0xbebc8246	-0.3681814
175	0xbed99ff4	-0.42504847
176	0xbeb77c62	-0.35837084
177	0xbed76b25	-0.42073932
178	0xbf0d2cd5	-0.55146533
179	0xbf11e6df	-0.56992906
180	0xbed73db7	-0.42039272
181	0xbf06227a	-0.5239636
182	0xbecc4230	-0.39894247
183	0xbea97560	-0.33097363
184	0xbed01024	-0.40637314
185	0xbee9c2e8	-0.45656514
186	0xbed3ba6f	-0.41353175
187	0xbed914bf	-0.4239864
188	0xbf2326b2	-0.6373092
189	0x3e1ef896	0.15524516
190	0xbf8e01a1	-1.1094247
191	0xbed6bc40	-0.41940498
192	0xbf144164	-0.5791228
193	0xbee8ab32	-0.45443112
194	0xbecfdd28	-0.40598416
195	0xbeb9345a	-0.36172754
196	0x3dcbd813	0.09953322
197	0xbea5b805	-0.32366958
198	0xbea04802	-0.31304938
199	0xbea667ad	-0.32500973
200	0xbe904fa0	-0.2818575
201	0xbeadeb70	-0.33968687
202	0xbe956235	-0.2917649
203	0xbe9db42e	-0.3080153
204	0xbe89ce53	-0.26915225
205	0xbe6ebf21	-0.23315097
206	0xbe9fde86	-0.3122446
207	0xbe9d3d9b	-0.30711064
208	0xbe9ef1da	-0.31043893
209	0xbe9b5e81	-0.30345538
210	0xbe8a24e9	-0.26981285
211	0xbe861dff	-0.2619476
212	0xbe873d92	-0.26414162
213	0xbe82d3e0	-0.25552273
214	0xbe3c1fbd	-0.18371482
215	0xbe94c054	-0.29052985
216	0xbe15a7d3	-0.14614801
217	0xbe8f50f1	-0.2799144
218	0xbe9ea713	-0.30986843
219	0xbe8c60ef	-0.27417704
220	0xbe949197	-0.29017326
221	0xbe270ebe	-0.16314217
222	0xbe0fc763	-0.14040904
223	0xbe47d448	-0.19514573
224	0x3eaac2e9	0.3335183
225	0xbe87f91b	-0.2655724
226	0xbe900059	-0.28125265
227	0xbe91a800	-0.28448486
228	0xbe52262e	-0.20522377
229	0x3e9ab1a3	0.3021365
230	0xbe98dd36	-0.2985627
231	0xbded5d3a	-0.11590047
232	0xbe74cd76	-0.23906502
233	0xbe8f3792	-0.27972084
234	0xbe8b8f95	-0.27257982
235	0xbea066b8	-0.31328368
236	0xbe9f9614	-0.31169188
237	0xbe95954c	-0.29215467
238	0xbe7bbe1e	-0.24584243
239	0xbe991132	-0.2989593
240	0xbe995a45	-0.29951683
241	0x3e94e670	0.2908206
242	0x3e959ed2	0.29222733
243	0xbe89afc0	-0.268919
244	0xbea16630	-0.31523275
245	0xbe97f6f8	-0.2968061
246	0xbe8b6e41	-0.27232555
247	0xbe8ba30f	-0.2727284
248	0xbe9c4093	-0.30518016
249	0xbe8feb07	-0.28109
250	0xbe8ec444	-0.27884114
251	0xbe9366d8	-0.287894
252	0xbe893d46	-0.2680456
253	0xbe8bd84c	-0.2731346
254	0xbe8d3a5a	-0.2758358
255	0xbea40986	-0.32038516

dense1.bias f4 [50]
0	0x3ea7b31c	0.32753837
1	0xbd1ba0e7	-0.037995245
2	0xbccbf469	-0.024896817
3	0xbf03ccef	-0.5148458
4	0x3e95b953	0.29242954
5	0x3f48fc2c	0.78509784
6	0xbf5386f6	-0.8262781
7	0xbec1ed60	-0.37876415
8	0x3ecb622e	0.39723343
9	0xbed6b5ce	-0.4193558
10	0xbe015fbc	-0.12634176
11	0x3ea57ea6	0.32323188
12	0xbe263021	-0.16229297
13	0xbe90f77d	-0.2831382
14	0x3e8e5b47	0.27804014
15	0x3ef105ab	0.47074637
16	0xbd661563	-0.05617274
17	0x3e908101	0.28223422
18	0x3eadd417	0.33950874
19	0x3ea16d68	0.31528783
20	0xbd9e0325	-0.077154435
21	0xbf1e2c76	-0.6178659
22	0x3ee3d900	0.44501495
23	0xbe8cfed0	-0.27538157
24	0x3e82f065	0.2557403
25	0x3d12737b	0.035754662
26	0x3e84ab28	0.25911832
27	0xbecff87d	-0.4061927
28	0x3db88449	0.090096064
29	0xbeb893a2	-0.36050135
30	0xbf04b539	-0.51839024
31	0xbea41134	-0.32044375
32	0x3e9eca54	0.3101374
33	0x3c47a510	0.01218535
34	0x3e52544d	0.2053997
35	0x3e6eca3f	0.23319338
36	0xbe9af467	-0.3026459
37	0x3ede00e9	0.4336007
38	0xbc1a5335	-0.009419252
39	0xbe9dd670	-0.30827665
40	0xbf41efbd	-0.75756437
41	0x3eb01bf2	0.3439632
42	0xbeba6af7	-0.36409733
43	0x3ea4a9c5	0.32160774
44	0xbe986242	-0.29762465
45	0xbe700992	-0.23441151
46	0x3e14a11e	0.14514586
47	0xbf6e64af	-0.9312238
48	0x3dae0c94	0.08498493
49	0x3e4268d2	0.18985298

dense2.weight f4 [1, 50]
0	0x3e1b77f9	0.15182485
1	0xbc86a396	-0.016435426
2	0xbedf9ceb	-0.43674406
3	0xbfc9b61e	-1.5758703
4	0x3cf6de0a	0.030135173
5	0x3cc65d70	0.024214476
6	0xc04920ea	-3.142634
7	0xbbbaec40	-0.0057044327
8	0x3c85f128	0.016350344
9	0xbdb8bbb8	-0.090201795
10	0x406bf367	3.686731
11	0xbc549073	-0.0129738925
12	0xbf0d6591	-0.55233103
13	0x3b906f02	0.0044077644
14	0xbd3b7b6f	-0.045772012
15	0x3d279733	0.04091568
16	0xbd62bbc1	-0.055354837
17	0x3cd4ea87	0.025990738
18	0xbd4e1cc5	-0.050320406
19	0x3d5ea708	0.054358512
20	0xbea9ee25	-0.33189502
21	0x3fa95644	1.3229451
22	0xbcd197f6	-0.025585156
23	0x3ade18c1	0.0016944633
24	0x3be91ebe	0.0071142605
25	0xbd4a9f27	-0.049468186
26	0x3ceac6b3	0.0286592
27	0xbd0a5587	-0.03377297
28	0x3db72a91	0.08943666
29	0x3fcdfc65	1.609265
30	0xbe97e97e	-0.29670328
31	0x3e3ac1e1	0.18238021
32	0x3d208c36	0.039196216
33	0xbb5c0a65	-0.0033575532
34	0xbe586761	-0.21133186
35	0x3d19f4c5	0.037586946
36	0xbd0ab318	-0.033862203
37	0x3d6a2071	0.057159845
38	0x3bfc29d5	0.0076954165
39	0xbf25b8b3	-0.64734954
40	0xc0685794	-3.6303453
41	0x3ce0e221	0.027451577
42	0xbfe3d21c	-1.7798495
43	0x3cb8705f	0.02251452
44	0xbfaa2d18	-1.3295012
45	0x3b4b3414	0.0031006383
46	0xbeb892f8	-0.36049628
47	0x3fbae9cf	1.4602603
48	0xbb216d6f	-0.0024631878
49	0x3da36dbf	0.07979917

bachnorm1.weight f4 [50]
0	0x3e0864c7	0.13319694
1	0x3ea57519	0.323159
2	0x3f98bee9	1.1933261
3	0x402b0717	2.6723077
4	0x3e358c6d	0.1772935
5	0x3f11734a	0.5681654
6	0x40bd4d61	5.9156957
7	0x3ed1d091	0.40979436
8	0x3eb420f7	0.351814
9	0x3f91820b	1.1367811
10	0x40ad0d37	5.407863
11	0xbd47f071	-0.048813287
12	0x3fbc4261	1.4707757
13	0x3ea24f67	0.31701204
14	0x3ec1ec80	0.37875748
15	0x3ec12565	0.37723842
16	0x3f45bd0d	0.77241594
17	0x3e520763	0.2051063
18	0x3eea3514	0.4574362
19	0x3eace014	0.33764708
20	0x3f845994	1.0339837
21	0x401b46de	2.4262004
22	0x3ed7d63e	0.4215564
23	0x3f0901ca	0.53518355
24	0x3ea02593	0.31278667
25	0x3eaaf284	0.3338815
26	0x3eb34c4e	0.35019153
27	0x3f19777e	0.59947956
28	0xbe842da2	-0.25816065
29	0x402fd3b7	2.747297
30	0x3f7d3966	0.9891571
31	0x3ec918aa	0.3927663
32	0x3eaeaa1d	0.3411416
33	0x3f3e516f	0.7434301
34	0x3f705cc1	0.9389153
35	0x3ec7134b	0.38881907
36	0x3f3ccb2a	0.73747504
37	0x3f0a0ddc	0.539274
38	0x3f0c6784	0.5484545
39	0x4012fa29	2.2965186
40	0x40b15aac	5.5423183
41	0x3ebd3079	0.36951044
42	0x4077417d	3.863372
43	0xbe123bcc	-0.14280623
44	0x4029b82e	2.6518664
45	0x3f4ed332	0.8079101
46	0x3f7ed4bc	0.99543357
47	0x401f29bf	2.486923
48	0x3e97c815	0.29644838
49	0x3ea42a1c	0.32063377

bachnorm1.bias f4 [50]
0	0xbca79404	-0.020456322
1	0x3d6c908b	0.057755034
2	0xbce06c51	-0.0273954
3	0xbd5a1288	-0.05324033
4	0x3d115585	0.03548195
5	0xbe981410	-0.29702806
6	0xbaf04b3d	-0.001833297
7	0x3d18df29	0.037322197
8	0xbe649dfd	-0.22325893
9	0x3d22fd23	0.03979219
10	0x3a21c7ab	0.00061714154
11	0xbe483acc	-0.19553679
12	0x3d9ffdb0	0.07812059
13	0x3da9e750	0.082960725
14	0x3e19a22a	0.15003267
15	0xbe3fe8b3	-0.18741111
16	0x3e84d6a7	0.25945017
17	0xbdc21da1	-0.094783075
18	0x3dd37e5d	0.10326836
19	0xbdfaf19d	-0.12253115
20	0xbd857e8e	-0.06518279
21	0x3bf2af76	0.0074061705
22	0xbe58c67d	-0.21169467
23	0x3e29677b	0.16543381
24	0xbe1de53c	-0.15419477
25	0xbe0d5f70	-0.13805938
26	0x3ea8e9b0	0.3299079
27	0x3cb96831	0.02263269
28	0x3d1424e6	0.036168
29	0x3b95f180	0.004575908
30	0xbce081b2	-0.027405594
31	0x3ae649e0	0.0017569624
32	0xbdb14766	-0.08656196
33	0x3ca1a53f	0.019732116
34	0xbd9e8925	-0.07741002
35	0xbdb63e64	-0.08898619
36	0x3d2d49fe	0.042306893
37	0xbe2d400e	-0.16918966
38	0x3d92ec6f	0.071740024
39	0xbc8d35ec	-0.017237626
40	0xbadc2e63	-0.0016798492
41	0x3c6a9028	0.014316596
42	0xbb8f6e7d	-0.004377185
43	0xbd64001f	-0.055664178
44	0xbb01a648	-0.001978295
45	0x3e4ffe09	0.2031175
46	0xbd8ed50e	-0.06974231
47	0x3bd6e977	0.006558593
48	0x3e8a1c5a	0.26974756
49	0xbd1dcc0c	-0.038524672

bachnorm_conv1.weight f4 [6]
0	0x3ff509e3	1.9143642
1	0x402be2fb	2.6857288
2	0x3ffe3cbb	1.9862283
3	0x3e86a830	0.26300192
4	0x3e736919	0.2377056
5	0x3f673321	0.9031239

bachnorm_conv1.bias f4 [6]
0	0x3d1f08ea	0.03882686
1	0xbeba52f0	-0.363914
2	0xbe54ad7a	-0.20769301
3	0x3db682d0	0.08911669
4	0xbea21664	-0.31657708
5	0xbca15e6a	-0.01969834

bachnorm_conv2.weight f4 [3]
0	0x3f883313	1.0640587
1	0x3ef84f49	0.4849799
2	0x3faec5a2	1.3654063

bachnorm_conv2.bias f4 [3]
0	0xbc5036bc	-0.012708362
1	0x3ee416da	0.44548684
2	0x3ef8f8f9	0.4862745
