best_model_becker.pt (torch, 64031 bytes, 13 tensors)

conv1.weight f4 [6, 2, 3]
0	0xbf30fb5e	-0.69133556
1	0xbe10c26f	-0.1413667
2	0xbe2851ae	-0.16437408
3	0xbe5b6727	-0.21426068
4	0xbf067c27	-0.5253319
5	0xbf20f95b	-0.62880486
6	0x3eaa580a	0.33270293
7	0x3ed68d07	0.4190447
8	0x3f5475da	0.8299233
9	0x3f05e54f	0.5230302
10	0x3f12976d	0.5726231
11	0x3ebeb878	0.37250113
12	0xbf817ae5	-1.011563
13	0x3f605d90	0.87642765
14	0x3f8347fb	1.0256342
15	0x3f1ae778	0.60509443
16	0x3f970d43	1.1800922
17	0x3e1618ce	0.146579
18	0x3e727bb0	0.23679996
19	0x3efbf0fe	0.492073
20	0x3db11069	0.08645708
21	0xbf7298b0	-0.9476423
22	0xbf853ede	-1.040981
23	0xbfc42b42	-1.5325701
24	0x3d7dea3b	0.061990958
25	0x3d122b9d	0.035686124
26	0xbe755a9c	-0.23960346
27	0xbf526ee7	-0.82200474
28	0xbf6f3b94	-0.93450284
29	0x3f2cb411	0.6746226
30	0x3f206f03	0.6266939
31	0xbfbc20cf	-1.4697512
32	0xbf7d98da	-0.9906136
33	0xbe35f40c	-0.17768878
34	0x3eb8e59b	0.36112675
35	0x3e9270fc	0.28601825

conv1.bias f4 [6]
0	0xbe704415	-0.23463471
1	0xbd3b9605	-0.045797367
2	0x3eaa0607	0.33207723
3	0xbfe5f8ac	-1.7966514
4	0xbfdba9c4	-1.7161183
5	0xbf28e37f	-0.6597213

conv2.weight f4 [3, 6, 3]
0	0xbf19916a	-0.5998751
1	0xbea3375f	-0.31878182
2	0xbdf0ad5c	-0.11751816
3	0xbb95e178	-0.004573997
4	0x3e79af4c	0.24383277
5	0x3ea99bc2	0.33126646
6	0xbfd65818	-1.6745634
7	0xbfa1afd3	-1.2631782
8	0xbf926a4d	-1.143869
9	0xbeb178fb	-0.34662613
10	0xbe3c1850	-0.1836865
11	0xbe1bb86d	-0.15207072
12	0x3e75372b	0.23946826
13	0x3f3e86a0	0.7442417
14	0x3e8f8f83	0.28039178
15	0xbeccd4d5	-0.40006128
16	0x3e8e7b04	0.27828228
17	0x3f1a9d39	0.6039615
18	0xbe2c275a	-0.16811886
19	0xbdcca4e3	-0.09992387
20	0xbdb94b89	-0.0904761
21	0xbc80af62	-0.015708629
22	0xbea4d841	-0.3219624
23	0xbe751225	-0.23932703
24	0xbed05c87	-0.40695593
25	0xbe8490b9	-0.25891665
26	0xbeb0eea4	-0.34557068
27	0x3f433d02	0.76264966
28	0x3f0d5ac9	0.5521665
29	0xbe9d4c05	-0.3072206
30	0xbebdfb4c	-0.37105787
31	0xbe27ae0a	-0.16374984
32	0xbe4cb13e	-0.19989488
33	0x3e8ea922	0.27863413
34	0x3ea002fc	0.31252277
35	0x3e01540c	0.12629718
36	0xbf34a721	-0.7056752
37	0xbe921a05	-0.28535476
38	0xbf2601c1	-0.64846426
39	0xbf0ddb09	-0.55412346
40	0xbf0cbcf3	-0.54975814
41	0xbf246929	-0.6422296
42	0xbf290d65	-0.66036063
43	0xbebf0a9d	-0.37312785
44	0xbecee4fb	-0.40409073
45	0x3d6f90e6	0.058487795
46	0x3e9bc35c	0.30422485
47	0xbf349f4f	-0.70555586
48	0xbe6d3146	-0.23163328
49	0x3d1b3f57	0.037902202
50	0xbe1f0b74	-0.15531713
51	0xbe7a87f3	-0.24465923
52	0xbf161902	-0.5863191
53	0xbee24c2b	-0.44198737

conv2.bias f4 [3]
0	0xbfc03bcf	-1.5018252
1	0xbe88a238	-0.26686263
2	0x3d7bebe4	0.06150426

dense1.weight f4 [50, 290]
0	0xbfa27d7f	-1.2694548
1	0x3f708789	0.9395681
2	0x3ff369c3	1.9016651
3	0xbed4f276	-0.41591233
4	0xbfe7d523	-1.8111919
5	0xbbd8bf01	-0.0066145663
6	0x3fe31d5b	1.7743334
7	0x3fbc7c5b	1.472545
8	0xc00c74c7	-2.1946275
9	0x3fb0ebac	1.3821921
10	0x3f801a3c	1.0008006
11	0x3f22d459	0.63605267
12	0x3f0fef66	0.5622467
13	0xbfbd5f59	-1.4794723
14	0xbe971600	-0.29508972
15	0x3f11a5a0	0.5689335
16	0xbf21b56e	-0.63167465
17	0xbf0cb98b	-0.54970616
18	0xbdc64a0c	-0.09682092
19	0x3f1cacaf	0.61200994
20	0x3e3b361f	0.18282364
21	0x3f445e77	0.7670664
22	0xbe8d72aa	-0.27626544
23	0xbf6560e7	-0.89600986
24	0x3f5e3112	0.86793625
25	0xbdde2dab	-0.10848554
26	0x3eb9fb00	0.3632431
27	0x3f7be113	0.9839031
28	0x3e63d86d	0.22250529
29	0xbf7db339	-0.991016
30	0xbf5e58cd	-0.8685425
31	0xbeebff69	-0.460933
32	0xbec55a6d	-0.38545552
33	0xbe03dac1	-0.12876417
34	0x3ed4dacc	0.4157318
35	0x3f86f93f	1.0544814
36	0x3f0785b4	0.5293839
37	0x3f86fd24	1.0546002
38	0x3db0f87c	0.08641145
39	0x3ed6ee5a	0.41978723
40	0x3f1c4cf3	0.61054915
41	0xbf00e625	-0.5035117
42	0xbefe9cd0	-0.49729013
43	0x3f8dedc5	1.1088187
44	0xbe6cc7b9	-0.23123063
45	0x3f8d135b	1.1021532
46	0x3f13ce4b	0.57736653
47	0x3f95bb24	1.1697736
48	0x3e2b426c	0.16724557
49	0x3ee13ae8	0.43990254
50	0xbf26fc83	-0.6522905
51	0x3f4e0d6b	0.80489224
52	0x3f3382da	0.7012154
53	0x3e7bfa83	0.24607281
54	0x3eb784e5	0.35843578
55	0x3e56270e	0.20913336
56	0x3f738637	0.9512667
57	0x3f393647	0.72348446
58	0x3f5e2b02	0.86784375
59	0xbf41f735	-0.75767833
60	0x3e721542	0.23640922
61	0x3ec27895	0.37982622
62	0x3efdf25f	0.49598977
63	0x3f0d22a1	0.55130965
64	0xbf430b25	-0.7618888
65	0x3d8c8f39	0.06863255
66	0xbcf46e3c	-0.02983772
67	0x3e9f7845	0.31146446
68	0xbf255319	-0.6457992
69	0xbdaea0ee	-0.08526789
70	0x3ea5f369	0.3241227
71	0x3e8d4658	0.2759273
72	0xbed28a67	-0.41121218
73	0xbee98269	-0.45607308
74	0x3eba9bcb	0.36446986
75	0x3fb188d7	1.3869885
76	0xbf10103d	-0.5627478
77	0x3f49d5ed	0.7884205
78	0x3f702522	0.9380666
79	0x3f57948c	0.8421104
80	0xbfb93cc1	-1.4471666
81	0x3f13b4e4	0.5769789
82	0x3e6b42d2	0.22974709
83	0xbe0b4e7a	-0.13604155
84	0x3f2c4c81	0.67304236
85	0xbe9a8541	-0.3017979
86	0xbe43b70d	-0.19112797
87	0x3e6d7008	0.23187268
88	0x3f5698ea	0.8382708
89	0xbe89178f	-0.26775786
90	0x3dcb2839	0.09919781
91	0xbee1a434	-0.4407059
92	0xbd635054	-0.05549653
93	0xbeb5c45c	-0.35501373
94	0x3e56ab4f	0.20963787
95	0x3f299b33	0.6625244
96	0x3f2cee5c	0.6755121
97	0x3ef642fd	0.48097983
98	0x3e8014a2	0.25015742
99	0x3e99d236	0.3004319
100	0x3f381e94	0.7192166
101	0x3f5ae74d	0.85509187
102	0x3f47f15a	0.7810265
103	0x3f2bb46d	0.6707218
104	0x3fa5b589	1.2946025
105	0x3fbf1083	1.4926914
106	0x3d3ef1ee	0.04661744
107	0x3f0cbbd9	0.5497413
108	0x3f9b3375	1.2125078
109	0x3fb40846	1.4065025
110	0x3fb2ba5f	1.3963126
111	0x3e82d2e1	0.25551513
112	0x3f056c69	0.52118546
113	0x3ed96150	0.42457056
114	0x3f007773	0.50182265
115	0x3f1556b2	0.5833541
116	0x3f01ec66	0.5075134
117	0x3eeeb385	0.46621338
118	0x3e9849aa	0.297437
119	0x3ecec611	0.40385488
120	0x3f1d3343	0.61406344
121	0x3ed05684	0.40691006
122	0x3ee269a9	0.44221237
123	0x3efe3786	0.49651736
124	0x3f0c24b7	0.5474352
125	0x3f033ea6	0.5126747
126	0x3f09d403	0.5383913
127	0x3f302909	0.68812615
128	0x3efac0a8	0.4897511
129	0x3e537077	0.2064837
130	0x3d8689cb	0.06569251
131	0x3e3732c4	0.1789046
132	0x3eff46eb	0.49858794
133	0x3df32f95	0.1187431
134	0x3ed698df	0.41913506
135	0x3eea3453	0.45743045
136	0x3f146144	0.57960916
137	0x3f4573d1	0.77129847
138	0x3f0594b3	0.5218002
139	0x3f406239	0.75149876
140	0x3f96fd5f	1.1796073
141	0x3ee7343c	0.4515704
142	0x3bababdb	0.0052389926
143	0x3e71df9e	0.2362046
144	0x3d1d794c	0.038445756
145	0xbde0901e	-0.10964988
146	0x3de38c40	0.11110735
147	0x3ef1e6fc	0.4724654
148	0xbd972516	-0.073801205
149	0x3e383bc9	0.17991556
150	0xbe1dfe57	-0.15429054
151	0xbeba2ebe	-0.36363786
152	0xbed90fb3	-0.4239479
153	0x3d8b5d66	0.06804924
154	0x3e7d9534	0.24763948
155	0x3ef41999	0.4767578
156	0x3d2d48d2	0.042305775
157	0xbf41979c	-0.7562196
158	0xbf098bf6	-0.5372919
159	0xbd902490	-0.07038224
160	0x3dfaf30a	0.12253387
161	0xbdad1112	-0.084505215
162	0x3dffcb40	0.12489939
163	0x3dbd9fb5	0.09258977
164	0xbd47fc42	-0.048824556
165	0xbe41d53d	-0.18929
166	0xbeae5d4c	-0.34055555
167	0x3f21caae	0.6319989
168	0x3ea27113	0.31726894
169	0x3eb91ae5	0.3615333
170	0x3f9d3756	1.2282512
171	0x3f414d5e	0.7550868
172	0x3e52f188	0.2059995
173	0x3f205024	0.62622285
174	0x3e24652d	0.1605422
175	0x3f75b1d7	0.9597449
176	0x3e5917a7	0.21200429
177	0x3e8e689a	0.2781418
178	0xbe2d231d	-0.16907926
179	0x3eea73c5	0.4579145
180	0x3e9ba3ce	0.3039841
181	0x3e658d47	0.22417174
182	0x3db1b573	0.08677187
183	0xbbc39791	-0.005968996
184	0xbe1dffb0	-0.15429568
185	0x3edf7024	0.43640244
186	0x3ed55cbb	0.4167231
187	0x3f042fb1	0.5163527
188	0x3ed6e017	0.41967842
189	0x3f561ee7	0.83640903
190	0x3f43ff82	0.7656175
191	0x3f92180b	1.1413587
192	0x3fa1977e	1.2624357
193	0x3f9780d6	1.1836193
194	0x3f8ee1c6	1.116265
195	0x3fbf10e8	1.4927034
196	0x3f0742ba	0.5283619
197	0x3d107c16	0.035274588
198	0xbdb08cdc	-0.08620617
199	0xbd347c03	-0.04406358
200	0x3c0606c0	0.00818032
201	0xbda4a30d	-0.08038912
202	0xbe090183	-0.13379483
203	0xbe208724	-0.15676552
204	0xbdd0dc78	-0.10198301
205	0xbe0ad537	-0.13557898
206	0xbe36c11e	-0.17847106
207	0xbe1bbda9	-0.15209068
208	0xbda471e4	-0.080295354
209	0xbd63ed3d	-0.05564617
210	0x3c7a6ea1	0.015285165
211	0x3f442544	0.7661936
212	0xbc4ecb7a	-0.012621755
213	0x3f86def4	1.053679
214	0x3f1ad62b	0.60483044
215	0xbd37282c	-0.044716045
216	0x3f99a803	1.2004398
217	0xbc6799b9	-0.014135771
218	0xbd7249cf	-0.05915242
219	0x3d9afd80	0.075678825
220	0xbd8f1866	-0.069870755
221	0xbc5c4bee	-0.013445837
222	0xbdac0089	-0.083985396
223	0xbbb7a039	-0.005603817
224	0x3dbac713	0.09120002
225	0x3f47dfcf	0.7807588
226	0x3e4888ee	0.19583485
227	0x3d915dd5	0.07097975
228	0xbd32a7d6	-0.043617092
229	0xbe0d5d64	-0.13805157
230	0xbe07e65d	-0.1327147
231	0xbe2cc179	-0.16870679
232	0x3e293988	0.16525853
233	0xbe4b3feb	-0.19848602
234	0xbe00daea	-0.12583509
235	0xbe166beb	-0.14689605
236	0xbdedc064	-0.11608961
237	0xbd2f9b2e	-0.0428726
238	0x3eae457a	0.3403738
239	0x3cd6b6a6	0.02621014
240	0x3eb6f487	0.35733435
241	0x3ea88396	0.32912892
242	0x3eb9601e	0.36206144
243	0x3f00736c	0.5017612
244	0x3f1e06fc	0.6172941
245	0x3f209cd1	0.6273928
246	0xbe344900	-0.17605972
247	0x3d451cd2	0.04812319
248	0xbec3396c	-0.38129747
249	0xbe72ecbc	-0.2372312
250	0xbd6bcc8e	-0.057568125
251	0xbe25f6e4	-0.16207463
252	0xbe323e11	-0.17406489
253	0xbe6fa49d	-0.23402639
254	0x3e650cea	0.22368208
255	0x3f10b2ec	0.56523013

dense1.bias f4 [50]
0	0x3e8c9a2f	0.27461383
1	0x3f167c44	0.58783364
2	0xbe73301d	-0.23748823
3	0x3df340ff	0.118776314
4	0xbedf4bed	-0.43612614
5	0xbee087e6	-0.43853682
6	0x3deee2a2	0.116643205
7	0xbef8d7c0	-0.48602104
8	0x3f222cc5	0.6334956
9	0x3ec61433	0.38687286
10	0x3f04a44a	0.51813185
11	0xbe94792e	-0.28998703
12	0x3ee950d6	0.45569485
13	0xbec1ec1f	-0.3787546
14	0x3eda6559	0.42655447
15	0x3f19ff7d	0.6015547
16	0xbe881033	-0.2657486
17	0x3efae839	0.49005297
18	0xbeb0e340	-0.34548378
19	0x3f13a351	0.57671076
20	0x3f0d94b9	0.5530506
21	0x3f3130c2	0.69215024
22	0xbe8dc803	-0.2769166
23	0x3e91b951	0.28461698
24	0xbe383b9d	-0.1799149
25	0x3e75124d	0.23932762
26	0xbecd836e	-0.40139335
27	0xbea0992e	-0.31366867
28	0x3eb76387	0.3581812
29	0x3e6dfb7e	0.23240468
30	0xbeb50d54	-0.3536173
31	0xbeaf713a	-0.34266073
32	0xbf3103f0	-0.69146633
33	0xbe4ca43d	-0.19984527
34	0xbe0daed6	-0.13836226
35	0xbea680bd	-0.32520095
36	0xbe7e4ff2	-0.24835184
37	0xbdf2532b	-0.11832269
38	0x3ef21e57	0.47288772
39	0x3f08bc65	0.5341247
40	0xbea98a9c	-0.33113563
41	0x3f11661d	0.5679644
42	0x3e837514	0.2567526
43	0x3e34718b	0.17621438
44	0x3f05716b	0.5212619
45	0x3dcd641f	0.10028862
46	0x3eba7756	0.3641917
47	0x3e923467	0.28555605
48	0xbe9996e2	-0.29997927
49	0xbe1dd38a	-0.15412727

dense2.weight f4 [1, 50]
0	0xbf2da570	-0.6783056
1	0x3f382767	0.71935123
2	0x3d862887	0.06550699
3	0xbf849efb	-1.0361017
4	0xbd925451	-0.07144988
5	0xbff56a7d	-1.9173123
6	0xbf2dfcab	-0.67963666
7	0x3d2b7fc5	0.041869897
8	0xbf0c9124	-0.54908967
9	0xbf56441f	-0.83697695
10	0x3f39a65e	0.7251948
11	0xbebc86a5	-0.36821476
12	0x3f473bca	0.77825606
13	0xbf112c84	-0.5670855
14	0x3f48026a	0.78128684
15	0x3f5383eb	0.82623166
16	0xbeb00475	-0.343784
17	0x3f5ebec4	0.87009835
18	0x3f07e90c	0.53089976
19	0x3f56c50b	0.83894414
20	0x3f2c2068	0.6723695
21	0x3eed513a	0.46351033
22	0xbf1b900e	-0.60766685
23	0xbf60f422	-0.8787252
24	0xbf964740	-1.1740494
25	0x3efc745c	0.49307525
26	0x3eb342e9	0.35011986
27	0x3d9f15df	0.077678435
28	0x3f561cc8	0.83637667
29	0xbf1b99c3	-0.60781497
30	0xbc325b5e	-0.010886041
31	0xbd7e338c	-0.062060878
32	0xbc5bbbcd	-0.013411474
33	0xbf308f1f	-0.68968385
34	0xbf8451ea	-1.0337498
35	0xbfc27de1	-1.5194665
36	0xbdb506b9	-0.08839173
37	0xbf81a3bc	-1.0128093
38	0xbf4d4443	-0.80182284
39	0x3f221f39	0.6332889
40	0x3e1915e4	0.14949757
41	0x3f63b413	0.88946646
42	0xbeb66f86	-0.3563196
43	0xbf23c9c4	-0.63979745
44	0x3f545fbe	0.8295859
45	0xbf3fe23a	-0.7495457
46	0x3f80cb64	1.006207
47	0x3f3b9e75	0.7328866
48	0xbe5dd71f	-0.21664093
49	0xbf44c35b	-0.7686059

bachnorm1.weight f4 [50]
0	0x3fdfacce	1.7474611
1	0x3fe41669	1.7819339
2	0x3f12cdc4	0.57345223
3	0x3ff95da2	1.94817
4	0x3f0c4e43	0.5480692
5	0x40886960	4.262863
6	0x3fcb1989	1.5867168
7	0x3f44d2fc	0.76884437
8	0x3fc5492a	1.5412953
9	0x3ffce2ac	1.9756675
10	0x3fdfbabb	1.7478861
11	0x3f3aa4c7	0.7290768
12	0x3fdd7b5d	1.7303272
13	0x403facd8	2.9949245
14	0x3fd7d484	1.686173
15	0x3fdde3da	1.733516
16	0x3ffad509	1.9596263
17	0x3fe27178	1.7690878
18	0xbf07e086	-0.5307697
19	0x3fe9575e	1.8229787
20	0x3feb47af	1.8381251
21	0x3fa57829	1.2927295
22	0x402c7c89	2.695101
23	0x3fce61fc	1.6123652
24	0x40127585	2.2884228
25	0x3fab6fbd	1.3393475
26	0x3f1a4069	0.6025453
27	0x3ebd2a67	0.36946413
28	0x3fe0ca0f	1.7561663
29	0x3fcee59f	1.6163825
30	0x3f31da1c	0.69473433
31	0x3fb848a9	1.4397174
32	0x3f739208	0.951447
33	0x4000d54c	2.0130186
34	0x4006d11a	2.1065125
35	0x403e0a6c	2.969386
36	0x3f31dc16	0.6947645
37	0x40188819	2.3833067
38	0x40011fff	2.017578
39	0x3fcb1790	1.5866566
40	0xbe28bcc2	-0.16478255
41	0x3fe63529	1.7984973
42	0x3fbaebb2	1.4603179
43	0x40139477	2.3059366
44	0x3ff4dcbe	1.9129865
45	0x3fe2e9b8	1.7727575
46	0x3ff5b0f0	1.9194622
47	0x3fd75750	1.6823521
48	0x3f2e73da	0.68145525
49	0x3fd64539	1.6739875

bachnorm1.bias f4 [50]
0	0x3ef4c54f	0.47806785
1	0xbf477528	-0.7791314
2	0x3e7f2340	0.2491579
3	0x3f2d28d7	0.6764044
4	0xbbf9faf6	-0.007628794
5	0x3ec6df44	0.38842213
6	0x3efd4ea2	0.49474055
7	0x3a1230df	0.00055767404
8	0x3f3dc204	0.7412417
9	0x3f1b93e1	0.6077252
10	0xbf1843d1	-0.5947848
11	0xbed22a5a	-0.41047937
12	0xbf182715	-0.59434634
13	0x3df6dea5	0.12054185
14	0xbf2de79d	-0.6793154
15	0xbf0b1e00	-0.5434265
16	0x3d1872a8	0.03721872
17	0xbf2c3e3e	-0.67282474
18	0x3f05ce79	0.5226818
19	0xbf244b04	-0.64176965
20	0xbe909022	-0.28234965
21	0xbf00e9ba	-0.5035664
22	0x3ed0464a	0.40678626
23	0x3f28e90e	0.65980613
24	0x3ebc3b6c	0.36764085
25	0xbecde5b8	-0.40214324
26	0x3e9ac7b4	0.30230486
27	0xbcd5d5fe	-0.026103016
28	0xbefeb9db	-0.4975117
29	0x3ea53ea9	0.32274368
30	0x3bf813bd	0.0075707124
31	0x3e9a4670	0.30131865
32	0x3c44f0c1	0.012020291
33	0xbecb4064	-0.39697564
34	0x3f181f00	0.594223
35	0x3ea9f3c5	0.33193794
36	0xbd89f265	-0.06735686
37	0x3e9d3a4b	0.30708537
38	0x3ec76e73	0.38951454
39	0xbed4bbee	-0.4154963
40	0x3e8d8526	0.27640647
41	0xbf187eb0	-0.5956831
42	0x3ebd0518	0.3691795
43	0x3ecb6a99	0.39729765
44	0xbeab6bff	-0.33480832
45	0x3f1b8d7a	0.6076275
46	0xbe1d8fd1	-0.15386893
47	0xbefd4f7c	-0.49474704
48	0xbe458795	-0.19290002
49	0x3f1cae0d	0.6120308

bachnorm_conv1.weight f4 [6]
0	0x3e9d28bd	0.30695143
1	0x3ea74ed0	0.32677317
2	0x3f17ffad	0.59374505
3	0x3f19bd5f	0.6005458
4	0x3f648604	0.8926699
5	0x3f6e3610	0.9305124

bachnorm_conv1.bias f4 [6]
0	0x3ecc2c80	0.398777
1	0xbe926c60	-0.2859831
2	0x3fe7d79b	1.8112673
3	0x3d4906ef	0.049078878
4	0xbfd26df9	-1.6439811
5	0xbf98a5c3	-1.1925586

bachnorm_conv2.weight f4 [3]
0	0x4072c8cb	3.7935054
1	0x3b183b91	0.0023228864
2	0x3c53b781	0.012922169

bachnorm_conv2.bias f4 [3]
0	0x3e258677	0.16164576
1	0x3ecc8ba0	0.39950275
2	0x3e7924b7	0.24330412
