best_model_becker.pt (torch, 7135 bytes, 5 tensors)

dense1.weight f4 [50, 20]
000000 80 6d db ba e9 c0 c8 bd 42 32 09 3d 0c 99 c3 be
       -0.0016741008 -0.0980242 0.033495195 -0.38202703
000010 6d ce 9d be 02 5e f4 3d f2 69 88 be ec 58 a1 bd
       -0.30821553 0.11931993 -0.2664333 -0.078782886
000020 ba a3 91 be 6f 37 5a be c2 65 8a bd 1b 06 86 be
       -0.28445226 -0.21310209 -0.0675769 -0.26176533
000030 b9 e3 88 3b ed cf 8e 3d ba 1f c7 3d 75 d9 37 3e
       0.0041775373 0.069732524 0.09722848 0.17954047
000040 b4 77 b1 3e d6 d1 74 3e 0b 8e fa bd 34 6b c7 bd
       0.3466164 0.23908171 -0.12234124 -0.09737244
000050 88 55 a6 3d 5a 35 f4 3e 0b eb 68 3e 59 49 01 3f
       0.081217825 0.47696954 0.22745912 0.50502545
000060 74 4d a6 3e 74 26 b7 3e eb 77 94 3e be ae 08 bd
       0.32480967 0.35771525 0.2899774 -0.033369772
000070 f4 44 fb bd 57 82 9c 3d f2 81 b2 bd 84 58 0f 3e
       -0.12269011 0.07642048 -0.08716191 0.1399861
000080 b3 9d 5d bd 15 3c a9 ba 25 92 49 be 0f 4b bf be
       -0.05410547 -0.0012911583 -0.19684656 -0.37361953
000090 8a 7f 0d be 82 5c d6 3e 61 46 51 3e 48 f4 dd 3d
       -0.13818184 0.41867453 0.20437004 0.108376086
0000a0 50 ac 40 3c 6b 54 d3 3d cb 50 38 be 6e 6c da be
       0.0117598325 0.10318836 -0.1799957 -0.4266085
0000b0 17 6e 66 3d a1 8c aa be a4 29 8f bd 6d 1b b0 bd
       0.056257334 -0.33310416 -0.06990364 -0.08598981
0000c0 3c fd a1 be d5 fc 65 be 3e 71 12 3e 48 a1 63 3e
       -0.31638515 -0.22459729 0.14301011 0.22229493
0000d0 3c c0 b5 3d 20 76 f7 3c 04 86 19 3e 18 f0 b2 be
       0.088745564 0.030207694 0.14992529 -0.34948802
0000e0 e2 20 32 be 59 06 c8 be 88 e0 be be 58 91 ec bd
       -0.17395356 -0.39067343 -0.3728068 -0.115511596
0000f0 64 35 cf 3d da 32 bd 3e 1a f1 a2 3d 89 e6 87 3e
       0.10117605 0.3695286 0.07956143 0.26543072
000100 62 d0 be 3e 43 07 06 3e 11 b8 91 3e a8 55 ac 3c
       0.37268358 0.13088708 0.28460744 0.021036938
000110 68 b0 9d 3d 41 a0 e3 3e c8 73 30 be 09 22 6a 3e
       0.076996624 0.44458202 -0.17231667 0.22864546
000120 ef 73 b7 3e 76 a1 d8 3e 51 e6 f4 3d 70 56 77 3e
       0.35830638 0.42310685 0.11957992 0.24154067
000130 26 5f 4c 3e 06 aa 7e bc 99 36 7d 3e 38 3f 0f be
       0.19958171 -0.015543466 0.24727859 -0.1398896
000140 86 64 55 be 22 eb 9c bc a7 d0 43 bd 4a bb e1 be
       -0.20839128 -0.019155089 -0.04780641 -0.44088203
000150 ce 32 34 be 7a d0 82 be 35 5e 82 be 5d ef a3 be
       -0.17597505 -0.2554968 -0.254625 -0.32018557
000160 b5 00 07 be bd 56 b3 be 18 e1 a7 3d 4e 83 d6 bd
       -0.13183863 -0.35027114 0.0819723 -0.10474263
000170 aa 78 c1 3e 57 55 9a 3e c5 a4 64 bb 34 07 95 3d
       0.37787372 0.30143234 -0.003488825 0.072767645
000180 4c b0 a8 3e cc 1d 2f be c0 ad 31 3d ea d8 03 be
       0.32947004 -0.1710121 0.04337859 -0.12875715
000190 12 68 57 3e 67 1e 55 bd 56 18 92 be 43 66 7b bd
       0.21035793 -0.052030947 -0.28534192 -0.06137682
0001a0 60 f3 fb bc c5 43 42 be 4e 44 b2 be 34 46 bb be
       -0.030755699 -0.18971165 -0.34817737 -0.36576998
0001b0 1d ac 6b be d8 a9 3c be 06 8b bb bd 1e de 07 3e
       -0.23014875 -0.18424165 -0.09157376 0.13268325
0001c0 d8 56 0b be 7a c3 4f 3e 58 ea 1c 3e de 16 41 be
       -0.13607347 0.20289412 0.1532377 -0.1885638
0001d0 98 f3 63 bd 60 4f 25 3c fa a5 3d be f0 39 59 3d
       -0.05565223 0.010089725 -0.18520346 0.05303377
0001e0 14 b6 b3 3d e0 72 5b 3c 04 72 df bd 04 b2 d8 3d
       0.08774963 0.013394088 -0.10910419 0.10580829
0001f0 77 a4 5b be cc b6 07 be 84 46 65 bd 6c 12 df bd
       -0.21449457 -0.13253325 -0.055975452 -0.108921856
000200 7e 34 a0 bd e9 ab 3b be 0c d3 42 bd 30 c7 43 3d
       -0.07822512 -0.18327297 -0.04756455 0.047797382
000210 16 2b 15 be 20 03 3c bc 28 e9 23 3e e0 4e bc bc
       -0.14567217 -0.011475354 0.16006911 -0.02298683
000220 40 a3 cb 3b b8 06 9e bc 18 5c 39 3d 1e 97 11 3e
       0.0062145293 -0.019290313 0.045253843 0.14217803
000230 e6 e4 58 3e 43 96 41 3e 4e e4 d5 3e 74 f1 71 3d
       0.21181068 0.18904977 0.41775745 0.05906816
000240 c7 e2 95 bd 18 0e 0a 3d a8 e0 34 bd d2 72 9b 3d
       -0.07318645 0.033704847 -0.04415956 0.075902596
000250 2e 98 86 be 3b 50 e1 be 02 49 56 be 85 24 12 bd
       -0.2628798 -0.44006523 -0.20926288 -0.03567936
000260 61 2f 4e 3e 74 1d 98 3e 80 fb d7 3e c7 55 ad 3d
       0.20135261 0.2970997 0.42184067 0.08463626
000270 af ea c1 3d 1b d5 08 3e c7 e0 a0 3d 54 af b9 bd
       0.094685905 0.13362543 0.07855373 -0.09066644
000280 40 6a 30 bd 38 d4 33 bd e1 a7 0b be 19 40 03 be
       -0.043070078 -0.04390356 -0.1363826 -0.1281742
000290 35 0e ca bd 08 85 f4 bd 5b e8 23 be 97 38 9e bd
       -0.09865991 -0.11939436 -0.16006605 -0.077256374
0002a0 b9 99 bc be a7 10 0e 3e 16 5d 49 3e f4 ca ba bd
       -0.3683603 0.1387354 0.19664416 -0.091207415
0002b0 7e c3 4e 3e dc d8 a5 3d b7 a3 4e be f0 de 10 3e
       0.20191762 0.08098003 -0.2017964 0.14147544
0002c0 c8 60 d3 bc 38 6e cc bd 6c 19 37 3e 43 08 39 be
       -0.025802985 -0.0998196 0.17880791 -0.18069558
0002d0 50 8f c4 3c 1c c8 91 be a6 16 03 be d3 4c 87 3e
       0.023994118 -0.28472984 -0.12801608 0.264258
0002e0 9b ad e7 bd ff d8 10 be e7 fc 8b be f7 7e 88 be
       -0.113124095 -0.14145277 -0.27341387 -0.26659366
0002f0 c7 80 cf be d0 5d cc bd c2 cc 35 3e ec b7 9f bd
       -0.40527937 -0.09978831 0.1775389 -0.07798752
000300 84 7f d6 bd 0d 7e 6b 3e e5 84 96 3d d9 f5 c6 3d
       -0.104735404 0.22997303 0.07349566 0.097148605
000310 ac 66 ae 3d 39 20 9d 3e b3 ac b3 be a0 db 9f bb
       0.08515677 0.30688646 -0.35092697 -0.0048784763
000320 a0 1e 1a 3c 89 c7 b8 3d 31 0a 0e 3e 34 ce d9 3d
       0.009406716 0.09022433 0.13871075 0.10635033
000330 ae 1b af bc f9 7e dd 3e f5 6b 0d 3e 12 73 d5 3e
       -0.021375503 0.43260935 0.13810714 0.41689354
000340 64 9d a1 3e 95 af 80 3e 80 2c da ba ed b8 c8 bc
       0.31565392 0.25133958 -0.0016645342 -0.024502242
000350 af 1f 8a 3e da e7 a3 3e ed 7c b5 3e 71 61 8e 3e
       0.26977298 0.32012826 0.35446873 0.27808717
000360 3b e3 8d 3d 45 9c 3d be a0 ae b1 3e 94 d2 39 be
       0.069281064 -0.18516643 0.3470354 -0.18146735
000370 a0 88 83 bc bd ee d1 3e 1f 96 89 3e df 39 31 be
       -0.016056359 0.41002455 0.26872346 -0.17307232
000380 74 6a c4 be 33 45 98 bd 04 fd 6c be 64 fe 15 be
       -0.38362467 -0.07435074 -0.23143393 -0.14647824
000390 1e 05 ad 3d 6a 68 c2 3d 00 4b 20 3b e3 18 d1 3e
       0.08448242 0.09492572 0.0024458766 0.408393
0003a0 53 c5 99 3e a7 b4 fa 3d 7f dd 85 3d 96 0f 87 be
       0.3003336 0.12241488 0.06536388 -0.2637908
0003b0 81 75 a4 3e 23 f5 65 be b3 93 11 be 48 b1 86 3d
       0.32120898 -0.22456793 -0.14216499 0.065767825
0003c0 dc 35 97 3d 33 67 be 3e fa ee 31 3e de d5 20 bd
       0.0738332 0.3718811 0.17376319 -0.03926646
0003d0 cd 2b bc 3e 83 52 13 be b9 d2 af 3e a7 f1 73 be
       0.36752167 -0.14386944 0.34340456 -0.23822652
0003e0 9c ac 10 be 87 52 ba bd 2b 30 f1 bd 3e e5 84 3e
       -0.14128345 -0.09097772 -0.117767654 0.25956148
0003f0 05 d5 da 3e 88 63 39 be 36 67 f5 bb 62 84 20 be
       0.42740646 -0.18104374 -0.0074891103 -0.156755

dense1.bias f4 [50]
000000 e6 1a 95 be 0e 26 2a bd 99 21 5f be c0 c3 ce be
       -0.29122084 -0.041540198 -0.2179016 -0.4038372
000010 16 26 88 be 89 cc 3d bd 79 37 1f be 53 c1 d6 be
       -0.26591557 -0.046337638 -0.15548505 -0.4194437
000020 bd 0b d2 3d 27 82 90 be 19 98 85 3e 80 26 29 3e
       0.10256145 -0.28224298 0.26092604 0.16518593
000030 ba 05 77 3d d0 ee c2 be 55 d1 4e 3e 70 d2 65 3e
       0.060308196 -0.38072824 0.20197041 0.22443557
000040 fc a4 9c bd d8 fe 71 3e 58 48 17 3e b4 8f 59 be
       -0.07648656 0.23632371 0.1477369 -0.21246225
000050 78 b3 b0 3e e0 9f b7 be 7d 02 01 bf f9 43 b3 bd
       0.34511924 -0.35864162 -0.5039442 -0.08753199
000060 c7 01 4f 3e 01 65 01 3d 11 c9 b1 be 7f 13 3c 3e
       0.20215522 0.031590465 -0.34723714 0.18366812
000070 16 1d 62 3e 02 89 a7 3e 45 24 28 bd cf b3 3d be
       0.22081408 0.32721716 -0.041050214 -0.18525623
000080 ce cc ac 3e 6a e9 f9 3d 18 68 55 3e 81 71 ec bd
       0.33750004 0.12202723 0.2084049 -0.11545087
000090 2d 09 c0 be 86 c0 cb 3c 0d ec ce be 43 b2 a4 bd
       -0.37507 0.024872076 -0.40414467 -0.08041813
0000a0 57 f0 6e be 83 2e d8 3e d4 9d 1c 3e 8b 8a 4d be
       -0.2333387 0.42222986 0.15294582 -0.20072381
0000b0 12 fe a0 3e 50 da ae 3c 13 d6 28 be 5c ee fe bd
       0.3144384 0.021344334 -0.16487913 -0.12447807
0000c0 0a d2 93 bd ac a6 25 3e
       -0.07217796 0.16176862

dense2.weight f4 [1, 50]
000000 4d d3 5f be df 3c 0e bd 86 0f 91 bd e9 f7 fe bc
       -0.21857949 -0.03472602 -0.07083039 -0.031124072
000010 6c 41 91 be 13 69 22 3e 85 f2 e8 3e 82 84 c0 3e
       -0.28370225 0.15860395 0.45497528 0.37601095
000020 51 d5 eb 3e 32 b1 04 be 03 25 29 3d 98 40 96 bd
       0.46061185 -0.1295822 0.041295063 -0.07336539
000030 cc c4 d8 3b 43 0c f5 3d dc f9 75 be 66 22 56 3d
       0.006615257 0.11965229 -0.24021095 0.0522789
000040 7f 2f c2 3c ec b3 fc 3d bf c4 d3 bc 0d e6 41 3d
       0.023704289 0.12339005 -0.025850652 0.047338534
000050 52 da 60 bc 0a 94 a2 3d 23 55 1e 3e 7b d9 e0 be
       -0.013723927 0.079383925 0.15462165 -0.43915924
000060 44 f8 ee 3b f8 f7 d1 bc 1b 22 34 be dd ea 60 3d
       0.007292779 -0.025630936 -0.17591135 0.054911483
000070 12 bd c9 3d 74 c8 81 3d 0c 33 0e bc 51 e3 b2 be
       0.098505154 0.063370615 -0.008679163 -0.34939054
000080 e3 4e a0 3d 68 4b 1b bc 8e 34 8c 3d 91 bc df 3d
       0.078275464 -0.0094784275 0.068459615 0.10924638
000090 30 70 cc 3e 9d b3 d2 bc d4 28 be be 03 0a cd be
       0.39929342 -0.025720412 -0.37140524 -0.400467
0000a0 20 6b 80 3c 52 2d dd bd 1e fd 97 3c 17 36 2b 3d
       0.015676081 -0.1079966 0.018553313 0.04179963
0000b0 ed f9 b7 3c 00 8e e8 bd a4 6f 11 be 98 07 2d bd
       0.022458041 -0.11355209 -0.14202744 -0.04224357
0000c0 79 5e 5a bd 3f 7e 05 be
       -0.053312752 -0.1303644

bachnorm1.weight f4 [50]
000000 fa 7d 7a 3f a7 09 45 3f c8 63 48 3f 35 dc 29 3f
       0.97848475 0.76967853 0.78277254 0.66351634
000010 86 3c 48 3f 94 3c 48 3f 00 00 80 3f 1f 75 87 3f
       0.7821735 0.78217435 1.0 1.0582618
000020 f0 78 95 3f 69 49 46 3f 27 3b 33 3f ff 87 49 3f
       1.1677532 0.77455765 0.70012134 0.7872314
000030 48 f2 60 3f 48 11 6e 3f af b7 8b 3f 6c d8 1f 3f
       0.8786969 0.9299512 1.0915431 0.6243961
000040 10 57 3d 3f 63 77 35 3f c7 e0 39 3f 25 04 4e 3f
       0.7396097 0.70885295 0.7260861 0.80475074
000050 aa fc 3c 3f 85 58 4a 3f 89 6c 68 3f cd 49 50 3f
       0.73823035 0.7904132 0.9079061 0.8136261
000060 ea 98 34 3f 0f d1 2c 3f f0 b9 45 3f ee 20 23 3f
       0.7054583 0.675065 0.77236843 0.6372212
000070 02 e5 43 3f be 13 5b 3f 7b 3c 48 3f cd 3c 48 3f
       0.76521313 0.85577 0.78217286 0.78217775
000080 c4 6d 6c 3f db 5e 49 3f e3 f4 6d 3f 3d 3c 57 3f
       0.9235499 0.7866036 0.9295179 0.8407629
000090 1d 63 a0 3f bd 56 51 3f 2d 3a 8b 3f c9 e1 9b 3f
       1.2530247 0.8177298 1.0877129 1.2178279
0000a0 c9 bc 45 3f 13 7e 34 3f 7c 84 2c 3f 05 cb 53 3f
       0.7724119 0.70504874 0.67389655 0.8273166
0000b0 93 bf 33 3f 79 6b 71 3f e8 60 6d 3f 70 3c 48 3f
       0.70214194 0.94304615 0.9272599 0.7821722
0000c0 ab 9c 53 3f 2d 7d 7b 3f
       0.8266093 0.9823788

bachnorm1.bias f4 [50]
000000 1e 2c c5 3e 54 41 8f 3e 4e cb 82 be c2 23 84 be
       0.3851022 0.2797953 -0.25545734 -0.2580853
000010 fa d8 a2 3e 53 ca 2e be b8 3e ba be 6a 99 c7 be
       0.31806165 -0.17069368 -0.36375976 -0.38984233
000020 14 eb b9 be 8c 18 7d 3e ee 32 8d 3e 41 5e a7 be
       -0.36312163 0.24716395 0.2757792 -0.32689098
000030 6a 88 a6 be 3d fa ab be 08 10 c6 3e 7b 24 90 3e
       -0.3252595 -0.33589354 0.38684106 0.28152832
000040 b5 e9 81 bd 1d 80 8e 3e 3f d8 2c be 44 62 8f be
       -0.06343404 0.27832118 -0.16879366 -0.28004658
000050 3a dd 25 bd ef de f6 bd ac b1 8e be 40 59 be 3e
       -0.04049418 -0.1205424 -0.27869928 0.37177467
000060 48 5c 90 be 3b 53 8f 3e e6 7a 9d 3e f5 e3 a8 3c
       -0.28195405 0.27993187 0.30757827 0.02061651
000070 b3 d3 8d be 89 56 9b be 24 55 51 be f2 6d a7 3e
       -0.27700576 -0.3033946 -0.20442635 0.3270107
000080 e6 1c c5 be 30 ea 05 be d9 f9 ac be 49 e5 98 be
       -0.3849861 -0.13077617 -0.3378437 -0.2986243
000090 94 1a ca be 44 55 95 3e cd 0f d0 3e 77 98 c3 3e
       -0.39473403 0.29166615 0.40637055 0.3820226
0000a0 17 d8 2b 3e d9 02 72 be 29 3c 81 3e d1 52 92 be
       0.1678165 -0.23633899 0.2524121 -0.2857881
0000b0 06 33 7a 3e 6b 19 b1 3e 55 9e 82 3e a7 ad 95 3e
       0.24433526 0.34589705 0.25511423 0.2923405
0000c0 c0 29 9f 3e 3a ed ab 3e
       0.3108654 0.33579427
