Results/HARM/best_model_cnn.pt (torch, 298015 bytes, 13 tensors)

conv1.weight f4 [6, 2, 3]
000000 cf c9 46 bf a5 4d e7 3c a3 e9 87 3d 7a f2 2c 3d
       -0.77651685 0.028235266 0.066363595 0.04222343
000010 03 7d 35 3f 6b a6 38 3f 30 3d af 3e 3e 45 52 bf
       0.7089388 0.72128934 0.3422637 -0.82136905
000020 e8 b2 c5 be 22 e8 49 bf 8a 67 10 bf 64 4b 53 be
       -0.38613057 -0.7886983 -0.5640799 -0.20634228
000030 6e ae 34 bf 5d b8 85 bd 92 d6 91 b7 10 81 ce 3e
       -0.7057866 -0.06529305 -1.7385264e-05 0.40332842
000040 f2 ed 4b 3f 32 f6 21 3f 44 a6 0d 3f 9e bc a5 3d
       0.7965995 0.6326629 0.55331826 0.080926165
000050 86 8b 42 bf fb b8 79 3e 24 c6 c7 3e 5c 59 19 3e
       -0.75994146 0.2438697 0.39018357 0.14975494
000060 30 58 6a 3e aa b2 a1 bf cc 96 3b 3e e4 ea f2 be
       0.22885203 -1.2632649 0.18319243 -0.47444832
000070 01 b4 23 bf 01 65 73 be d1 12 1a 3e 7b 9b 6e bf
       -0.6394654 -0.23768999 0.1504624 -0.93205994
000080 94 4c db 3e c3 14 d5 bf 47 01 90 3e 77 5d 71 3e
       0.42831862 -1.6646961 0.28125975 0.2357081

conv1.bias f4 [6]
000000 ff a5 f0 3d 68 08 38 bf 4e b4 1f bd 59 12 94 be
       0.11750411 -0.71887827 -0.03899031 -0.28920248
000010 19 f5 53 b9 d4 fb 81 3f
       -0.00020213834 1.0154977

conv2.weight f4 [3, 6, 3]
000000 2f 02 11 bf 2c a1 f9 be 8b ed 2e bf db 55 ba 3e
       -0.56643957 -0.48755777 -0.6833121 0.36393628
000010 3d e7 47 bf 08 41 a5 bf 2f 20 7c bf a3 cf aa be
       -0.78087217 -1.2910471 -0.9848661 -0.3336154
000020 a1 63 a2 bf e9 74 3f be 00 d2 b2 be 1c b1 e4 3d
       -1.2686654 -0.18696941 -0.34925842 0.111665934
000030 51 c6 a2 3e a3 fb 2d be 4b b6 d7 be 73 82 d1 3e
       0.31791928 -0.16990523 -0.42131266 0.40919837
000040 8d 66 c7 be ae 1a 1e bc b8 c9 84 3e 96 98 70 3e
       -0.38945428 -0.009649916 0.2593515 0.23495707
000050 c7 b1 81 3e cd e6 13 3f 8b d3 83 3e 79 ef 99 be
       0.25330946 0.5777405 0.25747332 -0.30065516
000060 66 3f 81 3e e9 31 27 3f 85 2f 21 3f 29 98 2b 3e
       0.25243682 0.6531053 0.62963134 0.16757263
000070 fe 58 0b 3e 85 14 f6 bd da 93 ed be 1e 83 ab be
       0.13608167 -0.120156325 -0.46401864 -0.33498472
000080 90 b4 37 bf 4f 2e 16 bf 19 42 b2 be c4 dc 46 bf
       -0.7175989 -0.5866441 -0.34816054 -0.7768061
000090 a3 0e 0d 3e b6 80 fe 3e 56 13 a5 3e 90 21 d8 bc
       0.13775115 0.49707574 0.32241315 -0.026383191
0000a0 49 22 d7 3d 56 ba 9a 3d 86 d9 63 3e 9c 3a f3 3e
       0.10504586 0.07555072 0.22250947 0.47505653
0000b0 4a 93 de 3e d4 3b b9 3e 64 ed 26 3e 8e 25 5c 3d
       0.43471748 0.36178458 0.16301495 0.053746752
0000c0 e0 95 21 bf 26 62 00 c0 e1 51 01 c0 20 d7 96 bf
       -0.63119316 -2.0059905 -2.0206225 -1.1784401
0000d0 7d 5c 43 bf bd 01 09 c0
       -0.76313 -2.140731

conv2.bias f4 [3]
000000 3b af 07 3f 3c 04 10 3f 48 65 aa 3f
       0.53001755 0.5625646 1.3312159

dense1.weight f4 [50, 1460]
000000 5e 8c 96 be 11 09 85 be e3 c9 c4 be 51 6a f8 be
       -0.29403967 -0.2598348 -0.38435277 -0.48518613
000010 21 f5 9c be 95 de fa be 5f f8 23 bf 86 f2 af be
       -0.3065577 -0.48997942 -0.6405086 -0.34364718
000020 df a2 43 be 97 38 3d be 97 a0 8a be ce 0a a2 be
       -0.19105099 -0.18478619 -0.27075645 -0.31648868
000030 e2 c2 fe be 80 70 9d be 84 49 8d be 55 3c 82 be
       -0.4975806 -0.30749893 -0.2759515 -0.25436655
000040 7b c8 9a be 60 1d 5f be 26 b1 88 be 66 86 ad be
       -0.3023108 -0.2178855 -0.26697654 -0.338916
000050 5e c6 92 be 42 49 0f be 75 55 89 be ca 23 4e be
       -0.28666967 -0.1399279 -0.2682301 -0.2013084
000060 0d e4 7d be ac 6b d0 bb e1 d1 31 bd d3 d1 ec be
       -0.24794026 -0.0063604917 -0.043413047 -0.46253833
000070 47 9a a2 bd 42 b8 89 bd db e8 af 3d f3 3b 64 3d
       -0.07939582 -0.067245975 0.085893355 0.055721235
000080 77 2e 24 3e c7 76 97 3d 49 c9 7f 3e ff 43 70 3e
       0.1603335 0.07395702 0.24979128 0.23463438
000090 9b e8 a6 3e ba 2b 81 3e b8 26 97 3e 10 13 d7 3e
       0.3259934 0.25228673 0.29521728 0.4200673
0000a0 4c 85 eb 3e 6c 9f eb 3e 5e ef da 3e 3b ce ce 3e
       0.46000135 0.46020067 0.42760748 0.40391716
0000b0 10 2c 04 3f 5d 9f e5 3e b0 28 a4 3e 74 aa 07 3f
       0.51629734 0.44848147 0.32062292 0.52994466
0000c0 2b 3c 01 3f c0 67 02 3f a1 51 0e 3f 63 8d 26 3f
       0.50482434 0.5093956 0.55593306 0.6505949
0000d0 07 5c 3a 3f 5b ec 0d 3f 8e 96 10 3f c9 77 5a 3f
       0.7279667 0.55438775 0.5647973 0.8533903
0000e0 40 9e 5e 3f 1b 27 69 3f f6 45 8c 3f 62 91 81 3f
       0.8696022 0.91075295 1.095885 1.0122492
0000f0 2c 4f 6a 3f b6 35 dc 3e 15 df 8d 3f 59 68 96 3f
       0.91527057 0.43009728 1.1083704 1.1750594
000100 f7 84 90 3f 60 3b 8e 3f 26 ea 99 3f 10 2b 90 3f
       1.1290578 1.111187 1.2024581 1.1263142
000110 b3 68 96 3f 83 c5 8b 3f 98 bf 88 3f 0f 05 90 3f
       1.1750702 1.0919651 1.068347 1.1251544
000120 34 e5 92 3f e6 bc 3b 3f 38 e5 98 3f 41 7f 98 3f
       1.1476197 0.7333511 1.1944952 1.1913835
000130 56 f9 a2 3f 07 bc 9e 3f 92 3d 97 3f 70 c7 9c 3f
       1.2732341 1.2401131 1.1815665 1.2248363
000140 ba 88 a1 3f c5 21 9e 3f ca 7f a2 3f a6 92 9d 3f
       1.2619851 1.2354056 1.2695248 1.2310379
000150 93 e6 96 3f 70 98 8c 3f 35 c0 5f 3f 2a 45 88 3f
       1.1789116 1.098402 0.8740266 1.0646107
000160 32 ac 83 3f e6 3a 71 3f d8 43 41 3f 40 ed 35 3f
       1.0286925 0.94230497 0.75494146 0.7106514
000170 05 0a 3f 3f 48 c4 55 3f a8 30 53 3f ff 4f 57 3f
       0.74624664 0.83502626 0.8249612 0.8410644
000180 35 a2 38 3f 38 1f 39 3f 13 f4 2c 3f 87 61 24 3f
       0.7212251 0.7231326 0.6755993 0.64211315
000190 eb 7e 1b 3f e9 99 21 3f 29 e0 0a 3f 45 ae ca 3e
       0.60740536 0.63125473 0.5424829 0.39586082
0001a0 c8 d3 eb 3e e1 47 b3 3e c8 5a 8e 3e ec 8a 9b 3e
       0.46060014 0.35015777 0.27803636 0.30379426
0001b0 fe e1 af 3e 00 7d 6a 3e ee df 9a 3e 29 ad be 3e
       0.34352106 0.22899246 0.3024897 0.37241486
0001c0 22 64 ab 3e 3f 2a 77 3e 65 de 6a 3d e0 3a 7b 3e
       0.33474833 0.2413721 0.057341 0.24534178
0001d0 f1 97 37 3e b6 64 d6 3d 32 b4 aa 3d 3a fd 23 3e
       0.17929055 0.10468428 0.08335151 0.16014567
0001e0 b6 c8 19 3e 2b d8 83 be ba 48 8f be e7 8a 85 be
       0.15017971 -0.2575086 -0.27985173 -0.26082537
0001f0 cd 03 8e be 1b ba 81 bd 00 91 5d bc 67 47 18 3e
       -0.27737275 -0.06334325 -0.01352334 0.14870988
000200 d9 f3 95 3d 17 b7 46 be 90 c5 38 be f8 af 89 bd
       0.07321901 -0.1940578 -0.18044114 -0.067230165
000210 0f 5d 71 3d a0 6f 59 be 8e 6b 92 be 82 62 14 bf
       0.05892664 -0.21233988 -0.28597683 -0.5796281
000220 c1 dd e3 3d 0f 4c 78 bd 9d 11 97 be d1 a4 32 3b
       0.111262806 -0.06061941 -0.29505625 0.0027258883
000230 f7 c5 4f bc 1f f5 37 3e bd f7 77 be 72 3c 04 3e
       -0.012681476 0.179646 -0.24215598 0.12913683
000240 72 15 a6 3e af 4d 18 be 09 42 af 3e a2 11 04 3e
       0.32438236 -0.14873384 0.34230068 0.12897351
000250 7b 86 49 3e 14 39 1d 3f a9 37 ef bc bc 69 ec 3e
       0.19680206 0.6141522 -0.029201346 0.4617442
000260 a8 e1 d5 3e c9 9d 17 3f 63 a3 99 3e b1 55 f2 3e
       0.41773725 0.59225136 0.30007467 0.47331002
000270 0b 2b 11 3f aa f7 45 3d 39 e1 86 bd 9c f4 14 3f
       0.56706303 0.048331894 -0.065859266 0.58185744
000280 f8 e9 2b 3f 2c a7 53 3e 7b 0b b4 3e c0 a7 67 3e
       0.67153883 0.2066924 0.3516501 0.22622585
000290 92 e0 76 3e 58 5c e9 3e 5a 47 17 3f 61 a2 1e 3f
       0.24109104 0.45578265 0.5909325 0.6196652
0002a0 0e 79 d9 3e 3e e3 61 3e 76 c1 37 3f ed b0 de 3e
       0.4247517 0.22059342 0.7177957 0.4349436
0002b0 a6 ed 00 3f 7e fa 17 3f f9 af ae 3e 2d 1e 1f 3f
       0.5036262 0.59366596 0.3411863 0.6215542
0002c0 98 ec 7c 3e 9a 01 4f 3e 78 85 1c 3f ba b9 fd 3e
       0.24699628 0.20215455 0.6114116 0.4955576
0002d0 3a d6 f0 3e 84 aa c8 3e 49 df 46 3f 0a 25 9a 3e
       0.47038442 0.39192593 0.77684456 0.30106384
0002e0 4d ba 10 3f 85 bc fa 3e bb ca 4c 3f 61 c2 ea 3d
       0.5653427 0.48971954 0.7999684 0.11462856
0002f0 f8 30 da 3e 14 c6 ca 3d 13 d0 09 3f 71 6a 08 bd
       0.42615485 0.09901062 0.5383312 -0.033304635
000300 60 5c 9b 3e 36 07 ef 3e e5 53 d6 3e ad 16 c4 3d
       0.30343914 0.4668519 0.4186088 0.095746376
000310 79 9f 53 bd 62 0d 37 3d fc b5 aa be f1 8f 1f bc
       -0.051665757 0.044690497 -0.33341968 -0.009738908
000320 22 c5 ff be f6 6b d3 be 7f c3 95 be f4 d3 e8 be
       -0.49955088 -0.41293305 -0.29250714 -0.45474207
000330 1b e8 f7 be 0c eb 17 3e 9c a0 9f 3d bb 3e 19 bf
       -0.4841927 0.14835757 0.07794306 -0.59861344
000340 ff 8b 0a bf d2 ee 26 bf f4 ab 21 bf 11 75 8a be
       -0.5411987 -0.6520816 -0.63153005 -0.2704244
000350 74 b0 14 bf 3a a1 24 bf 6b e1 0f bf c0 7f 11 bf
       -0.58081746 -0.6430851 -0.56203336 -0.56835556
000360 0e 03 eb be be 57 f8 be c0 d9 e9 be 7b 29 c9 be
       -0.45900768 -0.48504442 -0.45673943 -0.3928946
000370 c4 81 b7 be 9b ee c7 be 66 c6 a8 be 63 42 9c be
       -0.3584119 -0.3904923 -0.32963866 -0.305194
000380 f6 5a 97 be c9 b8 84 be 20 39 68 be 8b 6c d0 3e
       -0.29561585 -0.2592223 -0.22678041 0.40707812
000390 28 71 aa 3d f4 d6 bd 3c 0c d2 d7 3d e2 bd 40 3e
       0.08322364 0.023173787 0.1053811 0.18822435
0003a0 3a a3 53 3e 78 16 43 bd 57 ca 32 3e 13 54 ba 3d
       0.20667735 -0.04762885 0.17459999 0.09098067
0003b0 6b c9 20 3e 18 2e 02 3e d5 28 d9 3d d9 8a 96 3e
       0.15701835 0.12712896 0.10603491 0.29402807
0003c0 1a 13 00 3e c7 d4 26 3e 21 68 c4 3c 56 97 b8 3d
       0.12507287 0.16292106 0.023975434 0.0901324
0003d0 91 a6 09 3d f1 8b 3f 3d 77 3b 96 3d 00 7b 90 3e
       0.033606116 0.046764318 0.07335561 0.28218842
0003e0 9d 70 34 3f 6b b1 00 3e 81 0d d2 3d 0c 7a d6 bb
       0.70484334 0.1256768 0.10256482 -0.006545311
0003f0 bd 02 ad 3d 9c 54 20 3e 2a ee ab 3d d4 58 22 3d
       0.08447788 0.15657276 0.083950356 0.039635494

dense1.bias f4 [50]
000000 a5 b5 f3 be d7 2f 94 be a6 82 db 3e 0c 0e 60 be
       -0.4759952 -0.2894275 0.42873114 -0.21880358
000010 ac 1f af be 54 db 5c 3e fd 26 89 3e 9b 5c 9b 3e
       -0.3420385 0.21568042 0.26787558 0.3034409
000020 ce 5a 99 be f8 0f e1 be 87 0c 98 be ec 10 14 bf
       -0.2995209 -0.43957496 -0.29697058 -0.5783832
000030 b9 00 ae be 68 0d 6f 3e de 12 81 bf b7 de 28 bf
       -0.33984926 0.23344958 -1.0083883 -0.65964836
000040 01 45 1f bf e1 3f d1 3e 64 4c 6e be 74 1a d6 be
       -0.62214667 0.40869048 -0.23271328 -0.41817057
000050 6d 8a d0 be 49 f0 2c bf c6 c4 78 be db ca b5 be
       -0.4073061 -0.67554146 -0.24293813 -0.3550633
000060 b3 23 85 be 33 24 c4 bd f9 ea a1 3e 90 d1 d2 bd
       -0.260038 -0.09577217 0.31624582 -0.10293877
000070 ac 51 20 3e 1b 44 71 be 42 5f 96 3e 34 b6 92 be
       0.15656155 -0.23561136 0.2936955 -0.28654635
000080 35 8c 16 3e 28 92 05 3f a7 b6 62 3e e0 b8 58 be
       0.14701922 0.5217614 0.22139989 -0.21164274
000090 35 49 d7 3e 05 3a 43 3e ac e1 7b be f8 7a b2 be
       0.4204804 0.19065101 -0.24597806 -0.34859443
0000a0 be 0f a5 3d 79 ce 06 3c cf ca d1 be d6 35 93 be
       0.08059643 0.008227938 -0.40975043 -0.2875201
0000b0 34 2b 42 3e 73 90 af be c6 3e 94 be 50 45 d6 3e
       0.18961793 -0.34289894 -0.28954142 0.41849756
0000c0 a7 02 39 bf d1 2a bb 3c
       -0.7226967 0.022847565

dense2.weight f4 [1, 50]
000000 97 3a 1b bf 62 a7 89 bd f5 f2 1e 3c c5 0f 42 40
       -0.60636276 -0.06721379 0.00970148 3.0322125
000010 ca 77 0a be 6f 22 26 be d4 54 b5 3c 85 a6 b0 3d
       -0.13522258 -0.16224073 0.022135176 0.08625511
000020 be c8 ef bd be ed 89 3b bd 38 29 bd 2e 06 7a 3d
       -0.117082104 0.0042092493 -0.041313875 0.06104105
000030 ba 09 8a bd 42 de 01 be b2 91 92 c0 5c 86 af bf
       -0.067401364 -0.12682441 -4.580285 -1.3712878
000040 71 8a 53 3b 48 2d f8 be f5 ca 0f be d9 1d cb bf
       0.0032278562 -0.48472047 -0.14042266 -1.5868484
000050 31 55 2c c0 45 7e ca 3f f6 68 0d bd aa e9 aa be
       -2.6926997 1.5819784 -0.034523927 -0.33381397
000060 4e 08 a7 3e 02 d2 b3 bd 16 42 86 3b 4d ba eb bd
       0.32623523 -0.0878029 0.0040972335 -0.115101434
000070 ba c1 76 bd 7e 99 a6 bd a4 b5 71 bd f1 74 81 3c
       -0.060243346 -0.08134745 -0.059011117 0.015802832
000080 ec 5d 8d 3c 44 4b 79 3d b3 36 a4 be ab cc a1 bd
       0.0172567 0.060862795 -0.32072982 -0.079003654
000090 d7 dc 55 ba df 04 b7 bd 62 69 b1 bd dd de 46 bb
       -0.0008158213 -0.08936476 -0.08662678 -0.003034524
0000a0 e1 89 aa 3e cf 63 62 be bb a7 fa be 1a 0a eb bd
       0.33308318 -0.22108386 -0.48956093 -0.11476536
0000b0 3c 87 fc be 4d 76 52 bd 6b 03 d8 bd ee d8 81 3d
       -0.49321926 -0.05138235 -0.10547527 0.06340204
0000c0 3b 50 9d 3e 21 b0 81 be
       0.30725273 -0.25329688

bachnorm1.weight f4 [50]
000000 d4 e3 ce 3f 13 ae 73 3f 8e f2 04 3e 7d c0 91 40
       1.6163278 0.9518749 0.12983152 4.554747
000010 eb df 06 3e f1 6a ef be 22 85 a1 bd 33 b0 94 be
       0.13171355 -0.46761277 -0.07886721 -0.2904068
000020 59 05 dc be 8c f6 58 3f d4 a5 35 3f d5 b2 15 3f
       -0.4297283 0.847512 0.7095616 0.58476
000030 7f 9d a8 3e 5d 71 87 bd ef c6 c2 40 9d 65 4d 40
       0.3293266 -0.06613419 6.086784 3.209327
000040 a0 43 b5 be 8b 5b a5 bf ee fa fa be 62 3e 25 40
       -0.35403156 -1.2918562 -0.4901957 2.5819325
000050 89 a5 9a 40 d5 a4 2b 40 be 6b 74 3e 00 04 9b 3f
       4.832707 2.6819355 0.23869225 1.2110596
000060 eb 58 d8 bf 76 0d 59 3e e5 e3 98 3d 65 af 57 3f
       -1.6902136 0.21196541 0.074653424 0.84252006
000070 93 61 46 3e 5b a5 c7 3e fc 41 1e bd ee 6b 59 3f
       0.19373159 0.38993344 -0.038637146 0.8493031
000080 12 10 c2 bd ed 39 14 3f 59 e5 73 3f ca 67 b5 3e
       -0.094757214 0.5790089 0.9527183 0.35430747
000090 ae 9f d1 3e 4b fd f1 3e 15 d4 85 3e 86 74 85 be
       0.40942138 0.4726356 0.26138368 -0.26065463
0000a0 89 07 46 3f 44 78 3d 3f 76 63 d5 3f ea f1 e9 3d
       0.7735525 0.74011636 1.6670978 0.114230946
0000b0 7b 05 6b 3f 33 6c a0 3f c7 a8 19 3f d0 4c 19 3f
       0.9180524 1.253302 0.6002316 0.5988283
0000c0 de d5 b9 3f 68 e6 24 3f
       1.4518392 0.6441407

bachnorm1.bias f4 [50]
000000 9a c4 41 3f 08 a7 c2 bd dc f5 ae bc 10 30 0e bc
       0.75690615 -0.09504515 -0.02135747 -0.008678451
000010 c3 1e 0e 3e 68 9b 04 3e a9 c0 79 be eb d5 30 be
       0.13878922 0.12949908 -0.243899 -0.17269103
000020 43 77 a9 3d b7 33 81 3c 69 b8 f2 bd 4c c0 21 be
       0.082747005 0.01577173 -0.1185158 -0.15796012
000030 6c 6a d4 3d 0f c1 19 3e 13 c0 d7 3b 2d e2 67 3d
       0.10371861 0.15015052 0.0065841763 0.056612182
000040 5c c2 82 bd b0 ad 98 bd 66 63 25 3e f2 95 07 3d
       -0.06384727 -0.07455003 0.16151199 0.033101983
000050 16 49 2d 3c aa 3b 28 bc 38 b9 dc 3d be b2 3c 3d
       0.010576507 -0.010268131 0.10777515 0.0460689
000060 9e 52 ba bc 54 f6 13 3e 94 47 cb ba 77 75 62 3e
       -0.022744473 0.14449435 -0.0015509003 0.22115122
000070 db 0b f4 3d cc 70 de bd 1e 15 94 bd 5e 51 de 3d
       0.11916324 -0.10861358 -0.0723059 0.10855363
000080 83 21 f9 be 89 26 cf 3d db ff 68 3e 74 46 00 3d
       -0.4865838 0.10114772 0.22753851 0.03131719
000090 7d 0f 8f 3e ea 8e d6 3d 74 26 eb 3d 98 72 06 3d
       0.27941504 0.104764774 0.11481944 0.03282413
0000a0 62 8d f6 bc 7b 8f ca 3d e5 62 e0 3c 04 52 c9 3d
       -0.030096713 0.09890648 0.027390907 0.09830096
0000b0 39 a5 1f 3e fa 50 1c 3f b9 35 bc bc 46 aa 6b be
       0.15590371 0.6106106 -0.022974836 -0.23014173
0000c0 d9 0f 2c bd d6 76 39 3e
       -0.0420073 0.18111739

bachnorm_conv1.weight f4 [6]
000000 b4 64 7f 3f 85 2a 51 3f 3e d2 d2 3f 38 3b 88 3d
       0.99763036 0.81705505 1.6470411 0.0665192
000010 8d 15 7b 3f b0 24 7a 3f
       0.9807976 0.9771223

bachnorm_conv1.bias f4 [6]
000000 56 ac f9 3d 69 d9 b8 be 83 5a 08 3e 0f 9e 04 3e
       0.121910736 -0.3610337 0.13315777 0.1295092
000010 7f 1f a3 bf d5 62 6c bf
       -1.2743987 -0.92338306

bachnorm_conv2.weight f4 [3]
000000 99 de 9b 3f a7 4b b7 3d 7e aa dc 3e
       1.2177306 0.089499764 0.43098825

bachnorm_conv2.bias f4 [3]
000000 d8 cf 37 3d d9 ae d5 3e 3f 13 0d 3f
       0.04487595 0.4173496 0.5510749
