Results/HARM/best_model_becker.pt (torch, 199135 bytes, 5 tensors)

dense1.weight f4 [50, 980]
00000000: 5889 e2bb 738b 00bf ae79 d3be 80e8 9dbe
00000010: 1807 8bbe 769a 8fbe 84d3 94be b77d 9bbe
00000020: 3f77 90be c543 8fbe 0048 5dbe 8593 54be
00000030: 7059 4fbe efff 27be 6958 3bbe 3fe6 21be
00000040: a6f5 8c3f eb8d 8e3d 3bee c4bd 7a62 f9bd
00000050: fd9c 74be 8384 82be 55f0 71be 35ef 7abe
00000060: 61e4 13be be41 cf3e 290d cd3e 2a38 9f3e
00000070: 7217 9c3e f7a9 af3e b46e 963e 01dd 8f3e
00000080: 8a68 8e3e 6005 923e 12e8 a03e a107 973e
00000090: 5463 9a3e 8eaf 913e f072 8f3e b260 8c3e
000000a0: 5db9 923e 1260 8d3e 1a75 9f3e c78b a03e
000000b0: 23c0 9b3e 4643 9c3e b67f 953e b5b4 8d3e
000000c0: a129 953e 1b9e a03e 46e2 8a3e da24 963e
000000d0: 0868 9b3e 1433 923e 3ef4 a43e 6ce6 9d3e
000000e0: 4d93 8b3e 0755 893e f051 893e ddff a03e
000000f0: aeb4 a43e 08d5 8d3e 3334 a63e 2d8c 9f3e
00000100: 9435 593e 872c 753e 5479 833e 6c44 843e
00000110: b13b 8c3e 0f55 943e 07e9 8b3e 4308 993e
00000120: 49bd 8a3e 6601 903e 4a68 8e3e dac2 973e
00000130: 89cb 973e c8d0 8a3e 66c7 863e 379d 9e3e
00000140: 957b 893e a230 883e 17bd 803e 525a 7b3e
00000150: 498f 8c3e 2a40 943e 9351 8e3e fba7 853e
00000160: 3b6f 8f3e 4f99 853e f3a2 8b3e e6a7 893e
00000170: ff8e 843e 021f 8e3e dc0d 893e 161e 7f3e
00000180: 123c 9e3e d59f 953e 10d9 983e 88ba 9c3e
00000190: 8b28 993e 028b 833e 3fd9 963e d381 00bf
000001a0: 5730 c9be 553c c8be 54d7 ebbe e819 d6be
000001b0: 988a c6be 00ad b6be af8f cbbe befb b3be
000001c0: 3357 aebe 0d14 adbe 7ac5 a7be b850 b1be
000001d0: 1389 a5be 7ad9 b4be 6d37 99be b177 b0be
000001e0: 63c9 9ebe fbeb 96be f51e 97be 5a34 b1be
000001f0: eb17 9fbe b712 aabe 379a 9bbe 20d4 98be
00000200: f802 9ebe 3561 93be 714a 91be de5b acbe
00000210: 464b a6be 0fdf 93be fcec 93be cc71 9cbe
00000220: f459 9dbe aa0f a5be 242d 96be ce82 99be
00000230: 0370 9abe a1af aabe 6e9c 9dbe e655 8dbe
00000240: a998 90be f11d 91be bddb 8bbe ffc0 97be
00000250: 48c7 98be 063c 9cbe 1f71 a2be faf5 a2be
00000260: e1f3 8fbe 7094 a6be eb8c 9ebe 1dbf 9bbe
00000270: e7c5 84be 7c83 89be b9bb 9abe 111d 8cbe
00000280: 9277 86be fa56 8abe 47e2 81be 352f 88be
00000290: 9c74 91be 888a 84be 0324 7abe cda8 91be
000002a0: 520c 84be 5c68 96be bc4a 95be d50f 98be
000002b0: 2200 8bbe 8e92 98be 5cc5 92be d25d 82be
000002c0: 36e6 95be cf0f 8abe 5c49 79be d646 84be
000002d0: 135b 5abe be22 41be 2c4d 2fbe f9cc 2cbe
000002e0: 14ed 4cbe fa67 40be 0daa 12be 9246 1cbe
000002f0: ffcd 57be ce49 42be 4bbb 9abe 5e08 87be
00000300: 1133 90be 9063 9cbe 40fb 84be 25f2 96be
00000310: 6365 82be 7524 8ebe 9e7e 9fbe 31bf 9ebe
00000320: ca6c 8ebe 7e32 94be e822 89be cb30 9bbe
00000330: 2f31 8fbe d9eb 8abe a6c7 86be 8e4e 81be
00000340: a64d 84be 8d34 90be 8993 83be 0995 82be
00000350: c7a3 81be ff16 85be c4a1 7bbe b6d4 7ebe
00000360: 670b 9dbe 1f86 8bbe 42d6 99be 11c3 8bbe
00000370: 65a0 92be 4fb0 87be 1c3b 8ebe b89b 83be
00000380: 86ec 9dbe 56da 85be d57b 9fbe 315c a3be
00000390: 50b9 8dbe 479c 8ebe cb63 a1be c63d 9abe
000003a0: c476 99be 420c 8bbe ae6a 8dbe 0fdf 8ebe
000003b0: b3e0 93be cd0d 8fbe 5c99 9ebe 9c5a 94be
000003c0: f24a a2be c181 96be 0eae a4be 24e8 a1be
000003d0: 1943 97be b313 9dbe 1df9 94be e29d a7be
000003e0: d2e3 91be eb3f a8be b24e 90be a170 95be
000003f0: 27d3 a6be baab 9dbe 2381 95be c7c9 8bbe
-0.0069133453 -0.5021278 -0.41303772 -0.30841446 -0.2715385 -0.28047532 -0.29067624 -0.3036935
-0.28215978 -0.27981392 -0.21609497 -0.20759399 -0.20248961 -0.16406225 -0.18295445 -0.15810488
1.1012466 0.069606625 -0.09615751 -0.12176986 -0.23888011 -0.25491723 -0.23626836 -0.24505313
-0.14442588 0.40479845 0.40049103 0.31097537 0.30486637 0.3430936 0.29381335 0.280983
0.27814132 0.28519726 0.31427056 0.29498008 0.30153906 0.2845425 0.28017378 0.27417523
0.28657046 0.27612358 0.3114403 0.31356642 0.30420026 0.30520076 0.29198998 0.2767693
0.29133323 0.31370625 0.27125758 0.2932499 0.30352807 0.28554595 0.32217592 0.3083986
0.2726082 0.26822683 0.26820326 0.31445208 0.32169098 0.27701592 0.324617 0.31161633
0.21211845 0.23942767 0.25678504 0.25833452 0.2738929 0.28971145 0.27326223 0.29889116
0.27097538 0.28126067 0.2781394 0.29640847 0.29647473 0.27112412 0.26324004 0.3097932
0.26852098 0.26599604 0.25144264 0.24546173 0.27453068 0.28955203 0.2779661 0.2610472
0.2801455 0.26093528 0.27272758 0.2688591 0.25890347 0.27758032 0.26768386 0.2491382
0.30905205 0.29223505 0.29853106 0.30611062 0.29913744 0.25691992 0.2946262 -0.50198096
-0.39294693 -0.3910853 -0.4606272 -0.4181664 -0.38777614 -0.35678864 -0.3975806 -0.35153002
-0.34050903 -0.3380436 -0.3276785 -0.34631896 -0.32331142 -0.3532217 -0.299251 -0.34466317
-0.3101302 -0.29476914 -0.29515806 -0.34610254 -0.31072935 -0.33217403 -0.30391094 -0.2984934
-0.3086164 -0.287851 -0.28377107 -0.3366384 -0.32479304 -0.28881118 -0.28891742 -0.3055557
-0.3073269 -0.32238513 -0.29331315 -0.2998261 -0.30163583 -0.3333712 -0.3078341 -0.27604598
-0.2824147 -0.28343156 -0.27316085 -0.29639432 -0.2983954 -0.30514544 -0.3172693 -0.3182829
-0.28115752 -0.32535124 -0.30966887 -0.30419245 -0.25932238 -0.26858127 -0.30221346 -0.27365926
-0.262631 -0.27019483 -0.25367948 -0.26598516 -0.28409278 -0.2588694 -0.244278 -0.28449097
-0.2579065 -0.29376495 -0.2915858 -0.2969958 -0.2714854 -0.29799312 -0.28666198 -0.25462204
-0.292772 -0.26965186 -0.2434439 -0.25835294 -0.21323805 -0.1886091 -0.17119282 -0.16875066
-0.20012313 -0.18789664 -0.14322682 -0.15261295 -0.21074675 -0.18973467 -0.30221018 -0.2637357
-0.2816396 -0.3054471 -0.2597294 -0.29481617 -0.25467977 -0.2776219 -0.3115129 -0.31005242
-0.27817374 -0.28944772 -0.26784444 -0.30310664 -0.27967212 -0.27133062 -0.26324195 -0.25255245
-0.2584049 -0.28165093 -0.25698498 -0.2550433 -0.25320265 -0.25994107 -0.24573427 -0.2488583
-0.30672762 -0.27250764 -0.30046278 -0.2729726 -0.28637996 -0.265017 -0.27779472 -0.2570474
-0.30844516 -0.2614314 -0.31149164 -0.31906274 -0.27680445 -0.27853605 -0.31521448 -0.30125254
-0.29973423 -0.2715779 -0.27620453 -0.27904555 -0.2888237 -0.27940217 -0.3097638 -0.2897538
-0.31697804 -0.2939587 -0.32164043 -0.31622422 -0.2954338 -0.30679092 -0.29096308 -0.32737643
-0.28494126 -0.32861266 -0.2818504 -0.29187492 -0.3258297 -0.3079508 -0.29200086 -0.2730238

dense1.bias f4 [50]
00000000: 57b5 2e3e 0652 a83d b4b4 963e 4a92 b8be
00000010: e66b 21be 22f1 07bf 5fa2 16be 34a0 8abe
00000020: ee65 6ebd b73f c1be 8992 92be 45d9 d7be
00000030: d860 8e3e bf2e 163f 53dd 90be 4c96 c5be
00000040: b9ba 243f 8d00 97be 5ecc b83e 0043 e7bc
00000050: 5ed3 c0bd f046 003f 440e 253f ab0d 03bf
00000060: 7b1b 3c3d 9d60 d5be 1524 2f3f 9b08 07bf
00000070: 329f 5ebd 8a57 80be 22d3 443f 9390 94be
00000080: 4b8c c2be e413 cd3f 2699 3cbf 046e 033f
00000090: 32ef e2be c820 afbe 9f5a 6e3e 457b b5be
000000a0: 2657 31bf d0e1 92be 5d02 e3be ae25 9bbe
000000b0: 4f3a 8cbe 93bf d6bd ff1e eb3d f0df c0be
000000c0: b7c2 0f3f f757 ac3e
0.17061363 0.0821877 0.2943474 -0.3604911 -0.15763816 -0.53102314 -0.14710377 -0.2707535
-0.058202676 -0.37743923 -0.28627422 -0.4215795 0.2780826 0.5866508 -0.28293857 -0.3859123
0.64347416 -0.29492608 0.3609342 -0.02823019 -0.09415315 0.5010824 0.6447489 -0.5119273
0.045924645 -0.41675273 0.6841443 -0.52747506 -0.05435104 -0.25066787 0.76884663 -0.2901655
-0.3799766 1.6021695 -0.73671186 0.51339746 -0.44323117 -0.34204698 0.23276757 -0.3544561
-0.692736 -0.28687906 -0.4433774 -0.30302185 -0.27388236 -0.10485759 0.114805214 -0.3767085
0.56156486 0.33660862

dense2.weight f4 [1, 50]
00000000: 16c3 ce3d 1ac3 75bd 0da8 833f 4fc9 23bf
00000010: ea01 233d 80c5 173d 8a2c a3be ce3a ed3d
00000020: e1c2 b73d 7aae ed3d 4968 283e 80e7 25bd
00000030: 0ad5 9b3e bdf8 90bf d360 02be fe61 fd3f
00000040: 32e9 983f 1ece fdbd 6d01 8d3f 0058 f63e
00000050: 17d6 15bd 6a82 4dbf 6d09 a7bf 07af 073e
00000060: 1a9c 86be 6a6d 66bd e151 a93d 5d94 99bf
00000070: 5ca3 5c3e cf65 bcbf ae93 dfbc 6920 e83f
00000080: 7c6c 51be e5c4 263f 54cc 513e b0d6 a7be
00000090: 48fc d3bf 1c39 ccbf bb4a 693e 14a4 14be
000000a0: ccae 1f3e 62db b7bd f5a7 bd3e 3568 763e
000000b0: 7118 bf3e 73d2 a53e 81c4 463e 2562 a7bf
000000c0: 7a55 71be d9a5 153e
0.100958034 -0.060000516 1.028566 -0.6397905 0.039796747 0.037053585 -0.31869918 0.11583482
0.08972717 0.116055444 0.16446032 -0.04050398 0.30435973 -1.1325909 -0.12732248 1.979553
1.1946166 -0.12392829 1.101606 0.48114014 -0.036581125 -0.8027712 -1.3049752 0.13250361
-0.2629097 -0.05625669 0.0826757 -1.1998402 0.21546692 -1.471857 -0.027292099 1.8134891
-0.2045154 0.6514419 0.20488101 -0.3278098 -1.6561365 -1.5954928 0.22782414 -0.14515716
0.15594023 -0.08977391 0.37042204 0.2406319 0.37323335 0.32387123 0.19410898 -1.3076826
-0.23567763 0.14614047

bachnorm1.weight f4 [50]
00000000: ca18 973e 1307 253f a95f e23f b438 b93f
00000010: 1f63 2a3f 4e6e 9a3e f3ba 34bf b3df 853e
00000020: c65f 7dbd 7631 d43e eda0 463e dd6f 08ba
00000030: ef04 4c3f bb45 0140 63a8 513f cb08 4840
00000040: 8b7a e53f 03a2 43bd 9313 fd3f bfcd 2e3f
00000050: e25b fa3e 893c b63f d634 1340 718a 5f3e
00000060: fc4b 753f 052e 053e 6637 9f3e 7b88 1740
00000070: 7535 e93c aa9c 2840 c1d1 993e ed49 3340
00000080: 917f 873f 3f48 7c3f 5e75 5d3e 85fc 2c3f
00000090: 425d 2f40 7a55 3740 9f90 16bf 304c a83f
000000a0: 45df 08bf b8e6 743f 0218 993f dc65 053f
000000b0: c502 063f 15db 053f a49b e0bd a778 2140
000000c0: 9d12 683f 5f11 2b3e
0.295111 0.6446392 1.7685443 1.447043 0.66557497 0.3016228 -0.7059776 0.2614723
-0.061858915 0.41443986 0.19397326 -0.0005204657 0.7969503 2.019881 0.8189756 3.1255367
1.7928022 -0.04776193 1.9771599 0.68282694 0.48898226 1.4237224 2.3000998 0.21830155
0.9581907 0.13005836 0.31096953 2.367705 0.028467873 2.634562 0.30042842 2.801387
1.0585805 0.9854774 0.21626803 0.67572814 2.740067 2.864592 -0.58814424 1.314825
-0.5346568 0.9566455 1.1960452 0.5210855 0.52347976 0.5228742 -0.10967186 2.522989
0.906534 0.16705845

bachnorm1.bias f4 [50]
00000000: 673e 013d 8705 483e d1ea 803e eb45 4ebe
00000010: b5ff 13be 6c91 b5bd 862e fabd 7944 123e
00000020: 529c a33d b2a2 39be 1df1 0e3b 52ef e7bd
00000030: 927a 2e3e aedb 013e 4ef4 ccbd 557f f6bd
00000040: 780c fd3d a10e 78be 915c 09be 99c1 6a3e
00000050: 13a5 57be 59bf 503c 157c f33d 8db5 b4bd
00000060: 86c0 ec3d e957 a73c fb94 243e 3bdf b53d
00000070: 0254 0fbe 4668 6fbb a4ca 003e d394 233e
00000080: f8e5 cc3d 2201 63bd e9c0 503e 6510 cf3c
00000090: da0d 0b3d 8bde d73d 6fc1 18be fce3 b2bc
000000a0: 1714 4a3e b023 15bd 0e8c 12be ff7c dc3d
000000b0: 354a 643e 7711 64bc 7b8b 08be 702b 863d
000000c0: a1ff 163e 09bf 55be
0.031553652 0.19533359 0.2517915 -0.20143859 -0.14453013 -0.08865628 -0.12215905 0.14283933
0.079888 -0.1812847 0.0021811195 -0.113249436 0.17038944 0.12681457 -0.10007535 -0.120360054
0.12355894 -0.2422433 -0.13414218 0.22925414 -0.21059065 0.012740933 0.11888901 -0.088236906
0.115601584 0.020427661 0.16072457 0.088804685 -0.1399689 -0.0036530658 0.12577301 0.1597474
0.100048006 -0.055421002 0.2038609 0.025276372 0.033948757 0.105404936 -0.14917539 -0.021837227
0.19734226 -0.036410987 -0.14311239 0.107660286 0.22293933 -0.01392018 -0.13334458 0.06551254
0.14745952 -0.20873655
