Results/Energy/best_model_becker.pt (torch, 208031 bytes, 13 tensors)

conv1.weight f4 [6, 2, 3]
0	0x3cec4012	0.028839145
1	0x3e96b32c	0.29433572
2	0xbdcb813a	-0.099367574
3	0x3f1b528d	0.6067284
4	0x3f04c42e	0.51861846
5	0x3e985665	0.29753414
6	0xbef55e14	-0.47923338
7	0xbd1f3bad	-0.03887527
8	0xbeb46074	-0.35229838
9	0xbc3614df	-0.0111133745
10	0x3f07ea06	0.53091466
11	0x3f198402	0.5996705
12	0x3d332ca1	0.043743733
13	0xbe91b1bf	-0.28455922
14	0x3e9258dd	0.28583422
15	0x3ec95e6b	0.39329848
16	0x3eb43261	0.35194686
17	0x3e4a5da4	0.19762284
18	0x3f15ae91	0.5846949
19	0x3e854a57	0.2603328
20	0xbc7c0dfe	-0.015384195
21	0x3e5ab841	0.2135935
22	0x3eea6dd8	0.4578693
23	0x3dea3bba	0.11437173
24	0xbef9fa54	-0.48823798
25	0xbe516c48	-0.20451462
26	0x3e6372b0	0.22211719
27	0xbee2547f	-0.4420509
28	0xbe59f633	-0.21285324
29	0x3ed1103f	0.40832707
30	0xbd09b792	-0.033622332
31	0xbf59cc12	-0.8507701
32	0xbefb94be	-0.4913692
33	0xbef0cb00	-0.47029877
34	0x3e39484d	0.18093987
35	0x3d186131	0.037202064

conv1.bias f4 [6]
0	0x3ee69023	0.45031843
1	0x3de5bc01	0.112174995
2	0xbf5a2f75	-0.85228664
3	0xbe51d010	-0.20489526
4	0xbc7fad7f	-0.01560533
5	0xbe527423	-0.20552115

conv2.weight f4 [3, 6, 3]
0	0x3f20f1fc	0.6286924
1	0x3efcf29f	0.49403855
2	0x3ee22c27	0.4417431
3	0x3e936379	0.2878683
4	0x3e2f1d65	0.17101057
5	0x3e311fc9	0.17297281
6	0x3ef27b9f	0.4735994
7	0x3ee9e3a8	0.456815
8	0x3d80898f	0.06276237
9	0x3d0943ba	0.033511855
10	0x3f161754	0.58629346
11	0x3e5d8bd8	0.21635377
12	0xbe8dc01f	-0.2768564
13	0xbe70ad6f	-0.2350366
14	0xbe4de56d	-0.2010705
15	0xbda92f94	-0.08261028
16	0xbd46878f	-0.048469122
17	0x3edf158a	0.4357112
18	0x3eb6ff82	0.35741812
19	0xbca14f26	-0.019691061
20	0x3da4a503	0.08039286
21	0x3e930a3e	0.28718752
22	0xbbd55f56	-0.006511609
23	0x3b803493	0.0039125173
24	0x3e931a71	0.2873111
25	0x3edcf16f	0.4315295
26	0x3e923d65	0.28562465
27	0x3e839f0c	0.2570728
28	0x3ef7f825	0.48431507
29	0xbe6bebfd	-0.23039241
30	0x3dc5bce7	0.09655171
31	0x3e391a6a	0.18076482
32	0xbe89bde5	-0.2690269
33	0x3f2a0c3c	0.6642492
34	0x3d9c0445	0.07618002
35	0xbea8a9e4	-0.32942116
36	0x3e9d4a86	0.3072092
37	0x3f474fce	0.7785615
38	0x3eec703b	0.46179375
39	0xbdbf145f	-0.09330057
40	0x3e91e29c	0.28493202
41	0x3e990c6a	0.29892284
42	0x3f02cce3	0.5109388
43	0x3f2e2192	0.68019974
44	0x3f1f206f	0.62158865
45	0xbe2748bf	-0.16336344
46	0x3d97a68d	0.07404814
47	0x3eaf5405	0.3424379
48	0x3dacec6d	0.08443532
49	0xbecb97fe	-0.39764398
50	0x3ead398e	0.33832973
51	0xbe54219d	-0.20715947
52	0xbe5150fe	-0.20441052
53	0xbe38c8b8	-0.18045318

conv2.bias f4 [3]
0	0x3e7c66a3	0.24648528
1	0xbe42da22	-0.19028524
2	0xbf009c23	-0.50238246

dense1.weight f4 [50, 1010]
0	0x3d58f2f9	0.05296609
1	0xbe9878fa	-0.29779798
2	0x3e904344	0.2817632
3	0x3ea1b31e	0.31581968
4	0xbe8f0d89	-0.27940014
5	0x3eaab4a7	0.33340952
6	0x3ea12f7f	0.3148155
7	0xbea020a0	-0.3127489
8	0xbe8df4c9	-0.2772582
9	0xbe91b077	-0.28454944
10	0xbe9c3ba2	-0.30514246
11	0x3e9c6c1d	0.30551234
12	0xbe62d2d8	-0.22150743
13	0xbe896b48	-0.26839662
14	0xbeb69116	-0.35657567
15	0x3e8ded6e	0.27720207
16	0x3e940ba7	0.2891514
17	0x3ea5f341	0.3241215
18	0xbea4ade1	-0.3216391
19	0xbe4916e9	-0.19637646
20	0xbe55a75a	-0.20864621
21	0xbe901dcb	-0.2814773
22	0xbe8ff613	-0.28117427
23	0x3eb269ad	0.3484625
24	0x3df2462e	0.11829792
25	0x3e40518f	0.18781112
26	0x3e286695	0.16445382
27	0xbe91da37	-0.28486797
28	0x3ea4f5c4	0.32218754
29	0xbe99aaba	-0.30013067
30	0xbe9bfda1	-0.3046694
31	0x3ea81bfa	0.32833844
32	0xbebd165e	-0.36931127
33	0xbe9a780a	-0.30169708
34	0x3e9ced2c	0.30649698
35	0xbe911268	-0.28334355
36	0x3d7d1c7f	0.061794754
37	0xbe9294a2	-0.28629023
38	0x3e9ad273	0.30238685
39	0xbe85894c	-0.26081312
40	0xbebe27d6	-0.37139767
41	0xbe065b55	-0.13120778
42	0xbea655a4	-0.32487214
43	0xbec173e2	-0.37783724
44	0x3ecd43ff	0.4009094
45	0xbe8c9770	-0.27459288
46	0xbe867c8f	-0.26266906
47	0xbe7386e5	-0.23781927
48	0x3ea048ba	0.31305486
49	0xbe7fc185	-0.24976166
50	0x3eba6952	0.36408478
51	0x3edc929f	0.43080613
52	0xbea934fd	-0.3304824
53	0x3ea465f5	0.32109037
54	0xbea6c06d	-0.32568684
55	0xbe9720aa	-0.29517108
56	0xbe88cea3	-0.2672015
57	0xbe855701	-0.2604294
58	0xbe5c289b	-0.21499865
59	0xbe9ea632	-0.30986172
60	0xbe8d2bc4	-0.27572453
61	0xbe5eb5e6	-0.21749076
62	0x3eb67461	0.35635665
63	0x3ee2f1bb	0.4432505
64	0xbe849cdb	-0.2590092
65	0xbe7f88de	-0.24954554
66	0x3e9c6477	0.305454
67	0x3ead28f7	0.33820316
68	0xbe8e6936	-0.27814645
69	0xbe6bedf2	-0.23039988
70	0x3ea1ede8	0.3162682
71	0xbeaa033e	-0.332056
72	0xbea57fe0	-0.32324123
73	0x3ec25911	0.37958577
74	0xbe413286	-0.1886693
75	0xbe997248	-0.29970002
76	0xbe948077	-0.2900426
77	0xbe93ca67	-0.28865358
78	0xbe559494	-0.2085746
79	0xbe91ff43	-0.28515062
80	0xbea421d5	-0.32057062
81	0xbe8b1772	-0.27166325
82	0xbe58f258	-0.21186197
83	0xbe515636	-0.20443043
84	0x3ec9132d	0.39272442
85	0xbe8b5be9	-0.2721856
86	0xbe99afa0	-0.30016804
87	0xbe8704ca	-0.2637084
88	0xbe9c8f72	-0.3057819
89	0x3e958af4	0.29207575
90	0x3eb7f631	0.35930017
91	0xbeafd61b	-0.34343037
92	0xbe87ea3d	-0.26545897
93	0x3e9c9b49	0.30587223
94	0x3e7ca3e6	0.24671897
95	0xbe793e7e	-0.24340245
96	0xbe8c3245	-0.27382103
97	0x3e9faf78	0.3118856
98	0xbe951a0b	-0.29121432
99	0xbe9d5af5	-0.30733457
100	0xbeafb672	-0.34318882
101	0xbe8e3885	-0.27777496
102	0xbe9da251	-0.307879
103	0xbe9cb023	-0.30603132
104	0x3da2d948	0.07951599
105	0xbe93fbbb	-0.28902993
106	0xbe81c920	-0.2534876
107	0x3e89853a	0.26859456
108	0xbe30ad90	-0.17253709
109	0xbe90c62b	-0.2827619
110	0x3ea664da	0.3249882
111	0x3e95534f	0.29165122
112	0x3e96c083	0.2944375
113	0xbe9566d6	-0.2918002
114	0xbe850d6c	-0.25986803
115	0xbe894e6a	-0.26817638
116	0xbe8fb477	-0.2806737
117	0xbea33e7a	-0.31883603
118	0xbea127f2	-0.31475788
119	0xbd5dffd9	-0.054199073
120	0x3ea6cc59	0.3257778
121	0xbe9d2fac	-0.30700433
122	0xbe8cc9a4	-0.2749759
123	0xbee06eff	-0.43834683
124	0x3e91b0a6	0.28455085
125	0x3d9405f3	0.07227697
126	0xbe9fa6b0	-0.3118186
127	0x3e8c9ca0	0.27463245
128	0x3e8ef97c	0.27924716
129	0x3ea233f8	0.31680274
130	0xbe900cc8	-0.2813475
131	0x3e8f1ac6	0.27950114
132	0x3e820c0a	0.2539981
133	0xbea759ff	-0.3268585
134	0xbe7af799	-0.24508514
135	0xbe8582b2	-0.26076275
136	0x3ea5669f	0.32304856
137	0xbe8d3209	-0.27577236
138	0x3ea3fbe6	0.3202812
139	0x3eb27ee2	0.3486243
140	0x3e986579	0.29764917
141	0xbe76119f	-0.2403016
142	0xbea46cad	-0.32114163
143	0xbe949948	-0.29023194
144	0xbe9ffded	-0.31248417
145	0xbece47a6	-0.40289038
146	0xbeaa43c9	-0.3325484
147	0x3e67a9dc	0.2262339
148	0x3e8fdd83	0.28098688
149	0x3ea76ea0	0.32701588
150	0xbe9612d8	-0.29311252
151	0xbe924bac	-0.28573358
152	0x3e9a4aee	0.30135292
153	0xbea4d599	-0.32194212
154	0xbe8b5a4c	-0.2721733
155	0xbe90adff	-0.28257748
156	0xbea03c68	-0.31296086
157	0xbe8b14c0	-0.27164268
158	0xbea36b9e	-0.31918043
159	0xbea36f7c	-0.31920993
160	0xbe9ed1d5	-0.31019464
161	0xbea6b581	-0.32560351
162	0xbea4f50c	-0.32218206
163	0xbeacab18	-0.33724284
164	0xbea04300	-0.31301117
165	0xbea3e89a	-0.32013398
166	0xbea60d0e	-0.32431835
167	0xbe9b9ab4	-0.30391467
168	0xbecdd86b	-0.40204176
169	0xbeacebd3	-0.3377367
170	0xbed84d2d	-0.4224638
171	0x3e5b6dca	0.214286
172	0x3e1f53eb	0.15559356
173	0xbea19408	-0.3155825
174	0xbe9e9ca9	-0.30978897
175	0x3e76d2e1	0.24103881
176	0x3e98ffae	0.29882568
177	0xbe997a9d	-0.2997636
178	0xbea0be5a	-0.31395227
179	0xbea023d6	-0.3127734
180	0xbec6f1a6	-0.38856238
181	0x3e83b9e1	0.25727752
182	0xbead9d2b	-0.33908972
183	0xbe93ebba	-0.28890783
184	0xbedb7ef9	-0.4287031
185	0xbdc40a7a	-0.09572311
186	0x3e73cbe2	0.23808244
187	0xbeaa3ba4	-0.33248627
188	0xbeb1e3d4	-0.34744132
189	0xbe9299c1	-0.2863293
190	0xbec0b7f9	-0.3764036
191	0xbeab9594	-0.33512557
192	0xbe96f7ec	-0.29486024
193	0xbe8cc809	-0.27496365
194	0x3e62a65d	0.22133775
195	0xbe876169	-0.26441506
196	0xbeb12eba	-0.34605962
197	0xbea60928	-0.3242886
198	0xbe938c85	-0.28818145
199	0xbe37ae7a	-0.17937651
200	0xbeab193c	-0.3341769
201	0xbe9a6a35	-0.30159155
202	0xbe8f37bd	-0.27972212
203	0xbe94117a	-0.28919584
204	0xbe59ad0a	-0.21257415
205	0xbeb05735	-0.34441534
206	0xbeb1391e	-0.3461389
207	0xbeab3b8b	-0.33443865
208	0xbe589571	-0.21150757
209	0xbeaedcc1	-0.34152797
210	0xbe8cb5ad	-0.27482358
211	0xbe851d8f	-0.25999114
212	0x3e9b78b7	0.30365536
213	0x3eabbe74	0.33543742
214	0xbebd4bfd	-0.36972037
215	0xbe819c1c	-0.25314415
216	0xbe864502	-0.26224524
217	0xbe42272e	-0.18960258
218	0x3e6dc498	0.23219526
219	0xbe4d1508	-0.20027554
220	0xbe910d95	-0.28330675
221	0xbeba63cb	-0.3640426
222	0xbe8351a5	-0.25648227
223	0xbdf660e0	-0.12030196
224	0xbeb9cca9	-0.36288956
225	0x3ea6a168	0.32545018
226	0x3e9fe6a3	0.3123065
227	0x3df69827	0.120407395
228	0x3e4b9f01	0.19884874
229	0xbed1ba6a	-0.40962535
230	0xbe893d9b	-0.26804814
231	0xbba823d9	-0.0051312265
232	0x3e22fc49	0.15916552
233	0x3e48df88	0.1961652
234	0xbe91ce16	-0.28477544
235	0xbe9aec06	-0.30258197
236	0x3e7c5cba	0.24644747
237	0xbe80d6d9	-0.25163916
238	0x3e64947f	0.22322272
239	0x3e7b4b43	0.24540429
240	0xbeb12aca	-0.34602958
241	0xbeb5957c	-0.3546561
242	0x3e1b5d43	0.15172295
243	0xbeb964dd	-0.36209765
244	0xbedca94c	-0.43097913
245	0xbe817106	-0.25281543
246	0xbe8b2945	-0.27179924
247	0x3edf4bb3	0.4361244
248	0xbeaa40ae	-0.33252472
249	0xbec7b0f4	-0.39002192
250	0xbebdc3de	-0.37063497
251	0xbe60ac9d	-0.21940847
252	0x3e99233c	0.29909694
253	0xbea52b27	-0.32259485
254	0xbebd96b8	-0.37029052
255	0x3e6513d8	0.22370851

dense1.bias f4 [50]
0	0x3ee2c4e9	0.44290856
1	0xbedd64fa	-0.43241102
2	0xbe34a624	-0.17641503
3	0xbe65dea0	-0.22448206
4	0x3d8da8a9	0.06916935
5	0xbf0a0073	-0.53906935
6	0xbe1e2e5f	-0.15447377
7	0x3ed4e9a5	0.41584507
8	0xbee96f54	-0.4559275
9	0x3f05c2b3	0.5225021
10	0x3e92326d	0.28554097
11	0x3dc80654	0.09766832
12	0xbe74187b	-0.23837464
13	0x3e8849d9	0.2661884
14	0x3dc294bd	0.09501026
15	0x3eaa058d	0.3320736
16	0xbe51ed40	-0.2050066
17	0x3e806f11	0.25084737
18	0xbea7ae7e	-0.32750314
19	0x3e50eb3a	0.20402232
20	0x3e95512f	0.291635
21	0x3db2e5dd	0.08735249
22	0x3f27946f	0.65460867
23	0xbeb48b83	-0.3526269
24	0x3ed1990b	0.40937075
25	0x3f2616f8	0.648788
26	0x3ecc87f9	0.3994749
27	0x3eff3d6a	0.49851543
28	0xbea5eb23	-0.32405958
29	0xbeb9edca	-0.3631423
30	0xbed1a48d	-0.40945855
31	0x3e8d251b	0.27567372
32	0x3e96255d	0.2932538
33	0x3eae1f7a	0.3400839
34	0xbe910f58	-0.2833202
35	0x3ebc8ff2	0.36828572
36	0x3ed72a27	0.42024347
37	0xbea9ceb9	-0.3316553
38	0x3c88e848	0.016712323
39	0xbe8dabd2	-0.2767015
40	0x3ef32b27	0.4749386
41	0x3ea13da5	0.31492344
42	0xbefa060d	-0.4883274
43	0xbeb34978	-0.3501699
44	0xbe872201	-0.2639313
45	0xbeec261c	-0.46122825
46	0xbdc36171	-0.0954007
47	0x3ea1723b	0.31532463
48	0x3ec6913e	0.38782686
49	0x3ea991b7	0.33118984

dense2.weight f4 [1, 50]
0	0xbeb9f9e7	-0.36323473
1	0xbe755130	-0.23956752
2	0xbe13bb0d	-0.14426823
3	0xbecf620d	-0.40504494
4	0x3d39e328	0.04538265
5	0x3b4d2d15	0.0031307389
6	0x3dbfb980	0.09361553
7	0xbbddc694	-0.006768057
8	0x3ce9231f	0.02845913
9	0xbcad1449	-0.021127837
10	0x3e864a9a	0.2622879
11	0xbd6638e6	-0.056206606
12	0xbdf8d234	-0.12149468
13	0x3e208985	0.1567746
14	0x3dddf3f9	0.1083755
15	0xbdc4349e	-0.095803484
16	0xbdd9e928	-0.10640174
17	0x3e2a3538	0.16621864
18	0xbe98d5da	-0.29850656
19	0x3d42e052	0.04757721
20	0xbd7842f0	-0.06061071
21	0x3dc4932e	0.09598385
22	0xbe9a90b1	-0.30188516
23	0xbdcc9355	-0.09989039
24	0x3e3bded8	0.18346727
25	0xbcd3e9c8	-0.025868312
26	0xbe203415	-0.15644868
27	0x3e3222a7	0.17396031
28	0xbef06b8d	-0.46957055
29	0xbf05d1de	-0.52273357
30	0xbec37d7a	-0.3818167
31	0x3e0610e1	0.13092376
32	0xbdea7bf8	-0.114494264
33	0x3e75dc50	0.24009824
34	0xbe2a03d3	-0.16603021
35	0xbd23c119	-0.039979074
36	0xbdb63afe	-0.088979706
37	0x3e4067ba	0.18789569
38	0xbe83bcf3	-0.25730094
39	0xbf09bc71	-0.53803164
40	0x3dedf2e1	0.11618591
41	0x3dc6f850	0.097153306
42	0xbf3483cd	-0.7051361
43	0x3f456f73	0.77123183
44	0xbef467e6	-0.47735518
45	0xbf69d399	-0.913385
46	0xbdaf4290	-0.08557618
47	0xbc2e7d1d	-0.0106499465
48	0xbdd0748f	-0.10178482
49	0x3e188673	0.14895038

bachnorm1.weight f4 [50]
0	0x3f1ef081	0.6208573
1	0x3eed57b8	0.46355987
2	0x3f088a4a	0.5333601
3	0x3f6ed27e	0.93289936
4	0x3f1f71ec	0.62283206
5	0x3f25bac7	0.64738125
6	0x3ecc3277	0.39882252
7	0x3f2c1a2f	0.67227453
8	0x3e5f5702	0.21810535
9	0x3ef9cc62	0.48788744
10	0x3eb28047	0.34863493
11	0x3f179d97	0.5922484
12	0x3f20f5ae	0.6287488
13	0x3f334018	0.70019674
14	0x3ec4b243	0.38417253
15	0x3e94f65e	0.29094213
16	0x3ee2670f	0.44219252
17	0x3ee39ae8	0.44454122
18	0x3f2009a2	0.625147
19	0x3f12a292	0.5727931
20	0x3f219a1b	0.6312577
21	0x3ee30cd1	0.44345716
22	0x3e890fb1	0.26769784
23	0x3f285f9b	0.6577088
24	0x3ed1ad83	0.4095269
25	0x3ecb9ba9	0.39767197
26	0x3e9e9cd7	0.30979034
27	0x3ee11179	0.43958643
28	0x3f802265	1.0010496
29	0x3f597a97	0.8495268
30	0x3f5e2834	0.86780095
31	0x3f218a45	0.6310161
32	0x3f0bb3c7	0.54571193
33	0x3f0b06c3	0.5430719
34	0x3f094e9d	0.5363558
35	0x3ed65075	0.4185826
36	0x3f1903e6	0.59771574
37	0x3f2d391e	0.6766528
38	0x3f418ff1	0.7561026
39	0x3f7caf6b	0.98705167
40	0x3f235ec2	0.63816464
41	0x3e7bd834	0.24594194
42	0x3f842809	1.0324718
43	0x3f61db0a	0.8822485
44	0x3f1622cf	0.58646864
45	0x3f66a554	0.9009602
46	0x3f2299ca	0.63515913
47	0x3ecfba49	0.40571812
48	0x3f0a1a87	0.5394673
49	0x3f2eb444	0.68243814

bachnorm1.bias f4 [50]
0	0x3f2a3240	0.66482925
1	0x3eca0782	0.39458853
2	0xbf51a983	-0.8189928
3	0x3f52efe9	0.82397324
4	0xbe937671	-0.288013
5	0xbf50fbed	-0.8163441
6	0x3f330095	0.69922763
7	0xbed507c5	-0.4160749
8	0xbeefc834	-0.4683243
9	0x3ee703bf	0.45120046
10	0xbf38d829	-0.72204834
11	0x3f35f0be	0.7107047
12	0xbf36eca1	-0.7145482
13	0xbf2789c0	-0.65444565
14	0xbf03016b	-0.5117404
15	0xbdcf6c57	-0.10128086
16	0xbf234f6d	-0.6379307
17	0xbf070bad	-0.5275219
18	0x3f01fef6	0.50779665
19	0xbdfe908e	-0.12429915
20	0x3f256124	0.6460135
21	0x3ee42a17	0.44563362
22	0x3e0faa0f	0.14029716
23	0x3edc5efa	0.4304121
24	0xbe45727f	-0.19281958
25	0x3ef8df0e	0.48607677
26	0x3e130379	0.14356793
27	0xbf144461	-0.5791684
28	0x3f54837a	0.8301312
29	0x3f1490fe	0.5803374
30	0x3eb672e5	0.35634533
31	0xbf2217d3	-0.633176
32	0x3ead3f1f	0.3383722
33	0xbf228436	-0.6348299
34	0x3f0b9442	0.545231
35	0x3e1546f3	0.14577846
36	0x3f0c4eb4	0.5480759
37	0xbf4d1af0	-0.8011923
38	0xbf01a572	-0.50643075
39	0x3f40c61c	0.7530229
40	0xbf381b71	-0.7191687
41	0x3ee966c8	0.45586228
42	0x3f50be51	0.815404
43	0xbf4aa118	-0.7915206
44	0x3f219824	0.63122773
45	0x3f5bc69c	0.8584993
46	0x3dbb0fbe	0.09133862
47	0xbec0cb80	-0.37655258
48	0xbeb54350	-0.35402918
49	0xbf33ae6e	-0.70188034

bachnorm_conv1.weight f4 [6]
0	0x3fc81305	1.5630804
1	0x3eae0871	0.33990815
2	0x3f92c9f1	1.1467878
3	0x3f9a1792	1.2038443
4	0x3ec9eb67	0.3943741
5	0x3f862611	1.0480367

bachnorm_conv1.bias f4 [6]
0	0xbe16eb88	-0.14738286
1	0x3e8efc97	0.27927086
2	0xbec2e43c	-0.38064754
3	0xbe1eb6cd	-0.1549942
4	0x3e5c188a	0.21493736
5	0x3dbd21e0	0.09234977

bachnorm_conv2.weight f4 [3]
0	0x3f126c11	0.57196146
1	0x3f3ce5ec	0.7378833
2	0x3f78e6d4	0.97227216

bachnorm_conv2.bias f4 [3]
0	0x3ea46940	0.3211155
1	0xbf539aaf	-0.82657903
2	0xbd536f57	-0.051619854
