Results/Energy/best_model_becker.pt (torch, 298015 bytes, 13 tensors)

conv1.weight f4 [6, 2, 3]
0	0x3e21d02d	0.15802069
1	0xbed498f8	-0.41522956
2	0xbf18f2e8	-0.59745646
3	0xbe735d38	-0.23766029
4	0xbecd9734	-0.4015442
5	0xbeae42ae	-0.34035248
6	0xbeec3fbd	-0.46142378
7	0xbe84dc62	-0.2594939
8	0x3e1c1b1a	0.15244713
9	0x3e3a2c08	0.18180859
10	0x3ee5d739	0.44890764
11	0x3f179b80	0.5922165
12	0xbee76e8c	-0.45201528
13	0xbdf3b142	-0.118990436
14	0xbe9f9c43	-0.31173906
15	0xbe5c0ebe	-0.21489999
16	0xbee9eaa5	-0.45686832
17	0xbecac27e	-0.3960151
18	0x3eb8acb8	0.36069274
19	0x3e3c3135	0.18378146
20	0x3e5bd01b	0.21466105
21	0xbf65b2c1	-0.8972588
22	0xbe5714c9	-0.21004023
23	0xbe625dcc	-0.22106093
24	0xbdc450cd	-0.09585724
25	0xbe189748	-0.14901459
26	0x3f3e3d27	0.7431206
27	0x3eb22518	0.34793925
28	0x3d31a27d	0.04336785
29	0x3f2733ce	0.6531342
30	0xbef92e87	-0.4866831
31	0xbf5e8310	-0.86918736
32	0xbe830d1b	-0.25595936
33	0x3e7b6854	0.24551517
34	0x3f15d4c2	0.5852777
35	0x3ec9952b	0.3937162

conv1.bias f4 [6]
0	0xbe445def	-0.19176458
1	0xbe846071	-0.2585483
2	0xbea1d475	-0.31607404
3	0xbf49c0b4	-0.78809667
4	0xbb8d8c4d	-0.0043197037
5	0xbce392fc	-0.027780049

conv2.weight f4 [3, 6, 3]
0	0xbde593c6	-0.11209826
1	0x3d6e3ec8	0.05816534
2	0x3d9ae791	0.07563699
3	0xba34018c	-0.00068666856
4	0x3b60b3f2	0.0034286943
5	0x3cc33c6e	0.023832526
6	0xbd8687de	-0.06568883
7	0x3e10e1f7	0.14148699
8	0xbe2b9bf0	-0.16758704
9	0xbec157be	-0.37762254
10	0x3eee800f	0.46582076
11	0xbe990b97	-0.29891655
12	0x3e879ad2	0.26485306
13	0x3f064a3e	0.52457035
14	0x3de6e94b	0.11274966
15	0x3e0aeb05	0.13566215
16	0x3e93e164	0.28882897
17	0x3f1b087e	0.60559833
18	0xbe1ab6a3	-0.15108733
19	0xbebda1eb	-0.37037596
20	0xbe4e5f17	-0.20153461
21	0xbea73ef8	-0.3266523
22	0xbeee87fc	-0.46588123
23	0xbe907a41	-0.28218272
24	0xbef567a2	-0.47930628
25	0xbc287056	-0.010280689
26	0x3caf7376	0.02141736
27	0x3f240686	0.64072454
28	0x3eac9c22	0.3371287
29	0x3f1adc6c	0.6049259
30	0xbcad7b7a	-0.021177042
31	0xbd7b5425	-0.061359543
32	0xbd7ca015	-0.061676104
33	0xbdaa3484	-0.08310798
34	0x3c35654e	0.011071516
35	0xbe350acb	-0.17679898
36	0xbeb41e15	-0.351792
37	0xbe2b5b2d	-0.16734
38	0xbe0eac81	-0.13932993
39	0xbe33dffd	-0.17565913
40	0xbe418519	-0.18898429
41	0xbeb09315	-0.34487215
42	0xbec441a3	-0.38331327
43	0xbe496ee0	-0.19671202
44	0xbe8d237d	-0.27566138
45	0x3eb92d71	0.36167482
46	0x3ecb0f41	0.39660075
47	0xbd3e7519	-0.04649839
48	0xbe678e22	-0.22612813
49	0xbf20ef23	-0.62864894
50	0xbf07f628	-0.5310998
51	0xbe903ec0	-0.28172874
52	0xbe80fe2e	-0.25193924
53	0xbe9b22d7	-0.30300018

conv2.bias f4 [3]
0	0xbe8218fd	-0.2540969
1	0xbe7d967f	-0.24764441
2	0x3e8668e4	0.262519

dense1.weight f4 [50, 1460]
0	0xbe94877e	-0.29009622
1	0xbe8d1111	-0.27552083
2	0xbe877a10	-0.26460314
3	0xbe805c13	-0.25070247
4	0xbe9ab3c2	-0.3021527
5	0xbe82f79e	-0.25579542
6	0xbe87bf22	-0.2651301
7	0xbe9f242f	-0.31082293
8	0xbe6d7eda	-0.23192921
9	0x3ed3b58d	0.4134945
10	0xbe9eadcc	-0.30991971
11	0x3d8398f4	0.06425658
12	0x3e97c011	0.29638723
13	0xbe983287	-0.2972605
14	0xbe9d02cc	-0.30666196
15	0xbe26b7f9	-0.16281117
16	0x3ef907e8	0.48638844
17	0xbd494b71	-0.049144212
18	0xbe0ba8d0	-0.13638616
19	0xbe4c1c96	-0.1993278
20	0x3eedf02f	0.46472308
21	0xbe86cbeb	-0.26327452
22	0xbe91c4d2	-0.28470474
23	0xbede936b	-0.43471846
24	0xbece3499	-0.40274504
25	0xbea2d992	-0.31806618
26	0xbe8fc740	-0.28081703
27	0xbec9b3bb	-0.39394936
28	0x3d2de01c	0.042450055
29	0xbecd42c7	-0.4009001
30	0x3e38e69b	0.18056719
31	0xbe81ed2c	-0.2537626
32	0xbe8b8f3a	-0.2725771
33	0xbeaa9610	-0.33317614
34	0xbe892178	-0.26783347
35	0xbe93c86c	-0.28863847
36	0xbe95b583	-0.29240045
37	0xbea41556	-0.32047528
38	0xbea0a40c	-0.31375158
39	0xbea3a0d5	-0.31958643
40	0xbf040f3a	-0.51585734
41	0xbefd04fd	-0.49417868
42	0xbf0c83ab	-0.5488841
43	0x3d90642b	0.070503555
44	0xbe859f39	-0.2609804
45	0x3dbeb4ad	0.09311805
46	0x3e71394f	0.23557018
47	0x3e88c854	0.26715338
48	0xbeed34ff	-0.46329495
49	0x3e7c6988	0.24649632
50	0x3e8e73d7	0.27822754
51	0xbec6f27c	-0.38856876
52	0xbe780180	-0.24219322
53	0xbeb3f3c3	-0.35146913
54	0xbdc69ff8	-0.0969848
55	0xbcacc423	-0.021089619
56	0xbe8c110f	-0.27356765
57	0xbe88f4b7	-0.26749203
58	0x3f00e38e	0.5034722
59	0xbea93a39	-0.33052233
60	0xbd361dcc	-0.04446201
61	0x3d791992	0.0608154
62	0xbecafe0f	-0.39646956
63	0xbe8a678a	-0.2703212
64	0x3ee1fb1c	0.44136894
65	0x3d2d3c0c	0.042293593
66	0xbe9d3b51	-0.30709317
67	0x3e9c2a1d	0.3050088
68	0x3e2b9637	0.16756521
69	0xbee3c2c5	-0.44484535
70	0xbdcf8938	-0.10133594
71	0xbe93eea6	-0.28893012
72	0xbef9157c	-0.48649204
73	0xbec43d77	-0.38328144
74	0xbeb3be29	-0.35106018
75	0xbe8c1969	-0.27363136
76	0xbe914e00	-0.28379822
77	0xbebf3f3c	-0.37352931
78	0xbeb05497	-0.34439537
79	0xbe8b807a	-0.27246457
80	0x3e2ade8a	0.16686454
81	0xbe56fcf2	-0.20994928
82	0xbeb92282	-0.3615914
83	0xbe837f45	-0.25683036
84	0xbec8a7d5	-0.39190546
85	0x3dbeeb3e	0.09322213
86	0x3e833c13	0.2563177
87	0x3d97ee80	0.07418537
88	0xbea1b25c	-0.3158139
89	0xbefc020b	-0.4922031
90	0xbe2d23d9	-0.16908206
91	0xbef57f2e	-0.47948593
92	0xbe9727a7	-0.2952244
93	0xbe2a3081	-0.16620065
94	0xbdda1ddc	-0.106502265
95	0xbef6d3f2	-0.48208576
96	0xbec9cb82	-0.39413077
97	0x3e329324	0.17438942
98	0x3c8a178a	0.016856927
99	0xbd1c2b91	-0.038127486
100	0x3d1b6d55	0.037946064
101	0xbd94db50	-0.07268393
102	0xbe91c75a	-0.28472406
103	0xbeab41ba	-0.33448583
104	0x3ee87298	0.45399928
105	0x3de90dbe	0.11379574
106	0x3e4b17bb	0.19833271
107	0x3e85d2eb	0.2613748
108	0x3e8ad86b	0.2711824
109	0x3dd579e0	0.104236364
110	0xbe0abe66	-0.13549194
111	0x3e4829e1	0.19547226
112	0x3df53063	0.1197212
113	0x3eeedc65	0.46652523
114	0x3e07e48d	0.13270779
115	0x3da63305	0.081152
116	0x3ea448f9	0.32086924
117	0xbf0d0d87	-0.55098766
118	0xbe80a3d4	-0.2512499
119	0x3ddf5076	0.109040186
120	0x3ec5adc3	0.38609132
121	0x3ca6670f	0.020312814
122	0xbdd49241	-0.10379458
123	0x3e537519	0.20650138
124	0x3ea5dc98	0.32394862
125	0x3e40ca6c	0.18827218
126	0x3eda7c27	0.42672846
127	0x3edbd269	0.42933968
128	0x3e47f233	0.19525985
129	0xbea5b6ad	-0.32365933
130	0xbf0ccb04	-0.5499728
131	0xbf3e5262	-0.74344456
132	0x3dc78985	0.09743027
133	0xbe336e53	-0.17522554
134	0x3e9ad7ce	0.3024277
135	0x3e7d5712	0.24740246
136	0xbbaea313	-0.0053294986
137	0x3ee965e3	0.45585546
138	0xbe47bc47	-0.19505416
139	0x3f0fbe60	0.56149864
140	0x3eed672f	0.46367785
141	0x3ec98db3	0.3936592
142	0x3edeede7	0.4354088
143	0xbd818f5d	-0.063261725
144	0x3e93822a	0.28810245
145	0xbcb43b6a	-0.022000987
146	0x3d5252e2	0.051348574
147	0x3ec71c6e	0.38888878
148	0x3e06d69a	0.13167801
149	0x3e69abd3	0.22819452
150	0x3e327ca9	0.17430367
151	0x3ef15f23	0.47142896
152	0x3ea77634	0.3270737
153	0xbd34b1f0	-0.044115007
154	0x3e1ca7ca	0.15298381
155	0xbef91f3a	-0.48656636
156	0x3dcc20fb	0.09967228
157	0xbf12d413	-0.5735485
158	0x3e01a89f	0.1266198
159	0xbd71a5fd	-0.05899619
160	0xbd74ae46	-0.059736513
161	0xbec51429	-0.38491943
162	0xbec45436	-0.38345498
163	0x3d53a43e	0.051670305
164	0xbe938b83	-0.28817376
165	0x3f212a87	0.62955517
166	0xbee56ebd	-0.4481105
167	0x3d403e9b	0.046934705
168	0xbdb055c7	-0.08610111
169	0x3eacfcd8	0.33786654
170	0x3ed87699	0.42277983
171	0xbe9a2b28	-0.3011105
172	0xbe7c1c82	-0.2462025
173	0xbf0d1a8c	-0.5511863
174	0xbe59e488	-0.21278584
175	0xbea80053	-0.32812747
176	0xbd8ecae1	-0.0697229
177	0x3d314b03	0.043284427
178	0x3e18c0b0	0.14917254
179	0xbe9501b7	-0.2910287
180	0x3e09371b	0.13399927
181	0x3e6089d1	0.21927573
182	0x3f00f14f	0.5036821
183	0x3ecf8e29	0.40538147
184	0x3f01d658	0.5071769
185	0x3f067d6e	0.5253514
186	0x3efb1aa6	0.4904377
187	0x3eeee2ae	0.46657318
188	0xbe280371	-0.16407563
189	0xbdd9c651	-0.10633529
190	0xbe3332c2	-0.17499831
191	0x3eb79b46	0.35860652
192	0x3ebfaa6e	0.37434715
193	0x3d938c52	0.07204498
194	0xbed35f16	-0.41283482
195	0xbf045cf2	-0.51704323
196	0xbea60df1	-0.3243251
197	0xbdb96fd2	-0.09054531
198	0x3d5022f1	0.050814573
199	0xbd236aa1	-0.03989661
200	0x3d97145f	0.07376932
201	0xbe3ee8a6	-0.18643436
202	0xbea0ef43	-0.31432542
203	0xbeb5f236	-0.35536355
204	0x3eee1d50	0.4650674
205	0xbea19007	-0.31555197
206	0xbe7ce59b	-0.24696963
207	0xbe9a37b8	-0.30120635
208	0xbea7bd1b	-0.32761464
209	0xbf08b319	-0.5339828
210	0xbea318af	-0.3185477
211	0xbea960b7	-0.330816
212	0xbeb42888	-0.35187173
213	0x3db025c0	0.0860095
214	0xbeaf21ad	-0.3420538
215	0xbe7aabea	-0.24479643
216	0xbee4333d	-0.44570342
217	0xbec4d68d	-0.3844494
218	0xbeb7bc8c	-0.35886037
219	0xbedbbd89	-0.4291804
220	0xbea80834	-0.32818758
221	0xbecfbeee	-0.40575355
222	0xbea72c12	-0.3265081
223	0xbe909f57	-0.28246567
224	0x3e931405	0.2872621
225	0xbecf2bbd	-0.40463057
226	0xbea9066a	-0.33012706
227	0xbe9257a6	-0.28582495
228	0xbe8cb332	-0.27480465
229	0xbee3d782	-0.44500357
230	0xbeaa0297	-0.332051
231	0xbe6a6c72	-0.22892931
232	0xbecb0f4e	-0.39660114
233	0x3e118280	0.14209938
234	0xbef958e4	-0.4870063
235	0xbea29fa3	-0.31762418
236	0xbec128dc	-0.37726486
237	0xbec43bd0	-0.38326883
238	0x3e157899	0.14596786
239	0xbeb7561b	-0.3580788
240	0xbe9d2f69	-0.30700234
241	0x3e772ab5	0.24137385
242	0xbe9fabd9	-0.31185797
243	0xbe8159dd	-0.25263873
244	0xbea4ca62	-0.32185656
245	0xbe975bcb	-0.2956222
246	0x3dd9435e	0.106085524
247	0xbec155d8	-0.37760806
248	0xbeabf9f0	-0.33589125
249	0xbed58c64	-0.41708672
250	0xbe9807f8	-0.2969358
251	0x3ee3e4a6	0.44510382
252	0xbe6d1fd8	-0.23156679
253	0xbea15d51	-0.31516507
254	0x3ef4864e	0.47758716
255	0xbeaa2e65	-0.3323852

dense1.bias f4 [50]
0	0xbe9f62b9	-0.31130007
1	0x3e8e1e65	0.27757564
2	0x3f28a6f8	0.65879774
3	0x3e961af8	0.2931745
4	0xbe3fe393	-0.18739156
5	0xbee22b09	-0.44173458
6	0xbd169a35	-0.036768157
7	0x3ee38fd0	0.44445658
8	0x3e90d462	0.28287035
9	0x3df55f6f	0.11981093
10	0xbef75531	-0.48307183
11	0x3ee45f6e	0.44604057
12	0xbeedf08f	-0.46472594
13	0x3ee3999e	0.44453138
14	0x3e983bd4	0.29733145
15	0xbf061aa4	-0.523844
16	0x3ec24c43	0.37948808
17	0xbe22ccef	-0.15898488
18	0xbe9eb63f	-0.30998418
19	0xbe88f3ce	-0.26748508
20	0x3ea093fe	0.3136291
21	0xbedbd52a	-0.4293607
22	0xbe5c46d6	-0.21511397
23	0x3c93c189	0.01803662
24	0xbeb4cfb4	-0.35314715
25	0x3e5742c9	0.2102157
26	0xbf0ad9ef	-0.5423879
27	0xbe339903	-0.17538838
28	0x3ed7aded	0.42124882
29	0x3e93b9e9	0.28852776
30	0x3ebc2992	0.36750466
31	0x3e963468	0.29336858
32	0xbead33ef	-0.33828685
33	0xbeb74d16	-0.35801
34	0x3e0a5a7e	0.13511083
35	0x3e1664f8	0.14686954
36	0xbdf20fb8	-0.11819404
37	0x3e9a63b8	0.30154204
38	0x3ea64096	0.3247115
39	0x3debd093	0.11514392
40	0xbebda6a9	-0.37041214
41	0xbea48613	-0.3213354
42	0xbea8455b	-0.32865414
43	0xbe86fa2e	-0.26362747
44	0x3ed73fb7	0.42040798
45	0x3e9ca53a	0.30594808
46	0x3e9f2877	0.3108556
47	0xbe3fd50a	-0.18733612
48	0xbead6ee1	-0.33873656
49	0x3e82a673	0.25517616

dense2.weight f4 [1, 50]
0	0xbdeb014b	-0.11474856
1	0x3e2e2195	0.17004998
2	0xbdb13a1e	-0.08653663
3	0xbee755cd	-0.45182648
4	0xbecd0c70	-0.40048552
5	0x3ba4c3b2	0.0050282115
6	0xbcbdeb7b	-0.023183575
7	0xbe1a5648	-0.15071976
8	0x3cb106e3	0.02160973
9	0xbea93cb6	-0.3305413
10	0xbe43a1c7	-0.19104682
11	0xbe50b13f	-0.20380114
12	0xbec001ce	-0.37501377
13	0xbe942560	-0.28934765
14	0xbead3639	-0.3383043
15	0xbf012862	-0.50452244
16	0xbec53e65	-0.38524166
17	0xbefd6f2b	-0.49498877
18	0xbe7f035c	-0.24903625
19	0xbf21a45a	-0.63141406
20	0xbb87734c	-0.0041336175
21	0xbecfc5b6	-0.4058053
22	0x3e1a32e2	0.15058473
23	0xbecbd96c	-0.39814317
24	0x3cda540a	0.026651401
25	0x3d46ff86	0.04858353
26	0x3e0ff056	0.14056525
27	0xbf639d0f	-0.8891153
28	0xbe2c9808	-0.1685487
29	0x3bc72cb1	0.0060783257
30	0x3ccd1854	0.025036015
31	0x3dc6d640	0.09708834
32	0xbe5f4b9c	-0.21806186
33	0xbd964535	-0.07337419
34	0xbebdf3a8	-0.37099957
35	0x3dbeacb0	0.09310281
36	0xbf0c2581	-0.54744726
37	0xbc5a657f	-0.013329863
38	0xbe29e385	-0.16590698
39	0xbe04e0ab	-0.12976329
40	0xbddf1892	-0.10893358
41	0x3ad11ec8	0.0015954608
42	0xbd465829	-0.04842392
43	0xbeb962ed	-0.36208287
44	0x3e12f2da	0.14350453
45	0xbe05aedc	-0.13054985
46	0x3e8236d1	0.25432447
47	0x3d0cf85b	0.034416538
48	0x3cf153c7	0.029458893
49	0xbe06a8b3	-0.13150291

bachnorm1.weight f4 [50]
0	0x3ed39146	0.41321772
1	0x3edddb2b	0.43331274
2	0x3f37e5ab	0.7183482
3	0x3f6eda32	0.9330169
4	0x3f0d366d	0.5516117
5	0x3f004597	0.50106186
6	0x3ee27960	0.44233227
7	0x3f01c098	0.506845
8	0x3f1be47f	0.6089553
9	0x3e944eab	0.2896627
10	0x3f671b8c	0.9027641
11	0x3df51b54	0.11968103
12	0x3f34f519	0.7068649
13	0x3ea30434	0.31839144
14	0x3ed6597c	0.41865146
15	0x3f5cebbf	0.8629722
16	0x3f2edc01	0.6830445
17	0x3f005514	0.5012982
18	0x3f151bae	0.5824536
19	0x3f5f03a8	0.87114954
20	0x3f0cf49e	0.55060756
21	0x3f9972d1	1.1988164
22	0x3ef6079c	0.4805268
23	0x3f376ec1	0.7165337
24	0x3ca61500	0.020273685
25	0x3e829fc4	0.25512516
26	0x3ede74b2	0.43448406
27	0x3f88a113	1.0674156
28	0x3eda01ca	0.4257949
29	0x3e74bfdc	0.23901314
30	0x3d239ddc	0.03994547
31	0x3e76f3f9	0.24116506
32	0x3efa2f11	0.48864034
33	0x3e9ce989	0.30646923
34	0x3f6f47e7	0.9346909
35	0x3eed670c	0.4636768
36	0x3f56edd9	0.83956677
37	0x3e14bc56	0.1452497
38	0x3f0fafc0	0.5612755
39	0x3f1840ed	0.5947407
40	0x3ec95768	0.39324498
41	0x3ea7717d	0.32703772
42	0x3e80b58b	0.25138506
43	0x3eef58c3	0.46747407
44	0x3f07e1c2	0.53078854
45	0x3e24b217	0.16083561
46	0x3eaca1c6	0.33717173
47	0x3f1c5124	0.6106131
48	0x3f1063cf	0.56402296
49	0x3f426c6a	0.75946677

bachnorm1.bias f4 [50]
0	0xbf0ee76a	-0.5582186
1	0xbf13f176	-0.57790315
2	0xbec5d32c	-0.38637674
3	0x3f78b77e	0.97154987
4	0x3f2aad73	0.6667091
5	0xbf425f05	-0.7592624
6	0xbe9a2c48	-0.3011191
7	0x3f0a8a1b	0.5411698
8	0xbee9567b	-0.45573792
9	0x3f81df0e	1.0146196
10	0xbe55185c	-0.20810074
11	0x3f073506	0.5281528
12	0xbeebf026	-0.46081656
13	0x3f1a2a86	0.60221136
14	0x3e9be34a	0.30446845
15	0x3edac367	0.42727205
16	0x3f770696	0.96494424
17	0x3f6b13ca	0.9182707
18	0x3ead360c	0.33830297
19	0x3f60f458	0.8787284
20	0x3f191f89	0.59813744
21	0x3e097b42	0.13425925
22	0xbf4738ec	-0.7782123
23	0x3ecc88a7	0.39948007
24	0xbf724ee7	-0.94651645
25	0xbf19ca51	-0.60074335
26	0xbf628700	-0.88487244
27	0x3f76bac5	0.9637874
28	0x3f0208b5	0.50794536
29	0xbf0e5c8a	-0.55609953
30	0x399a1308	0.00029387348
31	0xbec88437	-0.39163372
32	0x3f093ba4	0.5360663
33	0xbf402fb8	-0.75072813
34	0x3f85de24	1.0458417
35	0xbedf07bd	-0.4356059
36	0x3f750de9	0.9572435
37	0x3dde94d8	0.108682334
38	0x3eab7014	0.33483946
39	0xbedb06f7	-0.4277875
40	0xbf64bc30	-0.8934965
41	0xbf3b1bf9	-0.7308956
42	0xbf742fbd	-0.9538534
43	0x3f4f3885	0.80945617
44	0xbf3569a7	-0.7086434
45	0x3f1dff6c	0.6171787
46	0xbedec982	-0.43513113
47	0xbf1bc85b	-0.60852593
48	0x3e034725	0.12820108
49	0xbe411855	-0.18856938

bachnorm_conv1.weight f4 [6]
0	0x3eb95941	0.36200908
1	0x3f84d95a	1.037883
2	0x3f2f6673	0.685157
3	0x3fe85ac9	1.8152705
4	0x3f8824ac	1.0636191
5	0x3f8e65bc	1.1124797

bachnorm_conv1.bias f4 [6]
0	0xbe36e3cc	-0.17860335
1	0x3e2f8cd8	0.17143571
2	0x3f013d76	0.50484407
3	0x3c5bbbbd	0.0134114595
4	0xbe286934	-0.16446382
5	0x3c1a727f	0.009426712

bachnorm_conv2.weight f4 [3]
0	0x3f89ed20	1.077549
1	0x3fb1b88c	1.3884444
2	0x3f3cf22c	0.73807025

bachnorm_conv2.bias f4 [3]
0	0x3eb04557	0.34427902
1	0xbe34f670	-0.17672133
2	0x3e8ef1c8	0.2791884
