Results/Energy/best_model_becker[Conflito].pt (torch, 46047 bytes, 13 tensors)

conv1.weight f4 [6, 2, 3]
000000 d5 7a 27 3f 45 79 8e 3b cc b8 00 3f 38 4a 24 3f
       0.654218 0.0043479525 0.5028198 0.6417575
000010 7a c6 0e b8 60 ac 79 bd 00 22 82 bf b1 0d 7e bf
       -3.4040284e-05 -0.060955405 -1.0166626 -0.9923964
000020 05 2d 1c bb d6 e6 33 bf 5d 48 00 bf a8 35 e1 be
       -0.0023830545 -0.702741 -0.5011042 -0.4398625
000030 46 ae 79 bc 7d 9c 8e bd ce d2 d5 3e 67 6a 30 be
       -0.015239304 -0.069634415 0.41762394 -0.1722809
000040 a5 bd 27 bf 08 68 47 bf bf db a8 3e cf 5a 22 3e
       -0.6552375 -0.77893114 0.32980153 0.15854953
000050 0a 80 49 be 93 92 38 bf 35 64 87 be 96 ea 72 bf
       -0.1967775 -0.72098655 -0.2644364 -0.948892
000060 73 51 01 bd e6 55 dd 3e 0f 22 3e bf 3f ae 55 bf
       -0.031571817 0.43229598 -0.7427072 -0.83469003
000070 04 4c 70 bf 31 2e 51 3f ef 05 dd 3e 32 41 9c bb
       -0.9386599 0.8171111 0.4316859 -0.004768514
000080 65 38 c8 be 7a 59 46 bf 3b b5 c7 be 67 5c a9 be
       -0.39105526 -0.7748028 -0.39005455 -0.3307831

conv1.bias f4 [6]
000000 14 00 9a 3e 6e bf 48 3e cf d0 69 bf bb 3c 49 bf
       0.30078185 0.19604275 -0.9133424 -0.7860829
000010 76 0d ea bd bc 22 3a bf
       -0.11428349 -0.7270925

conv2.weight f4 [3, 6, 3]
000000 39 25 40 3d d7 99 27 3e 5a bb 2a 3e 71 d5 12 bf
       0.0469105 0.16367279 0.16673031 -0.57356936
000010 f0 cf c8 be 38 3e fe be 33 70 7d be 88 2b 6c be
       -0.39221144 -0.49656844 -0.24749832 -0.23063481
000020 43 98 85 be ef ac f9 be 3b 99 11 bf a9 82 ce be
       -0.2609273 -0.4876475 -0.56874436 -0.4033406
000030 30 00 e5 3e dd 51 b7 3e bf 68 c5 3d 47 4c 5e bf
       0.44726706 0.35804644 0.09639119 -0.8683514
000040 64 b2 6d bf 5d da 10 bf da 59 24 3e a7 1d bb bd
       -0.9285033 -0.56583196 0.160499 -0.09136515
000050 d3 9b b7 3c 25 9e 24 3f 1a 2b 9a be a8 22 c2 bb
       0.02241317 0.6430381 -0.3011101 -0.0059245415
000060 0a 88 5b 3f a9 8d 2e 3f e6 70 48 3f 0a d5 3a 3f
       0.85754454 0.68184906 0.7829727 0.7298132
000070 82 5d 13 3f 37 67 e2 be 7e b0 46 be f9 eb 1b 3d
       0.57564557 -0.44219372 -0.19403264 0.038066838
000080 a4 86 ce bd d5 d4 01 3f 20 3c 51 3f 4a 91 c5 be
       -0.100842744 0.5071538 0.8173237 -0.3858741
000090 d6 7e 80 3e fd 04 48 3f 99 40 81 3d fc c6 8e bd
       0.25096768 0.7813261 0.06311149 -0.06971547
0000a0 ed c6 2d 3f 2b 8e 0e 3f 07 98 3c 3c d4 f0 29 3b
       0.6788166 0.5568568 0.0115108555 0.0025930898
0000b0 c7 15 5c 3f c9 ac eb 3e 2e b3 50 3f 65 58 1c be
       0.8597073 0.46030262 0.81523407 -0.15268095
0000c0 b4 49 07 bd a4 b7 a8 3c b4 59 b6 3d 7b 71 f6 3e
       -0.033029273 0.02059538 0.08903828 0.48133454
0000d0 a6 71 2b 3f ea 51 7e 3b
       0.6697029 0.0038806149

conv2.bias f4 [3]
000000 66 6b 26 3f 98 fb 1b bf 85 bb dd bd
       0.65007627 -0.60930777 -0.10826782

dense1.weight f4 [50, 200]
000000 91 26 b0 3e 38 fd aa 3e 3a c1 c4 be f5 bf 8d be
       0.34404424 0.33396316 -0.3842867 -0.27685514
000010 cb b6 a5 be 97 33 95 be 40 df d6 be 46 48 d4 be
       -0.32366022 -0.29140922 -0.419672 -0.4146139
000020 e8 4b 2d bf da 38 b0 be 89 69 c7 be 4b 03 63 3d
       -0.6769395 -0.34418374 -0.38947704 0.055423062
000030 1e a8 45 3c c9 d3 95 3e ff 24 6c 3e dd a1 86 3e
       0.012064008 0.29263142 0.23060988 0.26295367
000040 54 13 61 3e 06 ba 6e 3e e4 1c 48 3e db 9f a9 3e
       0.2198003 0.2331315 0.19542271 0.33129773
000050 5a d3 83 3e d0 bb b5 3e f6 d2 80 3e 87 64 9b 3e
       0.25747186 0.35494852 0.2516095 0.30350134
000060 7b c0 86 3e da 60 8c be 2b 57 dd 3e e2 5e b3 3e
       0.26318726 -0.27417642 0.43230566 0.35033327
000070 a6 d1 b6 3e ec 83 d8 3e 15 33 2a bd 08 53 a6 3e
       0.35706824 0.42288148 -0.041552622 0.32485223
000080 e7 b0 f2 be bb d7 d3 be 05 c3 9f 3e 2f c7 a5 3e
       -0.4740059 -0.41375527 0.31203476 0.32378528
000090 92 cb 88 3e 70 b7 b8 be a2 ef c0 be 17 63 e2 3e
       0.26717812 -0.36077452 -0.37682825 0.44216225
0000a0 be 21 ef bb 08 4b 94 3d 82 95 40 be b0 97 d3 be
       -0.0072977236 0.072408736 -0.18807033 -0.41326666
0000b0 4e 3d b0 3e 23 86 33 bd 7d fe 16 3e 57 77 f0 be
       0.34421772 -0.043829095 0.14745517 -0.4696605
0000c0 bd 85 a9 be fa a1 33 3e f4 f1 6d 3e 1a 6a d4 3d
       -0.33109847 0.17542258 0.23236829 0.103718
0000d0 a9 c0 a8 be 8a 4a ba 3d bf 40 c1 3e 3b c8 8c 3e
       -0.32959488 0.090962484 0.3774471 0.27496514
0000e0 f4 a7 56 3e fb 60 aa bd dc 59 bf 3e 14 83 2a 3a
       0.20962507 -0.08319279 0.37373245 0.00065045175
0000f0 00 61 84 be 34 91 6f 3e 96 57 b9 3e f5 69 5b be
       -0.25855255 0.23395234 0.36199635 -0.21427138
000100 e1 ec 92 be 15 f0 85 3e 82 7b 49 be 6d 4e c1 3e
       -0.2869635 0.2615973 -0.1967602 0.37755147
000110 fd 82 d7 3e 99 c6 c1 3e 09 54 8f 3e 7e d7 a4 3e
       0.42092124 0.3784683 0.279938 0.32195657
000120 c4 b3 e9 3e 6f 59 09 3f b2 4f 9e 3e aa 9a b9 3e
       0.45644963 0.5365209 0.30920178 0.36250812
000130 58 51 ae 3e 7b 95 d1 3e 14 a9 70 be 76 b8 9d be
       0.34046435 0.40934357 -0.23501998 -0.30804795
000140 96 cd bb be d8 4a 97 be 51 5b 8a be ff ef 7e be
       -0.36680287 -0.2954929 -0.27022794 -0.24896239
000150 94 b3 79 be a6 7f 93 be 47 72 93 be 99 98 7a be
       -0.2438491 -0.28808326 -0.28798124 -0.24472274
000160 d0 69 4c be bd 7a 99 be 2a 19 28 be 15 2e a0 be
       -0.1996224 -0.29976454 -0.1641585 -0.31285158
000170 a0 79 43 be 5b e4 83 be d3 64 b4 be 08 6a 85 be
       -0.19089365 -0.2576016 -0.35233173 -0.26057458
000180 92 dd b3 be 25 66 8e be ea 19 87 be 69 27 b5 be
       -0.35129982 -0.27812305 -0.26386958 -0.3538163
000190 f1 d2 ab be 75 e2 ca 3d 30 f0 96 3e db 5f 83 3e
       -0.33559373 0.099064745 0.29480124 0.2565907
0001a0 f0 28 05 be af 09 87 be 68 90 8d be 36 67 7a be
       -0.13003898 -0.26374575 -0.27649236 -0.24453434
0001b0 c6 b3 8f be f3 da cb be b3 cf 6f be 4d 5b 31 be
       -0.28066844 -0.39815482 -0.23419075 -0.17319985
0001c0 d2 cc 8c be 8f 8f 76 be 52 89 17 3e 10 2d 08 3f
       -0.27500015 -0.24078201 0.14798477 0.5319376
0001d0 74 06 e8 bd f6 6b 38 be 58 2e 6e 3e 75 db 03 3f
       -0.11329356 -0.18009934 0.23259866 0.5150674
0001e0 4e 5b 62 3f 0d 4f a6 3e 5b 06 27 3f 5c 16 65 3e
       0.8842057 0.32482186 0.6524407 0.2237181
0001f0 2f 3f 42 3e dc b2 07 3f 39 c8 1d be 64 09 19 3f
       0.18969415 0.5300729 -0.1540841 0.59779954
000200 a5 33 b2 3e e5 e9 16 be d0 68 df 3e 8c 9f 92 be
       0.34805027 -0.14737661 0.43634653 -0.2863735
000210 78 9f 13 be 30 a1 15 be 4c b2 4f be 70 a5 77 be
       -0.14416301 -0.1461227 -0.20282859 -0.24184203
000220 0a d9 b9 be 58 1a 3e be d3 90 4e 3d 53 38 bf 3e
       -0.362984 -0.18564737 0.050431084 0.3734766
000230 8a a3 aa 3e 38 7c 59 3e 92 b4 b0 3e 31 0b 9f 3e
       0.33327895 0.21238792 0.34512764 0.31063226
000240 36 a8 08 3e f2 93 8b 3e c4 6c 19 3d 19 fe 9b 3e
       0.13345417 0.2726131 0.037457243 0.304673
000250 53 4d 61 3e 18 22 a2 3e 3f 64 59 3e 30 6a 1a 3f
       0.22002153 0.31666636 0.21229647 0.6031828
000260 88 32 80 be 68 96 b5 be 7b 08 a0 be 8d 91 83 be
       -0.25038552 -0.35466313 -0.3125647 -0.25696984
000270 88 80 34 be 0b c3 41 be 0c 5b b2 3e 26 30 c8 3e
       -0.17627156 -0.18922059 0.34835088 0.39099234
000280 44 87 07 3f 14 8a 6b be 48 4c c6 3e 59 eb b9 be
       0.52940774 -0.23001891 0.38730073 -0.3631237
000290 38 2b c2 be 23 69 8d be 98 a5 c4 be 07 9b 15 be
       -0.37923598 -0.27619275 -0.38407588 -0.1460992
0002a0 b9 3b e6 3e 46 20 5d 3e 57 6b 90 3e 27 10 af be
       0.4496744 0.21594343 0.28206894 -0.3419201
0002b0 45 42 bb 3e b8 c5 60 3e 0f 7b 7d 3e 03 0f 4a 3e
       0.36573997 0.21950424 0.24753974 0.19732289
0002c0 f3 5f ae 3e fc 59 9e 3e dc 6d 23 be 43 ba b7 3e
       0.34057578 0.30928028 -0.15959877 0.35884294
0002d0 15 b0 cf 3e 57 e9 98 be 3d a0 f7 3d 05 c4 98 be
       0.40564027 -0.29865524 0.1209111 -0.2983705
0002e0 68 ae ce 3d 68 21 d0 bc 94 ad 3b 3f c5 7c 09 3f
       0.10091859 -0.025406554 0.73311734 0.5370601
0002f0 00 d9 de 3e 43 60 d9 3e ac f8 c9 3e a7 2a 6c 3e
       0.43524933 0.42456254 0.39447534 0.23063146
000300 b7 94 d6 3e 46 c3 87 be 19 13 6b be 0a f2 83 3e
       0.41910335 -0.2651617 -0.22956504 0.257706
000310 ee 6d b5 3e f7 a4 2f 3f 44 9f cb 3e 65 b5 b1 3e
       0.35435432 0.6861109 0.39769948 0.34708706
000320 51 35 2a bf 08 a1 2d bf d1 ce 2f bf 98 91 34 bf
       -0.66487604 -0.6782384 -0.6867495 -0.7053466
000330 98 7c 2e bf 6c 49 35 bf a2 08 44 bf 89 34 4b bf
       -0.68158865 -0.7081516 -0.7657567 -0.7937704
000340 16 7a 42 bf fb dc 47 bf 24 f7 2a bf fa 01 2c bf
       -0.7596754 -0.78071564 -0.66783357 -0.67190516
000350 54 f6 35 bf 2a 34 2e bf 4f 7f 51 bf cf d6 20 bf
       -0.7107899 -0.68048346 -0.8183488 -0.6282777
000360 7c 10 12 bf 38 e0 1c bf e7 fc 29 bf 12 d0 f9 be
       -0.57056403 -0.6127963 -0.66401523 -0.48791558
000370 3e 10 e1 bd 51 0c 05 bd fc b0 cc bd ee ed 8f be
       -0.10989426 -0.03248245 -0.099946946 -0.28111213
000380 a3 e6 c0 bd da 7e 1f bf a9 5b 24 bf 48 69 1b bf
       -0.094189905 -0.62302935 -0.6420236 -0.6070752
000390 71 a3 d5 be 1e c2 d5 bd 60 1e 26 bc 36 f8 2a bf
       -0.41726258 -0.104374155 -0.010139078 -0.6678499
0003a0 75 94 0c bf 83 5e 19 bf 22 f0 01 bf 2d aa 0f bf
       -0.5491403 -0.5990984 -0.5075704 -0.5611904
0003b0 61 7e 0e bf 5c e5 87 bd 09 fc 97 bd 33 8c 9c 3e
       -0.5566159 -0.06635544 -0.07421119 0.30575714
0003c0 e9 eb 9d 3c 67 a6 07 bf 7a ef 12 bf 0c 82 f9 be
       0.01927753 -0.52988285 -0.5739666 -0.4873203
0003d0 6b 33 05 bf 7a 5e 29 bf ea 32 0c bf 35 45 86 3e
       -0.5203158 -0.66159785 -0.5476519 0.26224676
0003e0 50 8a b7 be 82 72 81 be 49 a3 a1 3e 8d fb 96 3e
       -0.35847712 -0.25282675 0.3156989 0.29488793
0003f0 b4 3f b8 3e 06 76 cb 3e 02 41 7b 3e 22 7e 28 3e
       0.35986102 0.39738482 0.24536517 0.16454366

dense1.bias f4 [50]
000000 49 dd b1 3e 6d 02 82 be b7 71 ca be 40 29 a8 ba
       0.3473914 -0.25392476 -0.39539883 -0.0012829676
000010 ae 5a df be b2 ca b4 be 89 e2 c3 bd 86 54 ae be
       -0.4362387 -0.35310894 -0.095646925 -0.3404886
000020 17 f1 97 be b3 96 67 be c3 32 b2 3e 8d ae f2 3e
       -0.29676124 -0.22616081 0.34804353 0.47398797
000030 d0 86 01 3f 9d f7 93 be c5 3f d3 be 3d 57 6a be
       0.5059633 -0.2889985 -0.4125959 -0.22884841
000040 87 1b 87 3e 01 d6 93 be 60 a9 61 3b 36 01 94 3e
       0.2638819 -0.2887421 0.003443323 0.28907174
000050 38 a9 5d 3d 34 fd 8b 3e 70 c6 02 3d 5f a6 47 3e
       0.054116458 0.27341616 0.031927526 0.1949706
000060 96 e5 7c 3e c8 f2 c8 3e 38 76 95 3e e2 b1 53 bd
       0.24696955 0.39247727 0.29191756 -0.051683314
000070 ab 3f b2 3e fc 09 82 3e f6 ae c9 be 79 54 54 bc
       0.348142 0.25398242 -0.39391297 -0.012959593
000080 ba 99 7d be c9 a3 98 be 21 5b 29 be 43 98 b7 be
       -0.24765673 -0.29812458 -0.16538669 -0.35858354
000090 48 1d af 3d ed 94 71 be 03 b5 b2 be 4f e8 88 3e
       0.08550507 -0.23591967 -0.34903726 0.26739737
0000a0 3e 9c c4 be 8d 93 bd be 64 92 1d be 6f a8 81 be
       -0.38400453 -0.37026635 -0.15387875 -0.25323817
0000b0 20 fe c7 be 73 76 83 be 7c 46 8f 3e 53 6f 1f be
       -0.3906107 -0.25676307 0.27983463 -0.1556981
0000c0 82 41 a9 be a6 ac e3 3e
       -0.3305779 0.44467658

dense2.weight f4 [1, 50]
000000 74 28 15 be 35 47 5e bf 72 c3 06 be 3e 56 84 bf
       -0.14566213 -0.86827403 -0.13160494 -1.0338819
000010 9e ff 86 bf db d5 44 bf 31 3c a4 be 87 20 84 bf
       -1.0546758 -0.7688882 -0.32077172 -1.0322427
000020 26 d3 34 3f c8 bb 42 3f 00 2e 8b be 49 22 00 3f
       0.70634687 0.7606778 -0.27183533 0.50052315
000030 19 b6 95 bd e0 3d 86 bf 1e 71 86 bf 66 f1 12 be
       -0.07310123 -1.0487633 -1.0503271 -0.14349899
000040 b5 5d d3 3d 36 9d 83 3e 4e 0a 8f bf 2c 71 db 3a
       0.103206076 0.2570588 -1.117502 0.0016742102
000050 cc fd 7b bf 51 41 bd 3d 6a 09 3a be 64 61 b6 be
       -0.9843414 0.09240974 -0.18167654 -0.35621178
000060 3a 18 68 3e 96 46 0f bf 93 5c 76 be b0 11 74 be
       0.22665492 -0.5596708 -0.24058752 -0.23834872
000070 f1 0e 2d bc 6a cc 42 bf 47 fa 6c bf a8 d0 1e 3e
       -0.010562644 -0.7609316 -0.9256939 0.15509284
000080 94 30 c8 bc 18 9f 73 be ab 70 79 be a8 ae 5e 3f
       -0.024437226 -0.23791158 -0.24359386 0.86985254
000090 c3 77 0d bf 29 a7 5d 3f 81 a2 3d bf b5 98 61 3e
       -0.55260867 0.8658319 -0.74076086 0.2203091
0000a0 92 9b 94 3f 7d 92 0e bf 86 00 70 3f 66 3c 75 be
       1.1609976 -0.55692273 0.937508 -0.23948821
0000b0 e6 b1 c7 3c 15 5d bc 3e cf 3a ec bc 9d 17 9c 3d
       0.02437682 0.36789766 -0.028836636 0.076216914
0000c0 09 cb e3 be 9f c0 a1 3e
       -0.4449084 0.3159227

bachnorm1.weight f4 [50]
000000 1f c3 d5 3e 75 11 7e 3f db c8 61 3f 00 00 80 3f
       0.41750428 0.9924539 0.88197106 1.0
000010 6d 5a 19 3f 3d 5c 27 3f 6d c4 8e 3f f5 e0 65 3e
       0.59903604 0.6537512 1.1153694 0.22449096
000020 81 56 46 3f b8 f7 3b 3f e1 27 88 3f 27 ed 03 3f
       0.77475744 0.73424864 1.063717 0.5153374
000030 12 78 09 3f 17 6e 25 3f f5 7c 1c 3f 16 e0 40 3f
       0.5369884 0.6462111 0.6112817 0.7534193
000040 bf 7c d3 3e 77 36 33 3f 00 00 80 3f d9 c9 2c 3f
       0.4130611 0.7000498 1.0 0.67495495
000050 00 00 80 3f af 1f be 3e a4 3c 13 3f da 6d 93 3f
       1.0 0.37133548 0.57514405 1.1517899
000060 2e 07 e2 3e 85 1c 9f 3f 89 ec 57 3f 2e 6f 9a 3f
       0.44146103 1.2430578 0.843453 1.2065179
000070 f4 20 35 3f b9 66 dc 3f fd b8 3a 3f f3 f9 23 3f
       0.7075341 1.7218848 0.7293852 0.6405327
000080 d7 59 45 3f b9 ba 2f 3f 77 9c 69 3f 2a b5 20 3f
       0.7709021 0.6864429 0.9125437 0.62776434
000090 eb fc cc 3f b8 f7 3b 3f 38 6a 82 3f 8e d6 18 3f
       1.6014684 0.73424864 1.0188665 0.59702384
0000a0 9e 8a 1c 3f 60 92 c2 3e 02 f9 38 3f 8a 6d 63 3f
       0.61149013 0.380023 0.72254956 0.8883902
0000b0 09 d4 00 3f 94 96 b4 3e 9d c5 fc 3e 4a 2c 35 3f
       0.5032354 0.35271132 0.49369517 0.70770705
0000c0 ed eb 16 3f b0 ad cb 3e
       0.58953744 0.3978095

bachnorm1.bias f4 [50]
000000 a7 1c e7 3e 98 82 29 3f e5 06 12 3f a7 2d 83 3f
       0.45139048 0.66214895 0.5704177 1.0248307
000010 e4 fd 86 3f 9a 45 26 3f 66 65 4f be 7d 4b 3c 3f
       1.0546231 0.64949954 -0.20253524 0.73552686
000020 8e 72 77 bf 56 e9 8e bf c3 07 03 3f f3 52 55 bf
       -0.9665917 -1.1164958 0.5118372 -0.83329695
000030 c0 1e c4 3e d0 81 40 3f ab ed 42 3f 7b e8 ed be
       0.3830471 0.7519808 0.761439 -0.4646643
000040 50 c3 9f 3e bd ba 0b bf 97 98 48 3f 17 48 06 3f
       0.312037 -0.54581815 0.78357834 0.5245375
000050 a1 10 7e 3f f7 e9 88 bd b7 56 d9 be 0d 8b 40 3f
       0.99244124 -0.0668525 -0.4244897 0.75212175
000060 e1 1e 87 3e b5 b9 46 3f 70 8f db 3e c9 3b 41 be
       0.26390746 0.77627116 0.42882872 -0.18870462
000070 31 9d 4a 3e 97 34 51 3f 38 df 36 3f 1c 97 91 bf
       0.19786526 0.8172087 0.71434355 -1.137424
000080 a3 25 22 bf a3 39 ef 3e aa 0d 23 3f 4e a0 42 bf
       -0.6333868 0.4672366 0.63692725 -0.76025856
000090 81 f9 16 3f 11 22 76 bf be 58 51 3f 08 11 40 bf
       0.5897446 -0.9614573 0.81776035 -0.7502599
0000a0 32 5a 78 bf 8f 54 37 3f 07 a3 76 bf ce 3d fe 3e
       -0.9701263 0.716134 -0.9634251 0.49656528
0000b0 29 5b a2 3e 35 e0 52 bf 14 b1 8d be 3f 7a f3 be
       0.31710175 -0.8237336 -0.27674162 -0.47554204
0000c0 af 67 74 3f c8 6b 3f 3e
       0.9547071 0.18693459

bachnorm_conv1.weight f4 [6]
000000 db 64 8d 3f 51 70 cb 3e 21 75 a0 3f 82 c9 59 3f
       1.1046404 0.39734128 1.2535745 0.850731
000010 2d c5 66 3e 79 6b d0 3f
       0.22536154 1.6282798

bachnorm_conv1.bias f4 [6]
000000 8c 42 f6 be cf 35 f0 be 97 57 58 bf 52 9c 2d bf
       -0.48097646 -0.46916053 -0.8450865 -0.6781665
000010 3d 85 da bd 81 91 d1 be
       -0.106699444 -0.40931323

bachnorm_conv2.weight f4 [3]
000000 d9 7e 99 3f a7 99 a6 3f 18 d1 8c 3f
       1.1991836 1.3015641 1.100131

bachnorm_conv2.bias f4 [3]
000000 33 57 5b 3e 3e 66 5c 3f a2 72 58 bf
       0.21419983 0.8609351 -0.84549916
