Results/Energy/best_model_becker.pt (torch, 46047 bytes, 13 tensors)

conv1.weight f4 [6, 2, 3]
00000000: ec7a 273f 4009 8f3b 9bb9 003f 7349 243f
00000010: a55b c9b8 cabd 79bd 7720 82bf 3303 7ebf
00000020: ae38 1dbb 04ea 33bf a150 00bf c05c e1be
00000030: 790c 7bbc 54ef 8ebd b2dc d53e f46a 30be
00000040: c3bd 27bf e267 47bf 76f3 a83e e939 223e
00000050: a54f 4bbe 9294 38bf 0362 87be 96ea 72bf
00000060: b330 01bd be54 dd3e 4422 3ebf 7daa 55bf
00000070: 5745 70bf d837 513f fafb dd3e 2a2e c7bb
00000080: 46d7 c5be 0864 46bf 11b7 c7be 4460 a9be
0.6542194 0.0043651164 0.5028321 0.64174575 -9.601497e-05 -0.060972013 -1.0166157 -0.9922363
-0.0023990083 -0.70278955 -0.5012303 -0.44016075 -0.015322798 -0.06979242 0.4176994 -0.172283
-0.6552393 -0.7789289 0.32998246 0.15842403 -0.198546 -0.721017 -0.26441965 -0.948892
-0.031540584 0.43228716 -0.74271035 -0.8346327 -0.93855804 0.81725836 0.43356305 -0.006078501
-0.38640803 -0.77496386 -0.39006856 -0.33081257

conv1.bias f4 [6]
00000000: 7dea 993e f426 4a3e e2bf 69bf ee26 49bf
00000010: 5313 eabd 50f2 39bf
0.30061713 0.19741422 -0.91308415 -0.78575027 -0.11429467 -0.72635365

conv2.weight f4 [3, 6, 3]
00000000: cd64 3f3d b852 273e 9664 2a3e 4803 13bf
00000010: 3f4c c9be fa71 febe ae98 7dbe b3f8 6bbe
00000020: ab66 85be fb9c f9be ed91 11bf 3567 cebe
00000030: 3004 e53e 3259 b73e 9858 c53d b452 5ebf
00000040: 0da6 6dbf 3adf 10bf dd58 243e d820 bbbd
00000050: 3094 b73c 0b9e 243f e03d 9abe 4ab5 c3bb
00000060: 2988 5b3f 298e 2e3f a671 483f c1bd 3a3f
00000070: 3d5e 133f d971 e2be 7cc4 46be b2fb 1b3d
00000080: 658a cebd b0c0 013f 2c57 513f 2593 c5be
00000090: b27c 803e 4302 483f 4130 813d c0d0 8ebd
000000a0: 13c6 2d3f f39b 0e3f 2c56 3c3c 7778 273b
000000b0: f90b 5c3f d0a5 eb3e 13bc 503f 1078 1cbe
000000c0: 5f4f 07bd 8360 a93c fd3a b63d f26e f63e
000000d0: f57c 2b3f 73e9 783b
0.04672699 0.16340148 0.16639933 -0.5742688 -0.39315984 -0.49696332 -0.24765274 -0.2304409
-0.26054892 -0.4875258 -0.5686329 -0.40313116 0.44729757 0.35810238 0.096360385 -0.86844945
-0.928315 -0.56590617 0.16049524 -0.09137124 0.022409528 0.64303654 -0.30125332 -0.005972539
0.8575464 0.6818567 0.78298414 0.7294579 0.5756567 -0.44227484 -0.1941089 0.038081832
-0.100849904 0.5068464 0.8177364 -0.38588825 0.25095135 0.7812845 0.06308032 -0.0697341
0.6788036 0.5570671 0.011495154 0.002555398 0.8595577 0.46024942 0.8153698 -0.15280175
-0.03303468 0.020675903 0.0889797 0.4813152 0.66987544 0.0037980943

conv2.bias f4 [3]
00000000: 3567 263f b3f7 1bbf d1a9 ddbd
0.6500123 -0.60924834 -0.108234055

dense1.weight f4 [50, 200]
00000000: 9126 b03e 38fd aa3e 3ac1 c4be f5bf 8dbe
00000010: cbb6 a5be 9733 95be 40df d6be 4648 d4be
00000020: df4b 2dbf da38 b0be 8969 c7be 6303 633d
00000030: 81a8 453c c9d3 953e ff24 6c3e dda1 863e
00000040: 5413 613e 06ba 6e3e e41c 483e db9f a93e
00000050: 5ad3 833e d0bb b53e fad2 803e 8764 9b3e
00000060: 7bc0 863e da60 8cbe 2b57 dd3e e25e b33e
00000070: a6d1 b63e ec83 d83e 1333 2abd 0853 a63e
00000080: e4b0 f2be bbd7 d3be 05c3 9f3e 2fc7 a53e
00000090: 92cb 883e e4c6 b8be 2bfb c0be 8698 e23e
000000a0: b187 79bb d622 993d 9b3c 3cbe 58c3 d2be
000000b0: 3373 b03e bcfd 2fbd bf17 173e a9a6 f0be
000000c0: 05a6 a9be 2763 323e 9ad3 6d3e 856f d53d
000000d0: 8ea7 a8be 380e bd3d 604b c23e c26a 8e3e
000000e0: bbe4 573e 6d46 a8bd 63af bf3e 4caa de3a
000000f0: ad1e 84be f6ce 6f3e fd57 b93e de50 5bbe
00000100: 30bf 92be be1e 863e 827b 49be 6d4e c13e
00000110: f982 d73e 99c6 c13e 0954 8f3e 7ed7 a43e
00000120: bab3 e93e 6e59 093f b24f 9e3e a69a b93e
00000130: 5851 ae3e 7095 d13e 22a9 70be 76b8 9dbe
00000140: 96cd bbbe d84a 97be 515b 8abe ffef 7ebe
00000150: 94b3 79be a67f 93be 4772 93be 9998 7abe
00000160: d069 4cbe bd7a 99be 2a19 28be 152e a0be
00000170: a079 43be 5be4 83be d364 b4be 086a 85be
00000180: 92dd b3be 2566 8ebe ea19 87be 6927 b5be
00000190: f1d2 abbe 4ce2 ca3d 27f0 963e e068 833e
000001a0: 4719 05be 55f4 86be 5278 8dbe 8a18 7abe
000001b0: 8c99 8fbe 4d2c cbbe 909a 6fbe 8c10 31be
000001c0: 28a9 8cbe 6270 76be 1f10 183e 3350 083f
000001d0: 8067 e7bd a3bd 37be c2ee 6e3e 99ff 033f
000001e0: bf8a 623f 4216 a73e 861a 273f 8e3b 5c3e
000001f0: 5482 3f3e 1ccd 073f d763 1dbe ad2f 193f
00000200: 4548 b23e 35cb 16be 5b7b df3e 4197 92be
00000210: 789f 13be 30a1 15be 4cb2 4fbe 70a5 77be
00000220: 0ad9 b9be 961a 3ebe 1b90 4e3d 5238 bf3e
00000230: 8aa3 aa3e 367c 593e 92b4 b03e 290b 9f3e
00000240: 32a8 083e f293 8b3e a96c 193d 19fe 9b3e
00000250: 534d 613e 1822 a23e 3f64 593e 306a 1a3f
00000260: 8832 80be 6896 b5be 7b08 a0be 8d91 83be
00000270: 8880 34be 0bc3 41be 0c5b b23e 2630 c83e
00000280: 4487 073f 148a 6bbe 484c c63e 59eb b9be
00000290: 382b c2be 2369 8dbe 98a5 c4be 129b 15be
000002a0: b73b e63e 592a 5d3e 946e 903e 73f0 aebe
000002b0: d64e bb3e f0f3 603e b0bc 7d3e 352c 4a3e
000002c0: e86f ae3e cc80 9e3e 8fe1 22be f3d4 b73e
000002d0: 2e1e d03e 64a2 98be c707 f93d bdae 98be
000002e0: 140a cf3d 7140 c9bc a8c6 3b3f 11ac 093f
000002f0: eae0 de3e 37fe d33e c99f c83e 3c7d 6c3e
00000300: 7bbd d63e 2aab 87be 67c8 6abe 1eff 833e
00000310: 2375 b53e 03bd 2f3f 449f cb3e 65b5 b13e
00000320: cd2c 2abf 3f98 2dbf 08c6 2fbf 9c88 34bf
00000330: 896d 2ebf 293f 35bf 7eff 43bf 702b 4bbf
00000340: da70 42bf 3bd4 47bf 93ee 2abf 52f9 2bbf
00000350: 0eee 35bf 5d2b 2ebf be76 51bf ebcd 20bf
00000360: e407 12bf 83d7 1cbf 0bf4 29bf 2a81 f9be
00000370: 68c5 dfbd 5be2 02bd 7f6e cbbd 2f9e 8fbe
00000380: 24c4 bfbd ac70 1fbf d852 24bf 7c60 1bbf
00000390: 2346 d5be 6298 d4bd f6e0 1fbc 6cef 2abf
000003a0: 998b 0cbf 8755 19bf 17e7 01bf 9895 0fbf
000003b0: fc6f 0ebf 7429 87bd 3c46 97bd 04bb 9c3e
000003c0: 051e a13c dd9b 07bf 19e7 12bf 5367 f9be
000003d0: 901e 05bf 3c55 29bf 5f2c 0cbf 504b 863e
000003e0: f387 b7be 0870 81be b8e2 a13e a13e 973e
000003f0: d65e b83e a6dc cb3e f114 7c3e 3ab6 283e
0.34404424 0.33396316 -0.3842867 -0.27685514 -0.32366022 -0.29140922 -0.419672 -0.4146139
-0.67693895 -0.34418374 -0.38947704 0.05542315 0.0120641 0.29263142 0.23060988 0.26295367
0.2198003 0.2331315 0.19542271 0.33129773 0.25747186 0.35494852 0.25160962 0.30350134
0.26318726 -0.27417642 0.43230566 0.35033327 0.35706824 0.42288148 -0.041552614 0.32485223
-0.47400582 -0.41375527 0.31203476 0.32378528 0.26717812 -0.36089242 -0.37691626 0.4425699
-0.0038075263 0.074773476 -0.18382494 -0.4116466 0.3446289 -0.04296659 0.14755152 -0.47002152
-0.33134475 0.17420636 0.23225251 0.10421661 -0.32940334 0.09231228 0.37948132 0.27815825
0.21083347 -0.08216558 0.37438497 0.0016988008 -0.25804654 0.23418793 0.36199942 -0.21417567
-0.2866149 0.2619533 -0.1967602 0.37755147 0.42092112 0.3784683 0.279938 0.32195657
0.45644933 0.53652084 0.30920178 0.362508 0.34046435 0.40934324 -0.23502019 -0.30804795
-0.36680287 -0.2954929 -0.27022794 -0.24896239 -0.2438491 -0.28808326 -0.28798124 -0.24472274
-0.1996224 -0.29976454 -0.1641585 -0.31285158 -0.19089365 -0.2576016 -0.35233173 -0.26057458
-0.35129982 -0.27812305 -0.26386958 -0.3538163 -0.33559373 0.09906444 0.29480097 0.2566595
-0.12997924 -0.26358286 -0.2763086 -0.24423423 -0.28046834 -0.39682236 -0.23398805 -0.17291468
-0.27472806 -0.24066308 0.148499 0.53247374 -0.11299038 -0.17943434 0.23333266 0.51561886
0.8849296 0.3263417 0.65274847 0.21507093 0.1870206 0.5304735 -0.15370117 0.5983837
0.34820762 -0.14725955 0.436488 -0.28631023 -0.14416301 -0.1461227 -0.20282859 -0.24184203
-0.362984 -0.18564829 0.0504304 0.37347656 0.33327895 0.21238789 0.34512764 0.31063202
0.13345411 0.2726131 0.037457142 0.304673 0.22002153 0.31666636 0.21229647 0.6031828
-0.25038552 -0.35466313 -0.3125647 -0.25696984 -0.17627156 -0.18922059 0.34835088 0.39099234
0.52940774 -0.23001891 0.38730073 -0.3631237 -0.37923598 -0.27619275 -0.38407588 -0.14609936
0.44967434 0.21598186 0.28209364 -0.34167823 0.36583585 0.21968055 0.2477901 0.19743426
0.34069753 0.3095764 -0.15906356 0.35904655 0.40648025 -0.29811394 0.121596865 -0.29820815
0.10109344 -0.02456686 0.7335 0.5377818 0.4353097 0.41404888 0.39184406 0.23094648
0.41941437 -0.26497775 -0.2292801 0.25780576 0.3544093 0.68647784 0.39769948 0.34708706
-0.6647461 -0.67810434 -0.68661547 -0.7052095 -0.6813589 -0.707995 -0.76561725 -0.79363155
-0.7595345 -0.78058213 -0.66770285 -0.6717731 -0.7106637 -0.6803492 -0.8182181 -0.62814206
-0.5704329 -0.61266345 -0.66388005 -0.48731357 -0.10926324 -0.03195415 -0.09933185 -0.28050372
-0.09363583 -0.622813 -0.6418891 -0.606941 -0.41655073 -0.10380627 -0.009758225 -0.6677158
-0.5490051 -0.5989613 -0.5074324 -0.56087637 -0.55639625 -0.065997034 -0.07386443 0.30611432
0.019667635 -0.52972203 -0.5738388 -0.48711643 -0.5199976 -0.6614568 -0.54755205 0.26229334
-0.3584591 -0.25280786 0.31618285 0.2953997 0.36009854 0.3981678 0.24617364 0.16475764

dense1.bias f4 [50]
00000000: 49dd b13e d9ec 81be 6f6e cabe 4029 a8ba
00000010: 865a dfbe 9aca b4be 9ce2 c3bd 8654 aebe
00000020: 17f1 97be b396 67be be32 b23e 6bae f23e
00000030: d086 013f 99f7 93be b13f d3be 2742 6abe
00000040: 871b 873e 01d6 93be 60a9 613b 3601 943e
00000050: 38a9 5d3d a21e 8d3e e1d3 023d 34a6 473e
00000060: e5ea 7c3e c8f2 c83e 3876 953e 2540 5dbd
00000070: ab3f b23e 88c9 813e f6ae c9be 1055 54bc
00000080: ba99 7dbe c9a3 98be 2c26 29be 3998 b7be
00000090: 851a bc3d ed94 71be 03b5 b2be 4fe8 883e
000000a0: 299c c4be 8d93 bdbe 6492 1dbe 62a8 81be
000000b0: 20fe c7be a076 83be 7c46 8f3e 536f 1fbe
000000c0: 8241 a9be fda7 e33e
0.3473914 -0.25376013 -0.3953738 -0.0012829676 -0.4362375 -0.35310823 -0.09564707 -0.3404886
-0.29676124 -0.22616081 0.34804338 0.47398695 0.5059633 -0.2889984 -0.4125953 -0.22876798
0.2638819 -0.2887421 0.003443323 0.28907174 0.054116458 0.27562433 0.031940345 0.19496995
0.2469898 0.39247727 0.29191756 -0.05401625 0.348142 0.2534907 -0.39391297 -0.012959734
-0.24765673 -0.29812458 -0.16518468 -0.35858324 0.09184746 -0.23591967 -0.34903726 0.26739737
-0.3840039 -0.37026635 -0.15387875 -0.25323778 -0.3906107 -0.2567644 0.27983463 -0.1556981
-0.3305779 0.44464102

dense2.weight f4 [1, 50]
00000000: 2547 13be fc34 5ebf 3b3a 06be 3756 84bf
00000010: 97ff 86bf dbd5 44bf b540 a4be 87d3 83bf
00000020: dcda 323f 8329 423f 9e7b 89be 2a3b fe3e
00000030: a1be 95bd cf3d 86bf 1971 86bf 5e2e 14be
00000040: 231e dd3d e4f8 813e 420a 8fbf 4f25 843b
00000050: b1fd 7bbf 86c1 b93d b0dc 39be 9e23 b4be
00000060: d836 693e 0b7b 11bf 3b29 74be 7413 77be
00000070: 5e50 24bc 222e 46bf e35e 6cbf e799 183e
00000080: 5d93 cabc 9223 73be 3cad 78be 8bd6 5d3f
00000090: c945 0ebf 497a 5d3f f37f 3dbf e39b 613e
000000a0: 7f9b 943f eb88 0abf e159 6f3f 7c34 75be
000000b0: e340 d53c 0623 bc3e 0da4 f5bc 793d 9b3d
000000c0: 315a e3be 5209 a23e
-0.14382608 -0.867996 -0.1310815 -1.0338811 -1.054675 -0.7688882 -0.32080618 -1.0298928
0.698652 0.7584459 -0.26852125 0.49654514 -0.0731175 -1.0487612 -1.0503265 -0.14470813
0.10796764 0.253852 -1.1175005 0.004032768 -0.9843398 0.09070115 -0.18150592 -0.35183424
0.22774827 -0.56828374 -0.23843853 -0.24128515 -0.010028927 -0.77414143 -0.92332286 0.14902459
-0.024728471 -0.23744038 -0.24284834 0.8665549 -0.55575234 0.8651472 -0.7402336 0.22032122
1.1609954 -0.5411517 0.9349652 -0.23945802 0.026031917 0.3674547 -0.029985452 0.07580084
-0.44404748 0.31647736

bachnorm1.weight f4 [50]
00000000: d810 d53e 5d33 7e3f fcd2 613f 0000 803f
00000010: 7f5a 193f 475c 273f 68c4 8e3f 9858 673e
00000020: 8a56 463f b8f7 3b3f 334d 873f 5d84 043f
00000030: cf7d 093f 176e 253f fe7c 1c3f c4ee 403f
00000040: dfd7 d53e 7736 333f 0000 803f a6cc 2c3f
00000050: 0000 803f e8a9 b83e 3f7b 123f d680 923f
00000060: 4d9e e23e 5560 a23f 3d02 573f 2582 9b3f
00000070: 961f 353f 41ff e03f f4b8 3a3f 31c5 233f
00000080: d759 453f c7ba 2f3f d9af 693f 2db5 203f
00000090: 0c21 ce3f b8f7 3b3f 637f 823f 68dc 183f
000000a0: a78a 1c3f 79be c33e 02f9 383f 8a6d 633f
000000b0: 0ed4 003f f493 b43e f126 fd3e 4a2c 353f
000000c0: 2f08 173f 60a7 cb3e
0.41614413 0.99297124 0.8821256 1.0 0.5990371 0.6537518 1.1153688 0.2259239
0.774758 0.73424864 1.0570434 0.5176447 0.53707594 0.6462111 0.6112822 0.7536433
0.4176626 0.7000498 1.0 0.6749977 1.0 0.36067128 0.5721931 1.1445568
0.442614 1.2685648 0.8398779 1.2149092 0.7075132 1.7577897 0.72938466 0.63972765
0.7709021 0.68644375 0.9128395 0.6277645 1.6103835 0.73424864 1.0195125 0.59711313
0.61149067 0.38231257 0.72254956 0.8883902 0.5032357 0.3526913 0.49443772 0.70770705
0.5899686 0.39776134

bachnorm1.bias f4 [50]
00000000: 61cb e53e 9874 293f 02cb 113f a12d 833f
00000010: defd 863f 9a45 263f 55a9 4fbe 4cfb 3b3f
00000020: 5fbc 75bf ef8b 8ebf f98d 003f 94df 53bf
00000030: c716 c43e bf81 403f a5ed 423f 5205 efbe
00000040: 625a a03e 2f35 0bbf 8898 483f 314a 063f
00000050: 8910 7e3f 5f94 83bd cbc5 dabe f15a 3e3f
00000060: 064a 883e b76a 443f fc1d da3e 8b0b 46be
00000070: a653 4a3e 7223 4c3f 0380 363f bf4b 91bf
00000080: 1630 22bf aed2 ee3e f0b5 223f 61fd 41bf
00000090: 5708 153f f8fa 75bf ec35 513f c60b 40bf
000000a0: 175a 78bf 23b0 323f d902 76bf f22c fe3e
000000b0: b889 a23e 40aa 52bf 37c9 8dbe 9206 f3be
000000c0: 37d8 733f 7ae8 423e
0.44881728 0.6619353 0.5695039 1.02483 1.0546224 0.64949954 -0.20279439 0.73430324
-0.95990556 -1.1136454 0.50216633 -0.8276303 0.38298628 0.75197977 0.76143867 -0.46683747
0.31318957 -0.54378027 0.78357744 0.5245696 0.9924398 -0.06424784 -0.4272903 0.74357516
0.26618975 0.76725334 0.42601 -0.19340341 0.19758472 0.79741585 0.7128908 -1.1351241
-0.63354623 0.4664511 0.63558865 -0.7577725 0.5821585 -0.9608607 0.81722903 -0.75017965
-0.97012466 0.69800013 -0.96098095 0.49643666 0.31745696 -0.8229103 -0.27692577 -0.4746595
0.9525179 0.19033995

bachnorm_conv1.weight f4 [6]
00000000: 5f64 8d3f ec34 d53e 2c75 a03f 23c9 593f
00000010: a4cb 663e 5d6f d03f
1.1046256 0.4164194 1.2535758 0.85072535 0.2253862 1.6283985

bachnorm_conv1.bias f4 [6]
00000000: a83a f6be fc28 f0be 824b 58bf 2e92 2dbf
00000010: afad dabd 9f82 d1be
-0.48091626 -0.4690627 -0.84490216 -0.6780118 -0.10677659 -0.40919968

bachnorm_conv2.weight f4 [3]
00000000: 8d85 993f 7c98 a63f e9d0 8c3f
1.1993881 1.3015285 1.1001254

bachnorm_conv2.bias f4 [3]
00000000: 4f59 5b3e 5967 5c3f 126a 58bf
0.21420787 0.86095196 -0.8453685
