Results/Energy/best_model_cnn.pt (torch, 298015 bytes, 13 tensors)

conv1.weight f4 [6, 2, 3]
0	0x3dd4684d	0.10371456
1	0xbe2c72ec	-0.16840714
2	0xbb2a462e	-0.0025981772
3	0x3edd40f6	0.43213624
4	0x3e9e8edf	0.30968377
5	0x3ecf710e	0.4051594
6	0xbed29748	-0.41131043
7	0xbe437ea0	-0.19091272
8	0x3e0148cc	0.12625426
9	0x3dc90c35	0.098167814
10	0x3ecf1ca7	0.40451548
11	0x3f0bdef4	0.54637074
12	0xbf60c1ec	-0.877959
13	0xbeeae98a	-0.458813
14	0xbea07292	-0.3133741
15	0xbe4ed957	-0.20200096
16	0xbecfba9a	-0.40572053
17	0xbec95b7c	-0.3932761
18	0xbcbf0819	-0.023319291
19	0x3bcccfa0	0.0062503368
20	0x3ea48ffa	0.32141095
21	0xbed1e501	-0.4099503
22	0xbdd96459	-0.10614843
23	0xbebad3e9	-0.364898
24	0xbec6d70d	-0.38835946
25	0xbc4d0af6	-0.01251482
26	0x3f5117c5	0.81676894
27	0xbecb6618	-0.3972633
28	0xbeba2df8	-0.36363196
29	0x3e8e9333	0.2784668
30	0xbebb1c6f	-0.3654513
31	0xbf130b39	-0.57439
32	0xbf0f8550	-0.56062794
33	0x3e0ad670	0.13558364
34	0x3f068069	0.5253969
35	0x3e9a834b	0.30178294

conv1.bias f4 [6]
0	0x3f13e46f	0.57770437
1	0xbe5b7311	-0.21430613
2	0xbea34e3e	-0.31895632
3	0xbf3ee03c	-0.74560905
4	0xbe481889	-0.1954061
5	0xbe04f9d6	-0.1298593

conv2.weight f4 [3, 6, 3]
0	0xbe873085	-0.26404205
1	0xbe785869	-0.24252476
2	0xbe892b9f	-0.26791093
3	0xbe8d4b7f	-0.2759666
4	0xbeb89629	-0.36052063
5	0xbee9ddac	-0.45676935
6	0xbee55c1f	-0.44796845
7	0xbeb0a9de	-0.34504598
8	0xbf0793c3	-0.5295984
9	0xbe2f1cb2	-0.1710079
10	0xbeba6049	-0.36401585
11	0x3eb8cb30	0.3609252
12	0x3f02b7e3	0.5106184
13	0x3cf978ae	0.030453052
14	0x3ea66f47	0.32506773
15	0xbee283a7	-0.44241068
16	0xbf091c6d	-0.53559
17	0xbe9e32ca	-0.30898124
18	0xbd7e02a8	-0.062014252
19	0xbec1f273	-0.37880287
20	0xbdb7da2d	-0.089771606
21	0xbdda58b4	-0.1066145
22	0xbeb00191	-0.34376195
23	0xbdd5283b	-0.10408064
24	0xbe926455	-0.28592172
25	0xbe801fe8	-0.25024343
26	0xbe148d20	-0.1450696
27	0x3f271ff9	0.6528316
28	0xbe35eabb	-0.17765324
29	0x3ec89276	0.3917424
30	0xbe862d2a	-0.26206332
31	0xbf0eabae	-0.5573071
32	0xbf0f7950	-0.56044483
33	0xbdcc82a1	-0.09985853
34	0x3d553338	0.0520508
35	0xbdac80f1	-0.08423031
36	0xbecba175	-0.3977162
37	0xbd0870c7	-0.033310678
38	0xbea6c0c4	-0.32568944
39	0xbea49bcd	-0.32150117
40	0xbeedccd4	-0.46445334
41	0xbf0d9792	-0.553094
42	0x3dece5e2	0.11567284
43	0x3e0a22c9	0.13489832
44	0x3d099432	0.033588596
45	0xbe990edb	-0.29894146
46	0xbea20469	-0.3164399
47	0xbee1346b	-0.43985304
48	0x3b8f9e87	0.0043829116
49	0xbe0d227f	-0.1378269
50	0xbe85b7a7	-0.26116678
51	0xbea8e6b8	-0.32988524
52	0xbec6df1c	-0.38842094
53	0xbf15e7df	-0.5855693

conv2.bias f4 [3]
0	0x3ec3c5b8	0.38236785
1	0xbde8430f	-0.113409154
2	0x3f4191af	0.7561292

dense1.weight f4 [50, 1460]
0	0xbe931aae	-0.28731292
1	0x3e9e3654	0.30900824
2	0x3e3424e6	0.175922
3	0x3d9a6172	0.075381175
4	0x3e479cc5	0.19493397
5	0x3ea54e8c	0.3228649
6	0x3e9dabf8	0.30795264
7	0x3df4f0b3	0.11959972
8	0xbea11fb2	-0.31469494
9	0x3e2b2153	0.16711931
10	0x3dfc9ced	0.12334619
11	0xbee161c1	-0.44019893
12	0x3e942e13	0.28941402
13	0x3e9a462c	0.30131662
14	0xbeb09748	-0.34490418
15	0xbeb0d478	-0.345371
16	0xbe1cc188	-0.15308201
17	0x3e869236	0.26283425
18	0xbeb321ef	-0.34986827
19	0xbe900da5	-0.2813541
20	0x3e37e6e1	0.17959167
21	0xbe9873de	-0.297759
22	0xbe939c38	-0.28830123
23	0x3ea8d9db	0.3297871
24	0xbeb8d486	-0.36099643
25	0x3e0eb0d2	0.13934639
26	0x3e22293b	0.1583604
27	0x3e993e7c	0.29930484
28	0xbe5eace8	-0.21745646
29	0xbe955999	-0.2916992
30	0xbef95922	-0.48700815
31	0xbbf6b262	-0.007528589
32	0xbeaec123	-0.34131727
33	0xbea64560	-0.32474804
34	0xbea1b9a7	-0.31586954
35	0xbef87463	-0.48526296
36	0x3e9acf3a	0.30236226
37	0xbe63ff98	-0.2226547
38	0xbeb0dc1a	-0.34542924
39	0xbea44383	-0.32082757
40	0x3e778747	0.24172698
41	0xbead417f	-0.33839032
42	0xbe941f68	-0.2893021
43	0x3e78d6b1	0.24300648
44	0x3ea55941	0.32294658
45	0x3eba7b0c	0.36422002
46	0x3d1325cf	0.03592473
47	0xbe948125	-0.2900478
48	0xbe8b2d0c	-0.27182806
49	0xbe838166	-0.2568466
50	0xbe626569	-0.22108997
51	0xbebca7b6	-0.36846703
52	0x3e883bea	0.2660821
53	0x3ea06b1c	0.31331718
54	0xbdfc7dcb	-0.123286806
55	0x3e08a237	0.1334313
56	0xbe9e0a9d	-0.30867472
57	0xbe91c232	-0.28468472
58	0xbe784539	-0.24245156
59	0xbe88d680	-0.2672615
60	0xbe97b243	-0.2962819
61	0x3e917f6d	0.2841753
62	0x3e808330	0.25100088
63	0xbe929d07	-0.28635427
64	0xbe94cfd5	-0.29064813
65	0xbe951b76	-0.29122514
66	0xbe96fb50	-0.2948861
67	0xbec2eef7	-0.3807294
68	0xbf23225c	-0.63724303
69	0xbeb57a4c	-0.35444868
70	0xbec133fd	-0.37734976
71	0x3e430b41	0.19047262
72	0x3e95b0a2	0.29236323
73	0xbf043705	-0.51646453
74	0xbed70bb9	-0.4200113
75	0x3e83a0df	0.25708672
76	0xbea3876d	-0.3193926
77	0x3eb15575	0.3463551
78	0x3eafa471	0.34305146
79	0x3e8d27e0	0.27569485
80	0x3e85d2dc	0.26137435
81	0x3e0b4158	0.13599145
82	0x3ea0e95d	0.31428042
83	0x3ea38273	0.31935462
84	0x3e9f2042	0.31079298
85	0x3e8af957	0.27143356
86	0xbe974b4d	-0.29549637
87	0x3dd4efcf	0.10397302
88	0x3e9584b3	0.29202804
89	0x3eada65d	0.33915988
90	0x3ea4357f	0.32072064
91	0x3e8ba6ae	0.27275604
92	0x3e8b1748	0.271662
93	0x3e821241	0.25404552
94	0x3e92d44b	0.28677592
95	0xbe9585f4	-0.2920376
96	0xbe9d0772	-0.30669743
97	0xbe8e9a4c	-0.27852094
98	0xbe89ca49	-0.26912144
99	0xbd4b73bf	-0.04967093
100	0xbe9a3c8e	-0.30124325
101	0xbec8764b	-0.3915275
102	0xbdeef11b	-0.11667081
103	0xbdd1ede4	-0.10250452
104	0xbef21f5a	-0.47289544
105	0xbec02702	-0.3752976
106	0xbea60f41	-0.32433513
107	0x3ddef545	0.10886625
108	0xbe9b1f95	-0.30297533
109	0x3e6100b2	0.21972921
110	0xbe75ad11	-0.23991801
111	0x3c8db1ed	0.017296756
112	0xbe616401	-0.22010805
113	0xbee3e85c	-0.44513214
114	0xbea641bb	-0.32472023
115	0xbea3c521	-0.31986335
116	0x3e9e6646	0.30937403
117	0x3e40add9	0.18816318
118	0xbf03f309	-0.5154272
119	0x3e174206	0.1477128
120	0xbdf8ff5f	-0.12158083
121	0x3e9da98b	0.30793414
122	0x3e99bc9f	0.3002672
123	0x3e8703d0	0.26370096
124	0x3e5e4d13	0.21709089
125	0xbe114acb	-0.14188688
126	0xbf362ea4	-0.7116492
127	0x3e7fd084	0.24981886
128	0xbed347c2	-0.41265684
129	0xbe9c8def	-0.30577037
130	0x3e8a4641	0.27006724
131	0xbf2fe3a6	-0.6870674
132	0x3d5c7bf1	0.053829137
133	0xbe2a199e	-0.16611335
134	0x3ea940af	0.33057162
135	0x3e8a0051	0.26953366
136	0xbecf6788	-0.40508676
137	0xbee602a4	-0.4492389
138	0xbf0bf923	-0.5467703
139	0xbd8d51b5	-0.0690035
140	0x3eab7e90	0.33494997
141	0xbe5f6356	-0.21815237
142	0xbd9abf41	-0.0755601
143	0x3e1e84f7	0.1548041
144	0x3e595822	0.21225026
145	0xbed06d64	-0.40708458
146	0xbe857116	-0.2606284
147	0x3e4daeea	0.20086256
148	0xbee4d303	-0.4469224
149	0xbe8054f6	-0.2506482
150	0xbeda3a2d	-0.4262251
151	0xbe984d30	-0.2974639
152	0xbe53683b	-0.2064523
153	0x3e864c50	0.26230097
154	0x3e577f1e	0.21044585
155	0x3e45b592	0.19307545
156	0x3eab15a9	0.33414963
157	0x3e899ca9	0.26877335
158	0xbed919fd	-0.4240264
159	0x3e960459	0.29300192
160	0x3e9444fc	0.2895888
161	0x3e77eae7	0.24210702
162	0x3e659318	0.22419393
163	0x3e86bd87	0.26316473
164	0x3ddf2906	0.108964965
165	0xbe9e7bdc	-0.30953872
166	0xbedd8623	-0.432664
167	0x3e8f4f7b	0.27990326
168	0x3e97e6ff	0.29668424
169	0x3e7470ae	0.23871109
170	0x3da04588	0.07825762
171	0xbeefdbe9	-0.46847466
172	0x3e9fa512	0.31180626
173	0x3e9655c4	0.2936231
174	0xbebe87ec	-0.37213075
175	0xbee1d209	-0.44105557
176	0xbec9ed03	-0.39438638
177	0xbe8fb4aa	-0.28067523
178	0x3eb1a539	0.34696367
179	0x3ea648ca	0.3247741
180	0xbe7aea4a	-0.24503437
181	0x3e9d3eb9	0.30711916
182	0xbe43251a	-0.19057122
183	0x3ea080c8	0.31348252
184	0xbe98af3f	-0.29821202
185	0xbe43b7c5	-0.19113071
186	0x3e9d680e	0.3074345
187	0x3e1652c3	0.14680009
188	0xbe95656b	-0.29178938
189	0x3cd88829	0.026432114
190	0x3e79cd14	0.24394637
191	0x3ea3aa04	0.3196565
192	0xbed0740d	-0.4071354
193	0xbee9b715	-0.45647493
194	0xbe87eb88	-0.26546884
195	0xbe82be3f	-0.2553577
196	0x3ec1a9d9	0.37824896
197	0x3e37d0de	0.1795077
198	0x3e802de4	0.25035012
199	0x3e7e7955	0.24850972
200	0x3e9a2b32	0.3011108
201	0x3e9f032f	0.31057116
202	0xbeeae439	-0.45877245
203	0xbebb2fff	-0.36560056
204	0xbea32d8b	-0.31870684
205	0x3ed99f3c	0.425043
206	0xbed22a4f	-0.41047904
207	0xbef49007	-0.47766134
208	0xbeabec9f	-0.33578965
209	0xbe88f46f	-0.26748988
210	0xbf077c80	-0.52924347
211	0xbf0cf345	-0.550587
212	0xbe69b0dd	-0.22821374
213	0xbec559d1	-0.38545087
214	0xbec2ba7c	-0.380329
215	0x3e6492f9	0.2232169
216	0x3e5a5c5a	0.21324292
217	0xbe10ab28	-0.14127791
218	0xbe775a32	-0.241555
219	0xbe93085a	-0.2871731
220	0xbedc5b6d	-0.43038502
221	0xbea08259	-0.31349447
222	0xbeba842e	-0.3642897
223	0xbde57dc1	-0.11205626
224	0x3edcdcb6	0.4313714
225	0xbeb2ca4a	-0.3491996
226	0xbee056a9	-0.43816116
227	0x3ea53a26	0.32270926
228	0xbe633f60	-0.22192144
229	0xbeafc042	-0.3432637
230	0xbec451ce	-0.38343662
231	0xbeaf61aa	-0.342542
232	0xbe9583f5	-0.29202238
233	0xbeab6227	-0.33473322
234	0xbe83ce31	-0.2574325
235	0xbe416977	-0.18887888
236	0x3ea61690	0.3243909
237	0xbec10062	-0.37695605
238	0x3e88e8bc	0.26740062
239	0xbea11552	-0.3146158
240	0xbe828fca	-0.25500327
241	0x3e7ac3d6	0.24488768
242	0xbe572cce	-0.21013185
243	0xbe872692	-0.26396614
244	0x3e895646	0.26823634
245	0x3e5d02bf	0.21583079
246	0xbeaae0ae	-0.33374542
247	0x3ea7b853	0.32757816
248	0xbeb6341d	-0.35586634
249	0xbea34232	-0.3188644
250	0xbe9eb97d	-0.3100089
251	0xbebf7ce0	-0.3739996
252	0x3e99d52b	0.30045447
253	0x3eccf5af	0.40031192
254	0x3eb7f2ed	0.35927525
255	0x3e813e3d	0.25242797

dense1.bias f4 [50]
0	0xbea5e9cf	-0.32404944
1	0x3ca1a6dd	0.019732887
2	0xbee151c8	-0.44007707
3	0xbe59ebbd	-0.21281333
4	0xbeb30801	-0.34967044
5	0xbe8ef8b4	-0.2792412
6	0x3ee4e881	0.44708636
7	0x3e910b5c	0.2832898
8	0x3e44a7fe	0.19204709
9	0x3e8dcca0	0.2769518
10	0x3e4b7d19	0.1987194
11	0x3eb1b748	0.34710145
12	0x3eaedf43	0.3415471
13	0xbd58e4e0	-0.052952647
14	0xbeb4ef4c	-0.3533882
15	0x3ebc157b	0.36735138
16	0xbe8ebd86	-0.2787897
17	0xbedea5b4	-0.43485796
18	0x3e1e98f5	0.15488036
19	0x3ea0294c	0.31281507
20	0x3e6e199c	0.23251957
21	0x3e9bbf3c	0.30419338
22	0x3db1565a	0.086590484
23	0x3ebd3b3c	0.36959255
24	0x3e9e1353	0.30874118
25	0x3e4f7b00	0.20261765
26	0x3dce6222	0.10077311
27	0xbd12f0c8	-0.03587416
28	0x3d263200	0.040575027
29	0x3d9b7abe	0.075917706
30	0x3ee064c7	0.43826887
31	0x3e9a6320	0.3015375
32	0x3e98a521	0.29813483
33	0xbea68765	-0.32525173
34	0x3edacd47	0.4273474
35	0x3e479f77	0.19494425
36	0xbc09ed21	-0.008418352
37	0x3e249531	0.16072537
38	0x3ea5673d	0.32305327
39	0xbe9a1b85	-0.3009912
40	0x3eb92ee9	0.36168602
41	0x3e886218	0.2663734
42	0xbe8cdb44	-0.27511036
43	0x3ea87c1e	0.32907194
44	0x3e98f711	0.29875997
45	0x3e515a64	0.20444638
46	0xbe84fb51	-0.2597299
47	0x3e93c741	0.28862956
48	0xbce8cf39	-0.028419124
49	0xbebf9399	-0.37417296

dense2.weight f4 [1, 50]
0	0xbdd3da95	-0.103444256
1	0x3c14a929	0.009073534
2	0x3d09ca88	0.033640414
3	0xbe647282	-0.22309306
4	0xbeff38ad	-0.49847928
5	0xbe47cfa6	-0.19512805
6	0xbcc804a4	-0.024416275
7	0xbe093504	-0.1339913
8	0x3c527c26	0.012846982
9	0x3dd881da	0.10571642
10	0xbc434458	-0.01191815
11	0xbe0e069a	-0.13869706
12	0x3c784146	0.015152281
13	0xbea14323	-0.31496534
14	0xbe97dcb4	-0.2966057
15	0x3ca4f94f	0.02013841
16	0xbe88069e	-0.2656755
17	0xbec2a592	-0.38016945
18	0xbe402e45	-0.1876765
19	0xbd13920d	-0.036027957
20	0xbe3e29b7	-0.185706
21	0xbe01f81c	-0.12692302
22	0x3d08168f	0.03322464
23	0xbddc8f35	-0.10769502
24	0xbd8c96e6	-0.06864719
25	0xbd0bdc43	-0.034145605
26	0x3dcef936	0.10106127
27	0xbe4d757e	-0.20064351
28	0xbc73df30	-0.014884755
29	0x3e0d3267	0.13788758
30	0xbdeed006	-0.11660771
31	0x3e19c4a8	0.15016425
32	0x3d3122ca	0.043246068
33	0xbdab5e1e	-0.08367561
34	0x3e00dfcb	0.1258537
35	0x3dc6b4d4	0.09702459
36	0x3d500834	0.050789073
37	0xbda94518	-0.08265132
38	0x3d582c8f	0.05277687
39	0xbd6aa20c	-0.057283446
40	0x3d4e539e	0.050372712
41	0x3db94a04	0.090473205
42	0xbd0a9f76	-0.03384348
43	0xbd9cd979	-0.07658667
44	0xbdc4dbb4	-0.096122175
45	0xbe83d604	-0.25749218
46	0x3c94f027	0.01818092
47	0xbd925978	-0.07145971
48	0x3d01f8c8	0.031731397
49	0xbda61ff1	-0.08111561

bachnorm1.weight f4 [50]
0	0x3e2d6e70	0.1693666
1	0x3e6a4247	0.22876845
2	0x3e817421	0.25283912
3	0x3e8d71a0	0.27625751
4	0x3f40f021	0.7536641
5	0x3f150365	0.58208305
6	0x3f271e7f	0.6528091
7	0x3efcae19	0.49351576
8	0x3ef50d69	0.47861794
9	0x3e7579d3	0.23972254
10	0x3e8e3640	0.27775764
11	0x3f07b32c	0.5300777
12	0x3f03bc19	0.5145889
13	0x3f26c01b	0.6513688
14	0x3e3177db	0.17330877
15	0x3ebcf5f3	0.36906394
16	0x3e9599b0	0.29218817
17	0x3f255a00	0.64590454
18	0x3eacdeac	0.33763635
19	0x3f2362da	0.6382271
20	0x3eeb5702	0.4596482
21	0x3ecba523	0.39774427
22	0x3e813aa1	0.25240043
23	0x3f0f604b	0.56006306
24	0x3f05b50a	0.5222937
25	0x3f085258	0.53250647
26	0x3eb63cfe	0.35593408
27	0x3efdea40	0.4959278
28	0x3e751727	0.23934613
29	0x3f0cf134	0.55055547
30	0x3ebcef36	0.36901253
31	0x3f1ad31e	0.6047839
32	0x3efb269e	0.490529
33	0x3f5be340	0.8589363
34	0x3ea0913f	0.31360814
35	0x3f1d43f6	0.61431825
36	0x3c67fbb1	0.014159129
37	0x3e899cd6	0.2687747
38	0x3ebc0de0	0.36729336
39	0x3ec31a69	0.38106087
40	0x3eaea68d	0.34111443
41	0x3edf4b49	0.43612126
42	0x3e91cfeb	0.2847894
43	0x3eab1bf2	0.33419758
44	0xbd10297b	-0.03519581
45	0x3f123350	0.57109547
46	0x3e9c7b0b	0.30562624
47	0x3e211379	0.15730084
48	0x3edf3d1f	0.4360132
49	0x3ef15205	0.47132888

bachnorm1.bias f4 [50]
0	0x3f4868c4	0.7828486
1	0xbed7de3a	-0.42161733
2	0xbf77a259	-0.967321
3	0xbf278f34	-0.65452886
4	0x3f663507	0.89924663
5	0x3f247231	0.6423674
6	0xbf25650f	-0.6460733
7	0x3ef84f41	0.48497966
8	0xbee6dbdd	-0.45089617
9	0xbdf7b59f	-0.12095188
10	0xbf0cea8a	-0.5504538
11	0x3f2747f1	0.6534415
12	0xbf432b7b	-0.7623822
13	0x3f6863ba	0.9077717
14	0x3f1753d9	0.59112316
15	0x3ec0e22a	0.3767255
16	0x3f250223	0.64456385
17	0x3f35477f	0.7081222
18	0x3f21d276	0.6321176
19	0x3f0b5f0b	0.544419
20	0x3f529d33	0.82271117
21	0xbefea9a7	-0.4973881
22	0xbf471a6e	-0.77774704
23	0x3eb2ee01	0.34947208
24	0xbdf5265b	-0.11970206
25	0x3ece2a45	0.40266624
26	0xbf45d1b5	-0.7727311
27	0x3f29ad66	0.6628021
28	0x3e8c133c	0.27358425
29	0xbf3e2dc0	-0.7428856
30	0x3f155b18	0.58342123
31	0xbf291920	-0.6605396
32	0x3ebda9bc	0.3704356
33	0x3e746b00	0.23868942
34	0xbea1b8d3	-0.31586322
35	0xbefb7a92	-0.4911695
36	0x3f03475a	0.5128075
37	0x3e9bd0a7	0.30432627
38	0x3eb90196	0.36134022
39	0xbd40485a	-0.046944
40	0xbf3a41ee	-0.7275685
41	0xbf1cccfb	-0.61250275
42	0xbeede61a	-0.46464616
43	0x3f210761	0.62901884
44	0x3efce232	0.49391323
45	0x3f341b04	0.7035372
46	0xbf0a7a86	-0.54093206
47	0xbedf1af7	-0.4357526
48	0xbf49376b	-0.78600186
49	0x3f0b7a9d	0.5448397

bachnorm_conv1.weight f4 [6]
0	0x3f078758	0.52940893
1	0x3f9dba95	1.2322565
2	0x3f51c86c	0.81946445
3	0x3f9f3c6a	1.2440312
4	0x3f692ecd	0.9108704
5	0x3f5e005a	0.86719286

bachnorm_conv1.bias f4 [6]
0	0x3f0462de	0.5171336
1	0xbdfabd6d	-0.12243161
2	0x3ef4614a	0.47730476
3	0xbeb07c80	-0.34469986
4	0xbe3400ff	-0.17578505
5	0xbeac167d	-0.33610907

bachnorm_conv2.weight f4 [3]
0	0x3f949af7	1.1609792
1	0x3f80f178	1.007369
2	0x3f8dc0a0	1.107441

bachnorm_conv2.bias f4 [3]
0	0x3eca4580	0.3950615
1	0x3dca0ebf	0.09866094
2	0xbc6fb819	-0.014631295
