Results/Energy/best_model_becker.pt (torch, 199135 bytes, 5 tensors)

dense1.weight f4 [50, 980]
-0.0069133453 -0.32898015 0.2431758 -0.25949192 -0.32679683 -0.31678113 -0.32892713 -0.3337059
-0.3116726 -0.31282887 -0.2828016 -0.27623725 -0.32402053 -0.29973 -0.29531989 -0.27602875
-0.29527667 -0.2947548 -0.2740035 -0.2958894 -0.31051823 -0.31501514 -0.29088587 -0.3153514
-0.30426654 -0.31516182 -0.2707692 -0.31394282 -0.29170218 -0.23036839 0.29496926 0.2851558
0.29513088 0.3116299 0.33072314 0.31144658 0.31559885 0.30408907 0.29825026 0.28453186
0.29576027 0.28472197 0.31461373 0.3213045 0.3228993 0.31734097 0.30725968 0.28716946
0.30154714 0.31979516 0.27784896 0.3035027 0.3157354 0.29829606 0.33646667 0.3226467
0.29174182 0.28724864 0.28030944 0.31239167 0.32561386 0.2939457 0.33372894 0.31784943
0.28290495 0.30851653 0.31816727 0.3286381 0.335603 0.33815688 0.31035453 0.3283649
0.29580122 0.30577073 0.29648003 0.3177989 0.31952643 0.2941421 0.28772223 0.33650824
0.29756042 0.29642293 0.28143206 0.2761999 0.3117322 0.32962185 0.31606284 0.29523605
0.3126776 0.29147762 0.3003814 0.2995423 0.2960429 0.31004962 0.2984737 0.2783323
0.33723766 0.3242553 0.3302599 0.34110272 0.33277193 0.2907721 0.33282462 0.30461586
0.34324306 0.333953 0.2926889 0.3210801 0.34306318 0.3292135 0.30752763 0.34641194
0.33013496 0.3162286 0.32311404 0.29730907 0.31998792 0.28509128 0.34031016 0.29209542
0.32544476 0.17662497 0.18340543 0.10832912 0.13620204 0.098723784 0.12904216 0.12973274
0.1391166 0.15395272 0.19286545 0.15487327 0.15147422 0.17621423 0.17412843 0.048292097
0.031309914 0.02736573 0.15248412 0.123221375 0.14314853 0.14565644 0.21232569 0.2514454
0.23515151 0.23244837 0.19113013 0.1419474 0.07950499 0.077303424 -0.15035823 -0.121602714
0.08084917 0.13036236 0.17699932 0.20073551 0.24545492 0.24663165 0.18582873 0.20824209
0.22764653 0.23555072 0.25135192 0.23463185 0.22639428 0.23984367 0.25101984 0.19964749
0.23406267 0.21937823 0.21161532 0.21293475 0.24890286 0.20009801 0.2083764 0.23508318
0.17259236 0.16932347 0.15558502 0.10578633 0.091930814 0.08438062 0.042025615 0.04241413
0.04293234 0.08385364 0.12257365 0.11674149 0.022714041 0.06342006 -0.014786004 0.0601347
0.060502674 -0.078368805 -0.1988684 -0.025135249 0.109646305 0.07636276 0.06853706 0.04416429
-0.030980946 0.047020696 0.016710386 -0.11185119 -0.05213923 0.00033029783 -0.02039196 -0.04839837
-0.12104742 -0.061436977 -0.0042416607 0.005020611 0.030257132 0.005655633 0.026279235 0.021397477
-0.1204498 -0.20183946 -0.3838156 -0.38986132 -0.40793023 -0.35648137 -0.40750688 -0.3777643
-0.43266332 -0.34903258 -0.39926386 -0.22180691 -0.19157009 -0.34222692 -0.35827428 -0.3718352
-0.36536235 -0.36474264 -0.118999936 -0.1748603 -0.40660867 -0.40114716 -0.37168184 -0.15791076
-0.42776394 -0.3986005 -0.4315944 -0.41995555 -0.4118872 -0.15136561 0.0758374 0.12026407
0.19526279 0.1576089 0.19789657 0.19358107 0.16873433 0.16227931 0.18463542 0.17635103
00000000: 5889 e2bb 1670 a8be 1403 793e 20dc 84be
00000010: ea51 a7be 2331 a2be 2369 a8be 80db aabe
00000020: 8d93 9fbe 1b2b a0be 5fcb 90be f86e 8dbe
00000030: 05e6 a5be 3676 99be 2b34 97be a453 8dbe
00000040: 812e 97be 1aea 96be 304a 8cbe d17e 97be
00000050: 3ffc 9ebe aa49 a1be feee 94be bd75 a1be
00000060: d3c8 9bbe e45c a1be 43a2 8abe 1dbd a0be
00000070: fd59 95be b1e5 6bbe 3606 973e f1ff 913e
00000080: 651b 973e f48d 9f3e 8b54 a93e ed75 9f3e
00000090: 2c96 a13e 90b1 9b3e 42b4 983e 29ae 913e
000000a0: e46d 973e 14c7 913e 0d15 a13e 0682 a43e
000000b0: 0f53 a53e 847a a23e 2451 9d3e e007 933e
000000c0: 6364 9a3e 31bc a33e 3842 8e3e b564 9b3e
000000d0: 12a8 a13e 43ba 983e 5c45 ac3e f331 a53e
000000e0: 2f5f 953e 4112 933e b884 8f3e cdf1 9f3e
000000f0: dcb6 a63e 0d80 963e 85de aa3e 29bd a23e
00000100: ebd8 903e e1f5 9d3e d2e6 a23e 4143 a83e
00000110: 28d4 ab3e e622 ad3e cae6 9e3e 721f a83e
00000120: 4273 973e fb8d 9c3e 3bcc 973e 8ab6 a23e
00000130: f898 a33e cb99 963e 5450 933e cf4a ac3e
00000140: d759 983e bfc4 973e dd17 903e 136a 8d3e
00000150: 5d9b 9f3e 32c4 a83e fdd2 a13e 2e29 973e
00000160: 4717 a03e 8e3c 953e 97cb 993e 9c5d 993e
00000170: ef92 973e d3be 9e3e 8bd1 983e 9281 8e3e
00000180: 6aaa ac3e ca04 a63e d317 a93e 04a5 ae3e
00000190: 1561 aa3e 15e0 943e fd67 aa3e 9cf6 9b3e
000001a0: 8ebd af3e e3fb aa3e 52db 953e 9c64 a43e
000001b0: faa5 af3e ac8e a83e 4374 9d3e e85c b13e
000001c0: 7307 a93e b7e8 a13e 346f a53e e538 983e
000001d0: 75d5 a33e 7cf7 913e 223d ae3e 888d 953e
000001e0: b2a0 a63e 2ddd 343e a2ce 3b3e a8db dd3d
000001f0: 8c78 0b3e b22f ca3d a123 043e a9d8 043e
00000200: 9574 0e3e c8a5 1d3e 857e 453e 1997 1e3e
00000210: 0f1c 1b3e 8171 343e b94e 323e efcd 453d
00000220: d33e 003d 182e e03c cc24 1c3e 7d5b fc3d
00000230: 8795 123e f626 153e e86b 593e 74bd 803e
00000240: 8fcb 703e f206 6e3e 9eb7 433e a95a 113e
00000250: 83d3 a23d 4251 9e3d 82f7 19be d80a f9bd
00000260: 4094 a53d b67d 053e 4f3f 353e 9c8d 4d3e
00000270: 8958 7b3e 028d 7c3e e349 3e3e 6a3d 553e
00000280: 2c1c 693e 3534 713e 33b1 803e 5543 703e
00000290: e7d3 673e 9499 753e ac85 803e 6470 4c3e
000002a0: 20ae 6f3e b0a4 603e b0b1 583e 910b 5a3e
000002b0: 64e0 7e3e 7ee6 4c3e 9f60 553e a5b9 703e
000002c0: 0dbc 303e 2263 2d3e ae51 1f3e 81a6 d83d
000002d0: 3946 bc3d bfcf ac3d 0d23 2c3d 70ba 2d3d
000002e0: d2d9 2f3d 75bb ab3d e507 fb3d 2a16 ef3d
000002f0: cc12 ba3c 60e2 813d ff40 72bc ce4f 763d
00000300: a7d1 773d d37f a0bd 28a4 4bbe 70e8 cdbc
00000310: 3e8e e03d 1464 9c3d 285d 8c3d 9de5 343d
00000320: c1cb fdbc c698 403d 38e4 883c 3d12 e5bd
00000330: f28f 55bd d32b ad39 0a0d a7bc 5f3d 46bd
00000340: b6e7 f7bd 57a5 7bbd a1fd 8abb f083 a43b
00000350: cedd f73c e352 b93b 8d47 d73c c349 af3c
00000360: 62ae f6bd 01af 4ebe 7a83 c4be e79b c7be
00000370: 3bdc d0be ba84 b6be bea4 d0be 536a c1be
00000380: 0c86 ddbe 66b4 b2be 506c ccbe 5a21 63be
00000390: f32a 44be 5e38 afbe ba6f b7be 2f61 bebe
000003a0: c610 bbbe 8cbf babe 3db6 f3bd 940e 33be
000003b0: 032f d0be 2963 cdbe 154d bebe 5cb3 21be
000003c0: e003 dbbe 5d15 ccbe f1f9 dcbe 6a04 d7be
000003d0: e1e2 d2be 96ff 1abe a450 9b3d 024d f63d
000003e0: f8f2 473e 3a64 213e 66a5 4a3e 1e3a 463e
000003f0: b1c8 2c3e 8c2c 263e 1111 3d3e 5d95 343e

dense1.bias f4 [50]
-0.34784284 0.39568743 0.27773884 0.280699 0.27115837 0.27147418 0.31190443 0.3181503
0.3550496 0.29868037 0.3015947 -0.3309073 -0.19669934 0.28102627 0.3175261 -0.26850232
0.18846418 0.33148617 -0.2964006 -0.26660737 -0.29594773 0.31145152 -0.28824016 0.14377844
-0.30753615 -0.31133735 0.38275596 0.30596268 -0.26883623 -0.26915637 0.05075061 0.30948776
0.29162833 -0.3584469 0.22838794 0.32059142 -0.38710833 0.5430671 0.32480583 0.24064666
0.26508805 -0.28427234 -0.3536662 -0.11556258 0.30347896 0.3275165 0.3278584 -0.3896422
0.17903224 -0.2937699
00000000: 7518 b2be 8b97 ca3e c933 8e3e c8b7 8f3e
00000010: 45d5 8a3e aafe 8a3e f0b1 9f3e 99e4 a23e
00000020: 10c9 b53e a2ec 983e 9f6a 9a3e ae6c a9be
00000030: 8d6b 49be ade2 8f3e c892 a23e 2379 89be
00000040: c1fc 403e 8eb8 a93e d2c1 97be c380 88be
00000050: 7686 97be 9376 9f3e 3794 93be a83a 133e
00000060: 6175 9dbe 9c67 9fbe 97f8 c33e 24a7 9c3e
00000070: e7a4 89be ddce 89be dfdf 4f3d 2e75 9e3e
00000080: 4f50 953e 5a86 b7be 87de 693e 8f24 a43e
00000090: 1033 c6be 7206 0b3f f34c a63e 146c 763e
000000a0: 9fb9 873e 258c 91be bc13 b5be 13ac ecbd
000000b0: 9861 9b3e 3eb0 a73e 0edd a73e 2f7f c7be
000000c0: 3a54 373e 0269 96be

dense2.weight f4 [1, 50]
0.13349423 0.1208052 -0.08508696 -0.010304322 -0.18566862 -0.10436005 0.04956294 -0.035909396
-0.22331275 -0.07910509 -0.051016524 0.1899236 -0.029758707 -0.028450308 0.0079688495 0.88768095
-0.24871361 0.13283364 0.46819454 -0.17195989 0.8233583 -0.2360736 -0.4321685 0.067715675
-0.6966337 -0.5948583 -0.020729221 -0.1190971 0.3168181 -0.39037988 -0.06510272 -0.2502088
-0.27894005 -0.021755977 0.06907009 -0.17950296 -0.6732716 0.2229293 -0.08744116 0.074023314
-0.05934348 0.088216834 0.5385227 -0.28709647 0.017791755 -0.26941648 0.28694388 -0.3413732
-0.031569056 0.20053537
00000000: b6b2 083e b768 f73d 1242 aebd 75d3 28bc
00000010: ea1f 3ebe b9ba d5bd 8202 4b3d bb15 13bd
00000020: 19ac 64be d901 a2bd b4f6 50bd 557b 423e
00000030: 88c8 f3bc 9f10 e9bc c78f 023c 0f3f 633f
00000040: c8ae 7ebe 8b05 083e 32b7 ef3e 4116 30be
00000050: 9cc7 523f 47bd 71be 3145 ddbe 84ae 8a3d
00000060: 9656 32bf a248 18bf 54d0 a9bc 2ee9 f3bd
00000070: fb35 a23e dfdf c7be 9354 85bd 5e1b 80be
00000080: 3bd1 8ebe 9739 b2bc 9f74 8d3d a0cf 37be
00000090: 875b 2cbf 9447 643e 5a14 b3bd 8999 973d
000000a0: 2612 73bd 07ab b43d a0dc 093f 4ffe 92be
000000b0: 04c0 913c f5f0 89be 4fea 923e 78c8 aebe
000000c0: 8e4e 01bd 2559 4d3e

bachnorm1.weight f4 [50]
0.9028485 0.615329 0.58499503 0.4925293 0.7390328 0.6538462 0.6980265 0.37009183
0.9657838 0.59755737 0.4711959 0.6232292 0.7592849 0.22610521 0.6799143 1.3002621
0.6984404 0.7716458 0.69973814 0.6432458 1.3002614 0.60636634 0.701087 0.701682
0.69973874 1.3002622 0.6368978 0.62096834 0.8395875 0.997552 0.43075755 0.9188367
0.8987358 0.51276726 0.5154217 0.42212617 1.0396098 0.68160707 0.623326 0.8201415
0.26767027 0.6997381 1.1693369 0.9556152 0.41514137 1.0265018 1.0409096 0.8343227
0.57328707 0.699738
00000000: 1421 673f 3486 1d3f 3cc2 153f cd2c fc3e
00000010: 4131 3d3f 7762 273f ddb1 323f ad7c bd3e
00000020: 9b3d 773f 85f9 183f 9740 f13e f38b 1f3f
00000030: 7f60 423f 2088 673e dd0e 2e3f fd6e a63f
00000040: fdcc 323f 948a 453f 0a22 333f c2ab 243f
00000050: f76e a63f d33a 1b3f 707a 333f 6ea1 333f
00000060: 1422 333f fe6e a63f bc0b 233f c8f7 1e3f
00000070: 35ef 563f 915f 7f3f 418c dc3e e238 6b3f
00000080: 8d13 663f b744 033f adf2 033f ec20 d83e
00000090: ef11 853f cd7d 2e3f 4b92 1f3f cbf4 513f
000000a0: 140c 893e 0922 333f d5ac 953f 33a3 743f
000000b0: 698d d43e 6964 833f 873c 853f 2c96 553f
000000c0: f1c2 123f 0822 333f

bachnorm1.bias f4 [50]
-0.3162922 0.539985 0.4452922 -0.5198998 -0.35863182 -0.46193025 -0.58742946 0.25651315
0.5901373 -0.44589224 -0.43521148 -0.4945029 0.53661007 0.38402763 -0.4971133 -0.6714005
0.067576624 -0.5270352 -0.5516089 0.51906073 -0.7343521 -0.21931274 0.5362546 -0.46463513
0.60640484 0.70886004 0.506943 0.36177075 -0.5748565 0.67014015 0.4822609 0.61269194
0.47523046 -0.50086004 0.468258 0.30390605 0.7217085 0.50069296 -0.3266993 -0.6811906
0.3788796 -0.38959366 -0.61831164 0.5589368 0.38186398 0.4200068 -0.61034304 0.65100676
0.51551247 -0.49255022
00000000: 0df1 a1be 753c 0a3f 57fd e33e 2718 05bf
00000010: 979e b7be 1f82 ecbe c761 16bf b155 833e
00000020: 3d13 173f fd4b e4be 0ad4 debe 7c2f fdbe
00000030: 475f 093f 459f c43e a285 febe e7e0 2bbf
00000040: 9d65 8a3d c7eb 06bf 3e36 0dbf 2ae1 043f
00000050: 80fe 3bbf 8593 60be fb47 093f a8e4 edbe
00000060: 593d 1b3f da77 353f 04c7 013f 043a b93e
00000070: cc29 13bf 4e8e 2b3f e7ea f63e 61d9 1c3f
00000080: 6851 f33e 5d38 00bf 83bf ef3e 9399 9b3e
00000090: e3c1 383f 6a2d 003f 2145 a7be 8262 2ebf
000000a0: 82fc c13e d278 c7be ac49 1ebf 7b16 0f3f
000000b0: ad83 c33e 220b d73e 713f 1cbf 61a8 263f
000000c0: a0f8 033f 8b2f fcbe
