Results/FBM/best_model_becker.pt (torch, 298015 bytes, 13 tensors)

conv1.weight f4 [6, 2, 3]
0	0xbe83894b	-0.25690684
1	0xbe65b1fc	-0.22431177
2	0xbf58a6e0	-0.8462963
3	0xbe07e14e	-0.1326954
4	0xbe5e0cb5	-0.21684535
5	0xbe9ce133	-0.30640563
6	0xbf6e6a46	-0.9313091
7	0xbe209f98	-0.1568588
8	0xbe025502	-0.1272774
9	0xbdf28fc0	-0.118438244
10	0x3e7fe91f	0.24991272
11	0x3e28c7ac	0.16482419
12	0xbe506fed	-0.20355196
13	0xbea84e53	-0.32872257
14	0xbf15b758	-0.58482885
15	0xbde14079	-0.10998625
16	0xbea0760f	-0.31340072
17	0xbe52c348	-0.20582306
18	0x3defe0cb	0.11712798
19	0xbef6babe	-0.48189348
20	0xbeef0122	-0.46680552
21	0xbf212dc0	-0.62960434
22	0xbe8874a3	-0.26651487
23	0xbf34aa26	-0.70572126
24	0xbb38e7ac	-0.002821426
25	0xbeda6948	-0.42658448
26	0x3f10606d	0.56397134
27	0xbe4aa375	-0.19788916
28	0xbf39c7dc	-0.72570586
29	0x3e58ce61	0.21172477
30	0x3e6f6a2c	0.23380345
31	0xbe351d9e	-0.1768708
32	0xbe0ed645	-0.13948925
33	0xbf823d4e	-1.0174959
34	0x3f21c067	0.6318421
35	0x3def327e	0.116795525

conv1.bias f4 [6]
0	0xbe2d866e	-0.16945812
1	0x3e353486	0.17695817
2	0xbeb4fccc	-0.3534912
3	0xbc367af6	-0.011137715
4	0x3e842800	0.25811768
5	0xbf68fc89	-0.9101034

conv2.weight f4 [3, 6, 3]
0	0xbe9957a2	-0.2994967
1	0x3dbaa4b5	0.091134466
2	0xbeb0d3c1	-0.34536555
3	0xbe87b6d9	-0.2650669
4	0xbe7f8477	-0.24952875
5	0xbdba3e60	-0.09093928
6	0xbeb0a9c6	-0.34504527
7	0x3e7082fd	0.23487468
8	0xbef2b6db	-0.47405133
9	0xbf0e2434	-0.5552399
10	0xbe23515e	-0.15949008
11	0xbf449ae8	-0.7679887
12	0xbeb301cd	-0.3496231
13	0xbd23673b	-0.03989337
14	0xbf4f0ea3	-0.8088171
15	0xbe8a6d20	-0.2703638
16	0xbea0d7dc	-0.31414688
17	0x3ee58548	0.44828248
18	0x3efeb8eb	0.49750456
19	0x3dbc0ddb	0.0918233
20	0x3f101710	0.5628519
21	0xbd3c46d6	-0.045965992
22	0xbe6f7895	-0.23385842
23	0xbde38430	-0.11109197
24	0x3e1de4de	0.15419337
25	0x3f37c09b	0.7177827
26	0x3f614917	0.8800215
27	0x3ef3045f	0.47464272
28	0x3e102d8d	0.14079876
29	0x3edd60d1	0.43237928
30	0xbe335975	-0.17514594
31	0xbe34585e	-0.17611834
32	0xbe2dea76	-0.16983971
33	0xbdd5ca25	-0.10438947
34	0xbe07bb2e	-0.13254997
35	0xbea189b7	-0.3155038
36	0xbd75aa97	-0.05997714
37	0x3dac8a20	0.08424783
38	0xbec8a325	-0.3918697
39	0xbf01d163	-0.50710124
40	0xbec23ea7	-0.37938425
41	0xbec134ab	-0.37735495
42	0xbe29972a	-0.16561571
43	0x3cd084ca	0.025453944
44	0x3e855a06	0.26045245
45	0x3ef7096f	0.48249385
46	0x3ec7e1cd	0.3903946
47	0x3da55fdb	0.080749236
48	0xbf0acbf5	-0.54217464
49	0xbd382e81	-0.044966225
50	0x3de88dcc	0.113551706
51	0x3e9a685d	0.30157748
52	0x3e44670c	0.19179934
53	0xbdbb41e2	-0.091434255

conv2.bias f4 [3]
0	0x3f5191c3	0.8186304
1	0x3de0c9a0	0.10975957
2	0x3f1cb078	0.6120677

dense1.weight f4 [50, 1460]
0	0xbe6d8a98	-0.231974
1	0xbe3b0c52	-0.18266419
2	0x3ea350d2	0.31897599
3	0x3eca240c	0.39480627
4	0xbe6b8430	-0.22999644
5	0xbd820d66	-0.06350212
6	0x3ec68c00	0.38778687
7	0x3d9c1791	0.076216824
8	0xbe6eb51b	-0.23311274
9	0xbe75c155	-0.23999532
10	0x3eaf068b	0.3418468
11	0xbdb1a82e	-0.08674656
12	0xbe6c051c	-0.23048824
13	0xbe8d859f	-0.27641007
14	0xbe433b27	-0.19065534
15	0xbdd09b47	-0.10185867
16	0x3d2ef5d4	0.04271491
17	0xbdeab4d5	-0.11460272
18	0xbe528754	-0.20559436
19	0xbe370000	-0.17871094
20	0x3f21f671	0.63266665
21	0x3eb940ad	0.36182156
22	0xbe7cc8cc	-0.24685973
23	0xbe6232ad	-0.22089644
24	0xbe7a8615	-0.2446521
25	0x3de06110	0.10956013
26	0xbd95e444	-0.07318929
27	0x3ed0eed8	0.40807223
28	0xbb9bdc7a	-0.0047565075
29	0xbe3cd172	-0.18439272
30	0xbda5d8a4	-0.080979615
31	0x3d94a955	0.0725886
32	0xbd942399	-0.07233352
33	0xbd17a629	-0.037023697
34	0x3d86e67b	0.065869294
35	0x3eadae8b	0.33922228
36	0xbe755886	-0.2395955
37	0xbe8fe7f5	-0.28106657
38	0xbe6f94f0	-0.23396659
39	0x3d56b2b3	0.052416515
40	0x3eb47b2b	0.3525022
41	0x3eb3e586	0.3513605
42	0x3eb4a1ba	0.35279638
43	0xbdbd8e56	-0.09255664
44	0xbe079c1a	-0.13243142
45	0xbe9cdd79	-0.3063772
46	0xbe54c8b2	-0.20779684
47	0xbe3b879a	-0.18313447
48	0xbec758a2	-0.3893481
49	0x3e4298c3	0.19003586
50	0xbe901a79	-0.28145197
51	0xbea9bbb1	-0.3315101
52	0x3ea8f163	0.32996663
53	0xbed35d45	-0.41282097
54	0x3c66196e	0.014044149
55	0xbf021a95	-0.5082181
56	0xbf08758a	-0.5330435
57	0x3dfc5854	0.12321535
58	0xbbbfef78	-0.0058574043
59	0xbf0913fe	-0.5354613
60	0xbf09e188	-0.5385976
61	0xbf1455f0	-0.5794363
62	0xbebbe7ae	-0.36700195
63	0xbe9f88e6	-0.31159133
64	0xbe811ab9	-0.252157
65	0xbe51ff5a	-0.20507565
66	0xbef99b3c	-0.48751247
67	0xbed637cb	-0.41839442
68	0xbe9ab710	-0.3021779
69	0x3e2751aa	0.16339746
70	0xbc11976c	-0.008886199
71	0xbecea4a8	-0.40359998
72	0xbefc48c6	-0.49274272
73	0x3e258b4e	0.16166422
74	0xbf021688	-0.5081563
75	0xbf0ae552	-0.54256165
76	0x3e9e1a92	0.30879647
77	0xbec12d7d	-0.37730017
78	0xbd6b63d7	-0.05746826
79	0xbecc751c	-0.39933097
80	0xbf1b8d1c	-0.6076219
81	0xbf016e56	-0.50558984
82	0xbef6ca16	-0.48201054
83	0xbbca6f11	-0.006177791
84	0xbe7fc008	-0.24975598
85	0xbeedab27	-0.4641964
86	0xbf088f01	-0.53343207
87	0x3d43c682	0.047796734
88	0xbeffeed0	-0.49986887
89	0xbf07ddca	-0.530728
90	0xbf037f3e	-0.5136603
91	0x3ed295a4	0.41129792
92	0x3e398a73	0.1811922
93	0xbeb8f97e	-0.36127847
94	0xbeebff7a	-0.4609335
95	0xbec95085	-0.39319244
96	0xbd901744	-0.070356876
97	0xbad4ce72	-0.0016235842
98	0xbee5d8a2	-0.4489184
99	0xbdf7382b	-0.1207126
100	0xbf03a2d5	-0.51420337
101	0x3d0bd29f	0.03413641
102	0xbef8e571	-0.4861255
103	0xbef580ac	-0.4794973
104	0x3d2703ec	0.040775225
105	0xbe14e7a8	-0.14541495
106	0x3d157e39	0.03649733
107	0x3d38acf7	0.045086827
108	0xbecbd1c4	-0.39808476
109	0xbec8a565	-0.39188686
110	0xbf127c86	-0.5722126
111	0xbed171dd	-0.40907183
112	0x3d9646f9	0.07337756
113	0x3d5c838d	0.053836394
114	0xbec579ac	-0.3856939
115	0xbebfcf1c	-0.374627
116	0x3e09946b	0.13435523
117	0x3e162aec	0.14664811
118	0xb9b97e8f	-0.00035380243
119	0xbd0c4f91	-0.034255568
120	0xbef6b3e1	-0.48184112
121	0xbf006eb0	-0.50168896
122	0xbecbc9ac	-0.398023
123	0xbefddbe4	-0.49581826
124	0xbebeac44	-0.37240803
125	0xbf1c4fa0	-0.61059
126	0xbef82a08	-0.48469567
127	0xbf03a0ce	-0.51417243
128	0xbed9dffb	-0.42553696
129	0xbebb413c	-0.36573207
130	0xbf16caa2	-0.58902943
131	0xbdcdffe3	-0.10058572
132	0xbdf83ceb	-0.12120994
133	0xbf06f6d2	-0.5272037
134	0xbed0d842	-0.40789992
135	0x3e67d3bf	0.22639368
136	0x3e8b6c3f	0.27231023
137	0x3eb7adc6	0.35874766
138	0x3d1d5029	0.038406525
139	0xbf1706ab	-0.5899455
140	0xbefbbd4a	-0.49167854
141	0xbf19073a	-0.5977665
142	0xbee759b4	-0.45185626
143	0xbf28a51c	-0.65876937
144	0xbf200889	-0.62513024
145	0xbecff5ea	-0.40617305
146	0x3d4c9092	0.04994256
147	0xbf13f315	-0.5779279
148	0xbf2f1c7a	-0.68402827
149	0xbe17798b	-0.14792459
150	0xbf1e3e64	-0.6181395
151	0x3e35acba	0.17741671
152	0xbf0aeecb	-0.5427062
153	0xbf1b88f1	-0.6075583
154	0xbf038019	-0.51367337
155	0xbf2ec621	-0.6827107
156	0x3d9a89a9	0.07545788
157	0x3e448189	0.19190039
158	0xbf25ed99	-0.6481567
159	0xbe8da55f	-0.2766523
160	0xbf1c618a	-0.6108633
161	0xbf0e0143	-0.55470675
162	0xbf21a3b2	-0.63140404
163	0x3e3ec6b4	0.18630487
164	0xbe12e86c	-0.14346474
165	0xbf1052cf	-0.56376356
166	0xbf0ef96e	-0.5584935
167	0xbf140db3	-0.57833403
168	0xbf3aef06	-0.7302097
169	0xbef76eae	-0.4832663
170	0xbf07d836	-0.53064287
171	0xbf332b10	-0.69987583
172	0xbf2870c6	-0.6579708
173	0xbf05a3fe	-0.5220336
174	0xbf198807	-0.59973186
175	0xbe21a9ce	-0.15787432
176	0xbf0d8f85	-0.5529712
177	0xbf3599ae	-0.7093762
178	0xbee5c270	-0.44874907
179	0xbd01542c	-0.031574413
180	0xbf0b3c25	-0.5438865
181	0xbf2033e8	-0.625792
182	0xbf1588b8	-0.5841174
183	0xbf1437fa	-0.57897913
184	0xbf10ce95	-0.5656522
185	0xbed482e1	-0.41506103
186	0xbf025bed	-0.5092152
187	0xbede7ce3	-0.43454656
188	0xbed5f854	-0.41791022
189	0xbb280ec0	-0.0025643557
190	0x3d53a4eb	0.05167095
191	0xbf0a8669	-0.54111344
192	0xbedc6b06	-0.43050402
193	0xbee12d8f	-0.4398007
194	0xbf07b687	-0.5301289
195	0x3b1ff727	0.002440879
196	0xbef936bb	-0.4867457
197	0xbf1a20c7	-0.60206264
198	0xbe8c1eb7	-0.27367184
199	0xbf2149ec	-0.6300342
200	0xbeefa905	-0.4680864
201	0xbf01f502	-0.5076448
202	0xbee00b71	-0.4375873
203	0xbf012aac	-0.5045574
204	0xbf0491e3	-0.51785105
205	0xbf100435	-0.5625642
206	0x3e00ea82	0.12589458
207	0xbd14064f	-0.03613883
208	0xbf09355a	-0.53597033
209	0xbe4fa317	-0.20277058
210	0xbe776b63	-0.24162059
211	0xbec9242e	-0.39285415
212	0xbea520ac	-0.3225149
213	0xbe9fa99e	-0.31184095
214	0x3d9affea	0.07568343
215	0xbef036d0	-0.4691682
216	0xbed28ea7	-0.4112446
217	0xbeb89ca0	-0.36056995
218	0xbf17e67e	-0.5933608
219	0xbf007249	-0.50174385
220	0xbf1e7d56	-0.6191
221	0xbf152044	-0.5825236
222	0xbed2f1e0	-0.4120016
223	0xbb4b59c4	-0.0031028846
224	0xbf0cf105	-0.55055267
225	0xbefcc78f	-0.49371
226	0xbeba2446	-0.363558
227	0xbe9ed1b4	-0.31019366
228	0xbece39b4	-0.402784
229	0xbb64535b	-0.0034839723
230	0x3dd45df2	0.10369481
231	0x3df64584	0.12024978
232	0xbf2e7f7b	-0.6816327
233	0xbed7df9c	-0.42162788
234	0xbeb90fef	-0.3614497
235	0xbbeb829f	-0.007187202
236	0x3c95a16d	0.01826545
237	0xbf07c49d	-0.53034383
238	0xbee7974e	-0.45232624
239	0x3e0d1911	0.13779093
240	0xbe2d1d3b	-0.16905682
241	0xbf2d04fe	-0.6758574
242	0xbef6fe10	-0.4824071
243	0xbd176c9d	-0.036968816
244	0xbe287e3e	-0.16454408
245	0xbf0128f6	-0.50453126
246	0x3cfc483a	0.030796159
247	0x3e48f8c7	0.19626151
248	0x3e157331	0.14594723
249	0xbefd676e	-0.49492973
250	0x3c474be3	0.012164089
251	0xbf2a16af	-0.6644086
252	0xbea47fe6	-0.3212883
253	0xbede5f7f	-0.43432233
254	0x3dda6f41	0.10665751
255	0xbea52fca	-0.32263023

dense1.bias f4 [50]
0	0xbdb18e8b	-0.08669766
1	0x3de0e869	0.10981829
2	0xbeb8acc8	-0.36069322
3	0xbdfa90b0	-0.12234628
4	0xbecb3155	-0.39686075
5	0xbddc5bbd	-0.10759685
6	0xbf165204	-0.58718896
7	0xbf069873	-0.5257637
8	0xbe8852e9	-0.26625755
9	0x3e99e0d9	0.30054358
10	0xbeac04f1	-0.3359752
11	0x3f2c90c6	0.67408407
12	0xbee49f98	-0.4465301
13	0xbe9edaa3	-0.31026182
14	0x3e979703	0.296074
15	0x3ee72d27	0.45151636
16	0x3ebce18b	0.36890826
17	0xbe2aba74	-0.16672689
18	0x3ed245a3	0.41068754
19	0xbe622d67	-0.22087632
20	0xbea1167c	-0.31462467
21	0x3e9c2347	0.30495664
22	0xbf16bdf7	-0.58883613
23	0xbec1c170	-0.37842894
24	0xbe958498	-0.29202724
25	0x3ef38b0a	0.47567016
26	0xbcc87cb0	-0.024473518
27	0xbebecde6	-0.37266463
28	0x3e978dde	0.29600424
29	0x3e9ca673	0.3059574
30	0xbea0eb1e	-0.3142938
31	0xbf138683	-0.57627124
32	0x3e25a58a	0.1617643
33	0x3ef7f093	0.4842573
34	0x3e9da835	0.30792394
35	0xbeeb4d44	-0.45957386
36	0xbe7ca079	-0.2467059
37	0x3e75383f	0.23947237
38	0xbe029711	-0.1275294
39	0xbeeabd74	-0.45847666
40	0xbf12d093	-0.5734951
41	0xbe09af4b	-0.13445775
42	0xbe7a6e1c	-0.24456066
43	0xbe91eab4	-0.28499377
44	0xbe7129b5	-0.23551066
45	0x3ecbf812	0.398377
46	0x3e9e598f	0.30927703
47	0xbebb961b	-0.3663796
48	0x3eaffada	0.34371072
49	0x3e6926ab	0.22768657

dense2.weight f4 [1, 50]
0	0xbe77d670	-0.24202895
1	0xbc31769e	-0.010831503
2	0xbe331d28	-0.17491591
3	0xbc4dbd64	-0.012557361
4	0xbea702a3	-0.326192
5	0x3cf9e1d1	0.030503185
6	0xbd474308	-0.04864791
7	0xbeaea59a	-0.3411072
8	0x3dc6d9bc	0.09709498
9	0xbd9734d7	-0.07383125
10	0xbad73cc1	-0.0016421304
11	0x3dc400de	0.09570478
12	0xbcabbeda	-0.020965029
13	0xbeb22386	-0.34792727
14	0xbe3963f0	-0.1810453
15	0xbd1eafd8	-0.038741916
16	0x3c37f927	0.011228836
17	0xbd3722a8	-0.044710785
18	0xbe666cdc	-0.22502464
19	0xbf1c9b5a	-0.6117455
20	0xbf32f9fc	-0.69912696
21	0x3e117ef9	0.14208592
22	0xbdd4d336	-0.10391848
23	0xbe84b4f2	-0.259193
24	0x3e0ce215	0.13758118
25	0xbbe65804	-0.0070295352
26	0xbd9ee1ec	-0.07757935
27	0xbefaa496	-0.48953694
28	0xbe3d2f4d	-0.18475075
29	0x3cd52f75	0.026023606
30	0xbf590d0f	-0.8478555
31	0x3e2bf81f	0.1679387
32	0xbe9947c8	-0.29937577
33	0xbdbdc9e9	-0.09267027
34	0xbd42dee4	-0.047575846
35	0xbf074553	-0.52840155
36	0xbf3a4c2b	-0.72772473
37	0xbdc46a67	-0.09590607
38	0x3d42212c	0.047394916
39	0x3db0d494	0.08634296
40	0x3e13e5a5	0.14443071
41	0xbdc5885c	-0.09645149
42	0xba07138c	-0.0005152754
43	0xbe71f780	-0.2362957
44	0xbe6679f7	-0.22507463
45	0xbe1309f3	-0.14359264
46	0x3d29e91a	0.04148207
47	0xbd02e308	-0.031954795
48	0x3c8dd43e	0.017313119
49	0x3d231a22	0.039819844

bachnorm1.weight f4 [50]
0	0x3f4387b5	0.7637895
1	0x3eff1efc	0.49828327
2	0x3ea7388c	0.3266033
3	0x3f00ded2	0.50339997
4	0x3f2513cc	0.6448333
5	0x3ef3ed5d	0.4764203
6	0x3f346218	0.7046218
7	0x3f0cbce1	0.54975706
8	0x3f1529fd	0.58267194
9	0x3e8cbd53	0.27488193
10	0x3f1ae73d	0.6050909
11	0x3ebf0709	0.37310055
12	0x3ebe9686	0.37224215
13	0x3f30c262	0.69046605
14	0x3c110bda	0.008852923
15	0x3efd9dd9	0.4953449
16	0x3efd837e	0.49514383
17	0x3effc495	0.49954668
18	0x3f15cc4e	0.5851487
19	0x3ebc8d94	0.36826766
20	0x3f720185	0.9453357
21	0x3f210fb7	0.62914604
22	0x3ea89f04	0.3293382
23	0x3f1d64bd	0.6148184
24	0x3efd8d47	0.4952185
25	0x3ec5b812	0.38616997
26	0x3ed3dce9	0.4137948
27	0x3f19bc8b	0.6005332
28	0x3efeaf16	0.49742955
29	0x3eff6648	0.49882722
30	0x3f50fbbd	0.8163412
31	0x3ecf069d	0.40434733
32	0x3ea694e9	0.32535484
33	0x3e55eee9	0.20891918
34	0x3eceaaf9	0.40364817
35	0x3f425214	0.7590649
36	0x3f0f892d	0.5606869
37	0x3e6f785f	0.23385762
38	0x3f107c32	0.56439507
39	0x3f0c0e0b	0.5470893
40	0x3f1e413d	0.61818296
41	0x3ebd1790	0.3693204
42	0x3ebe48bb	0.37164864
43	0x3f2bdf7c	0.67137885
44	0x3ed0358f	0.40665862
45	0x3eb32a84	0.34993374
46	0x3e9ba819	0.30401686
47	0x3f40326b	0.7507693
48	0x3e8b99d6	0.27265805
49	0x3ee5f822	0.44915873

bachnorm1.bias f4 [50]
0	0x3e4a91ae	0.19782135
1	0xbecce6a4	-0.40019715
2	0xbf36e1e0	-0.7143841
3	0x3eb44a3c	0.35212886
4	0x3ec5f7be	0.38665575
5	0x3e136b25	0.14396341
6	0xbd24ceec	-0.0402364
7	0x3f125c7d	0.57172376
8	0xbedf34e6	-0.43595046
9	0xbed26b82	-0.41097647
10	0xbebc7683	-0.36809167
11	0xbef7b22c	-0.48378122
12	0xbf5a0efd	-0.8517912
13	0x3f1a0ef2	0.60179055
14	0x3f053c03	0.52044696
15	0x3e860686	0.26176852
16	0x3f0c099f	0.5470218
17	0x3f11295d	0.5670374
18	0x3e8730fb	0.26404557
19	0x3f497d4e	0.78706825
20	0x3f666695	0.9000028
21	0xbed9fc1e	-0.42575163
22	0xbf659901	-0.8968659
23	0x3ee9a00e	0.45629925
24	0xbf015c56	-0.5053152
25	0x3d529062	0.051407225
26	0xbf09ff9d	-0.5390566
27	0x3f4ffb1a	0.81242526
28	0x3ea06d95	0.31333604
29	0xbefef474	-0.49795878
30	0x3f5b9f43	0.8578989
31	0xbf54c05d	-0.83106023
32	0x3f2ca704	0.67442346
33	0x3ecaf42e	0.3963942
34	0x3ed9918b	0.42493853
35	0x3f4d38e1	0.80164915
36	0x3f636e42	0.88840115
37	0x3f270637	0.6524386
38	0xbea22ba4	-0.3167392
39	0xbf4327b0	-0.76232433
40	0xbf41ef5a	-0.75755847
41	0xbd73d9c4	-0.05953385
42	0xbf20d54c	-0.62825465
43	0x3f0e01e1	0.55471617
44	0x3f0714d4	0.52766156
45	0xba88a4b7	-0.0010425065
46	0xbeb14776	-0.34624833
47	0xbea41323	-0.3204585
48	0xbe8422f7	-0.25807926
49	0xbe1ba803	-0.1520081

bachnorm_conv1.weight f4 [6]
0	0x3f668a34	0.9005463
1	0x3f6e905a	0.93189013
2	0x3f824f7f	1.018051
3	0x3fa500a2	1.2890818
4	0x3f2a6e1d	0.6657427
5	0x3f534e64	0.8254149

bachnorm_conv1.bias f4 [6]
0	0x3eb807c6	0.3594343
1	0xbf0f159a	-0.55892336
2	0x3da33a2c	0.0797008
3	0xbcb06dfc	-0.02153682
4	0xbef531f7	-0.47889683
5	0x3b79b152	0.0038100076

bachnorm_conv2.weight f4 [3]
0	0x3f83106a	1.0239384
1	0x3ec41f82	0.3830529
2	0x3e30cfc8	0.17266762

bachnorm_conv2.bias f4 [3]
0	0xbf05f8be	-0.52332675
1	0x3eca87e9	0.39556816
2	0x3f06f96e	0.5272435
