Results/FBM/best_model_becker.pt (torch, 199135 bytes, 5 tensors)

dense1.weight f4 [50, 980]
0	0xbbe28958	-0.0069133453
1	0xbb099cc1	-0.0020997974
2	0xbdcbb297	-0.09946173
3	0xbdb79f9f	-0.08965992
4	0x3f12a1b3	0.57277983
5	0x3e82ca9a	0.25545198
6	0xbdc7adec	-0.0974997
7	0x3eb04bd1	0.34432843
8	0x3eb00f06	0.34386462
9	0x3ea303c3	0.31838807
10	0x3ea1880d	0.3154911
11	0x3ea342cf	0.31886908
12	0x3ea0e504	0.31424725
13	0x3eabbd4d	0.33542863
14	0x3ea98d5a	0.33115655
15	0xbe2c56aa	-0.16829935
16	0x3eb287cc	0.3486923
17	0x3eaece80	0.34141922
18	0x3eadeb47	0.33968565
19	0x3e9f3e9d	0.31102458
20	0x3e958008	0.29199243
21	0x3e8f76b2	0.28020245
22	0x3e952f7c	0.2913779
23	0x3ec0d700	0.37664032
24	0x3e7e0e8c	0.24810237
25	0x3ea8c2c6	0.329611
26	0x3ec72b37	0.38900158
27	0x3ea5784c	0.32318342
28	0x3ea6e4ed	0.32596532
29	0x3f044068	0.51660776
30	0x3eedb86f	0.46429774
31	0x3edd9b48	0.43282533
32	0x3edbd473	0.42935523
33	0x3ee37369	0.44423988
34	0x3eed68dd	0.46369067
35	0x3ec4ea0c	0.38459814
36	0x3edba1be	0.42896837
37	0x3ecafc97	0.39645836
38	0x3ebbf17d	0.36707678
39	0x3ebb241a	0.3655098
40	0x3eb3f74a	0.35149604
41	0x3e88043e	0.26565737
42	0x3e9b7ea0	0.30370045
43	0x3e9aaa1a	0.30207902
44	0x3e11a3e8	0.14222682
45	0x3e0f5647	0.13997756
46	0x3e2f1e4b	0.171014
47	0x3e96202d	0.29321423
48	0x3e5be2bb	0.2147321
49	0x3ebe85de	0.37211508
50	0x3e9190e7	0.28430864
51	0x3ea9a667	0.33134767
52	0x3e88f24d	0.2674736
53	0x3e7c3380	0.2462902
54	0x3e989a5f	0.29805276
55	0x3ec95079	0.39319208
56	0x3ec07eb8	0.3759668
57	0x3ec53530	0.3851714
58	0x3ec81302	0.39077002
59	0x3eda4f7d	0.4263877
60	0x3edbcac7	0.42928144
61	0x3ec74e63	0.38926992
62	0x3ed9dbd3	0.42550525
63	0x3ed19afe	0.40938562
64	0x3ec0b81f	0.37640473
65	0x3ece97b4	0.40350115
66	0x3ed3fef0	0.4140544
67	0x3ed7fab6	0.42183465
68	0x3ed8817c	0.4228629
69	0x3edca4d5	0.43094507
70	0x3eca656c	0.39530504
71	0x3ecfca78	0.4058416
72	0x3eb70996	0.357495
73	0x3ebf58ac	0.3737234
74	0x3ebe9e80	0.372303
75	0x3ec84f11	0.39122823
76	0x3eca8412	0.39553887
77	0x3ec10a40	0.37703133
78	0x3ec72130	0.38892508
79	0x3ee3a337	0.4446046
80	0x3ecf1df8	0.40452552
81	0x3ecec37f	0.40383527
82	0x3ec8ba17	0.39204475
83	0x3ec4be10	0.38426256
84	0x3ed5c1ec	0.41749513
85	0x3edfe4e4	0.43729317
86	0x3ed8d9bc	0.42353618
87	0x3ecba39f	0.3977327
88	0x3ed6e738	0.4197328
89	0x3ecdf776	0.4022786
90	0x3ed3424a	0.41261512
91	0x3ed17d68	0.4091599
92	0x3ecd0a47	0.40046903
93	0x3ed3ff2e	0.41405624
94	0x3ecde04c	0.40210187
95	0x3ec376ae	0.38176483
96	0x3ee30248	0.44337678
97	0x3edc142e	0.42984146
98	0x3edd6ef0	0.432487
99	0x3ee46e4e	0.44615406
100	0x3ee06edd	0.43834582
101	0x3eca4249	0.39503697
102	0x3ededaaf	0.43526217
103	0x3ece572a	0.40300876
104	0x3edc5ca0	0.43039417
105	0x3ed39acf	0.41329047
106	0x3eacd388	0.33755136
107	0x3ec23e6c	0.3793825
108	0x3ecca3e7	0.39968798
109	0x3ed464a1	0.41483024
110	0x3ec97cb0	0.39352942
111	0x3edeb103	0.43494424
112	0x3ed3c9a8	0.4136479
113	0x3ed9fb58	0.42574573
114	0x3edda9a6	0.43293494
115	0x3ed163a8	0.40896344
116	0x3edc3a7d	0.43013373
117	0x3ecb9a92	0.39766365
118	0x3ee6ca72	0.4507633
119	0x3ecea86d	0.40362874
120	0x3edfa81d	0.43682948
121	0x3ee52fb0	0.44762945
122	0x3ee77b4d	0.4521126
123	0x3ecd4260	0.40089703
124	0x3edecd68	0.43516088
125	0x3ed13bc5	0.40865913
126	0x3edfabcc	0.43685758
127	0x3ee62c55	0.44955698
128	0x3ee164d6	0.44022244
129	0x3eeb893f	0.46003148
130	0x3eec74b0	0.46182775
131	0x3ed0d6ab	0.4078878
132	0x3ed5b939	0.41742876
133	0x3ee40a1a	0.44538957
134	0x3ee14acd	0.4400238
135	0x3ed666d1	0.41875318
136	0x3ed2f9fa	0.41206342
137	0x3ed054dd	0.40689746
138	0x3edde1b5	0.43336263
139	0x3ed8f4cf	0.42374274
140	0x3ecaff56	0.3964793
141	0x3e7e58a9	0.24838509
142	0x3e066b2e	0.13126823
143	0x3e9d1208	0.3067782
144	0x3ec9a845	0.39386192
145	0x3ed73097	0.4202926
146	0x3ed9851e	0.42484373
147	0x3ec22e05	0.37925735
148	0x3ec31d35	0.3810822
149	0x3ecce70e	0.4002003
150	0x3eca1e3d	0.39476195
151	0x3ec6688f	0.38751647
152	0xbd3a64a3	-0.04550613
153	0xbdce7bf2	-0.100822344
154	0xbdb1afd3	-0.08676114
155	0xbde48b3e	-0.11159371
156	0xbd86e600	-0.06586838
157	0xbdbd0a4e	-0.09230481
158	0xbe01edc8	-0.12688363
159	0xbdec8c46	-0.115501925
160	0xbdd643f7	-0.10462182
161	0xbdd87d0d	-0.105707265
162	0x3ec731ee	0.3890528
163	0x3ec64cb6	0.387304
164	0x3ebd11b8	0.3692758
165	0x3ec992d9	0.39369848
166	0x3ed2096d	0.41022816
167	0x3ebc0495	0.36722246
168	0x3ec98c88	0.3936503
169	0x3eb9085e	0.36139196
170	0x3eb8b5e8	0.36076283
171	0x3eb40841	0.35162547
172	0x3ebef7d1	0.37298444
173	0x3eb29908	0.3488238
174	0x3eb93c85	0.36178985
175	0x3ec4bc72	0.38425022
176	0x3eb41087	0.3516886
177	0x3eb7066b	0.35747084
178	0x3eb95c90	0.36203432
179	0x3eb1ce76	0.3472783
180	0x3ebf763a	0.37394887
181	0x3ebd25b2	0.36942822
182	0x3ebcfae5	0.36910167
183	0x3ec94d11	0.3931661
184	0x3ebbf39f	0.36709306
185	0x3ebc75ec	0.36808717
186	0x3ecf7021	0.40515235
187	0x3ed16080	0.40893936
188	0x3ebc622b	0.36793646
189	0x3ed14efa	0.40880567
190	0x3eb80fe5	0.35949627
191	0x3ece5dd2	0.40305954
192	0x3ec41b2a	0.38301975
193	0x3eb4abfd	0.35287467
194	0x3ec85709	0.39128903
195	0x3ebb8c51	0.3663049
196	0x3ecca84c	0.3997215
197	0x3ec3c623	0.38237104
198	0x3eb2502f	0.348268
199	0xbe50dee5	-0.20397528
200	0xbe3f4b4e	-0.1868107
201	0xbe52c85b	-0.20584242
202	0xbe402ac9	-0.18766321
203	0xbe7654d5	-0.24055798
204	0xbe5eb551	-0.21748854
205	0xbe65fa56	-0.22458777
206	0xbe65b0c8	-0.22430718
207	0xbe5cbd97	-0.21556698
208	0xbe572129	-0.21008743
209	0xbe6f8a4e	-0.23392603
210	0xbe57e23c	-0.21082395
211	0xbe51927d	-0.20466037
212	0xbe514f43	-0.20440392
213	0xbe3e925d	-0.1861052
214	0xbe36465f	-0.17800282
215	0xbe35a89e	-0.17740104
216	0xbe6ac2a2	-0.22925809
217	0xbe488a6e	-0.19584057
218	0xbe63d175	-0.2224787
219	0xbe3c69ae	-0.18399689
220	0xbe4e25b9	-0.20131578
221	0xbe1daa45	-0.15396984
222	0xbe38f32c	-0.18061513
223	0xbe1f874f	-0.1557896
224	0xbe592486	-0.21205339
225	0xbe356e9b	-0.17717974
226	0xbe69fdde	-0.22850749
227	0xbe5e707c	-0.21722597
228	0xbe2b1da1	-0.16710521
229	0xbe2bb56c	-0.16768426
230	0xbe2257f6	-0.15853867
231	0xbe0f2bb2	-0.13981512
232	0xbdd53237	-0.10409968
233	0xbd24bfd3	-0.040222
234	0xbd0c0bc1	-0.034190897
235	0xbd2cc563	-0.04218043
236	0xbd2a47ac	-0.041572258
237	0x3bf3ff03	0.0074461713
238	0xbdd9a7a0	-0.10627675
239	0xbdea3fed	-0.11437974
240	0xbe35e52a	-0.177632
241	0xbe281b19	-0.16416587
242	0xbe3bfc44	-0.1835795
243	0xbe2353d8	-0.15949953
244	0xbe38bb65	-0.18040235
245	0xbe6f3e24	-0.23363549
246	0xbe6153b9	-0.22004594
247	0xbe80e958	-0.25178027
248	0xbe5985f8	-0.21242511
249	0xbe854b6b	-0.26034102
250	0xbe5b968a	-0.21444145
251	0xbe62a13c	-0.22131819
252	0xbe83e485	-0.25760284
253	0xbe71c677	-0.23610865
254	0xbe6023a2	-0.21888593
255	0xbe51d58d	-0.2049162

dense1.bias f4 [50]
0	0xbe9319ec	-0.28730714
1	0x3ea35287	0.318989
2	0xbdd7edb2	-0.10543384
3	0x3e9124d1	0.283484
4	0xbf115806	-0.5677494
5	0x3e885b4e	0.2663216
6	0x3e9c7edf	0.30565545
7	0xbe8b7a8c	-0.27241933
8	0xbe238e09	-0.15972151
9	0xbe9badfe	-0.30406183
10	0xbe3cba01	-0.1843033
11	0x3ec4ead1	0.384604
12	0xbea82b30	-0.3284545
13	0xbd849c3d	-0.064751126
14	0xbe6b5efa	-0.2298545
15	0xbe06cc52	-0.1316388
16	0x3df0ee68	0.117642224
17	0x3ea9d37f	0.3316917
18	0xbeb8deaa	-0.3610738
19	0xbe99e2e0	-0.30055904
20	0x3eb96fab	0.36218008
21	0xbed04ee3	-0.40685186
22	0x3ef4d631	0.47819665
23	0x3e02ced0	0.12774205
24	0x3e966e51	0.2938104
25	0xbe9f53ab	-0.3111852
26	0xbe96bc6c	-0.2944063
27	0xbeac0e92	-0.33604866
28	0x3e2a7869	0.16647495
29	0xbe88e005	-0.26733413
30	0xbe91edf3	-0.28501853
31	0xbe9e1e07	-0.30882284
32	0xbe9e6501	-0.30936435
33	0x3e9f3729	0.3109677
34	0x3e91ec92	0.285008
35	0xbe912d0d	-0.28354684
36	0xbeaa551d	-0.3326806
37	0xbe8ea159	-0.27857473
38	0xbe01f59c	-0.12691349
39	0xbe9df46c	-0.30850542
40	0x3dc73fa0	0.097289324
41	0xbe919229	-0.28431824
42	0x3e9ef77b	0.31048188
43	0xbe95fa40	-0.29292488
44	0x3eb578fd	0.3544387
45	0x3e96eb36	0.29476327
46	0x3ea77b29	0.3271115
47	0xbea7915b	-0.32728085
48	0x3e9fd671	0.31218293
49	0x3e9c9902	0.30585486

dense2.weight f4 [1, 50]
0	0xbf252855	-0.64514667
1	0xbea73338	-0.32656264
2	0x3d3a38fc	0.0454645
3	0x3d60d28a	0.054888286
4	0xbe1f7a3c	-0.15573972
5	0xbc9c6e21	-0.019095482
6	0x3dae86bb	0.085217915
7	0xbf4d9ad3	-0.8031437
8	0xbf022aab	-0.50846356
9	0x3cc2abf5	0.023763636
10	0x3e78ff6d	0.24316187
11	0xbd859e38	-0.065243185
12	0xbe16b8f6	-0.14718994
13	0x3e1d75ac	0.1537692
14	0x3e4b6f42	0.1986666
15	0xbe878644	-0.26469624
16	0x3d075ef2	0.03304953
17	0x3eb2b64b	0.34904703
18	0x3f2aedb9	0.66768986
19	0xbe87637e	-0.26443094
20	0x3da45642	0.08024265
21	0xbeddc2eb	-0.43312773
22	0x3e0b3fc8	0.1359855
23	0x3d01f94b	0.031731885
24	0xbe4c9bdf	-0.19981335
25	0x3ddc1947	0.10747009
26	0xbedd79aa	-0.43256885
27	0xbccfd5c1	-0.02537048
28	0x3da878b3	0.082261465
29	0xbe4c121e	-0.19928786
30	0xbf03d0ad	-0.5149029
31	0xbf369993	-0.71328086
32	0xbeeeff0a	-0.46678954
33	0x3bce59b2	0.0062973136
34	0xbe85e036	-0.26147622
35	0xbeb7ff61	-0.35937026
36	0xbf151ac7	-0.58243984
37	0xbf273926	-0.65321577
38	0xbe24575a	-0.16048947
39	0xbd946b2b	-0.07247003
40	0x3e3f8790	0.18704057
41	0xbca29322	-0.019845549
42	0x3ed4b40a	0.4154361
43	0x3e1c947f	0.15291022
44	0x3ea005b4	0.3125435
45	0xbe36c082	-0.17846873
46	0x3eabcc54	0.33554327
47	0xbf1648c8	-0.58704805
48	0x3cfdc026	0.030975413
49	0x3dc5bec1	0.09655524

bachnorm1.weight f4 [50]
0	0x3f858268	1.0430422
1	0x3f87ad73	1.0599808
2	0x3f246a6c	0.64224887
3	0x3f134a53	0.57535285
4	0x3f068e77	0.52561134
5	0x3f2274df	0.6345958
6	0x3f5c1673	0.85971755
7	0x3f535e0b	0.82565373
8	0x3f831a7e	1.024246
9	0x3f0ff210	0.56228733
10	0x3f639841	0.88904196
11	0x3f206a6d	0.6266239
12	0x3f2913e1	0.6604596
13	0x3f24d3ac	0.64385486
14	0x3f2a6998	0.66567373
15	0x3f1b3cbd	0.60639554
16	0x3eec4109	0.46143368
17	0x3f7299eb	0.9476611
18	0x3f4ddc4c	0.8041427
19	0x3f30050f	0.6875772
20	0x3f4eeb5f	0.808279
21	0x3f8f62c3	1.1202015
22	0x3f374d50	0.71602345
23	0x3ee663b3	0.4499794
24	0x3f5b6cd9	0.85712963
25	0x3f172fda	0.5905739
26	0x3f89d987	1.0769509
27	0x3f10f95c	0.5663049
28	0x3f4323f3	0.7622673
29	0x3f38bc58	0.7216239
30	0x3f95191c	1.1648288
31	0x3fb9c85b	1.4514269
32	0x3f531e66	0.8246826
33	0x3f1967ff	0.5992431
34	0x3f616253	0.88040656
35	0x3f4556ce	0.7708558
36	0x3f2dd111	0.67897135
37	0x3f33222e	0.6997403
38	0x3f147731	0.5799437
39	0x3f743a29	0.95401245
40	0x3ef2ce2e	0.47422928
41	0x3f337d78	0.70113325
42	0x3f8a55e0	1.0807457
43	0x3f474fb4	0.7785599
44	0x3f1ba863	0.6080381
45	0x3f5dc91b	0.8663499
46	0x3f8658e6	1.049588
47	0x3f53ff7f	0.8281173
48	0x3eab8259	0.33497885
49	0x3f4e8d83	0.8068468

bachnorm1.bias f4 [50]
0	0x3f2fc3a6	0.6865791
1	0x3f26059e	0.6485232
2	0x3f1abafd	0.6044157
3	0xbe5fa69f	-0.21840905
4	0xbd3aa671	-0.045568887
5	0xbef7634c	-0.48317945
6	0xbf1e74f0	-0.6189718
7	0x3f2fde70	0.6869879
8	0x3f275c20	0.65374947
9	0xbed32aa6	-0.41243476
10	0xbf1044c7	-0.56354946
11	0xbe741062	-0.23834375
12	0x3eea3bec	0.45748842
13	0x3f194c29	0.59881836
14	0xbeed2221	-0.463151
15	0xbeb70091	-0.3574262
16	0xbeaba7e4	-0.33526528
17	0xbf15e009	-0.58544976
18	0xbf2a1b7e	-0.664482
19	0x3f056d64	0.5212004
20	0xbf2074c0	-0.62678146
21	0x3f2a92b4	0.666301
22	0x3e8cb29a	0.27480012
23	0xbec1f509	-0.3788226
24	0x3f22b4c2	0.63557065
25	0x3ccbd8e0	0.024883687
26	0x3f21d4d9	0.63215405
27	0x3f094e1d	0.53634816
28	0xbf0cfeb9	-0.55076176
29	0xbe0c1ffc	-0.13684076
30	0x3f2e077a	0.6798016
31	0x3f31cd7d	0.69454175
32	0x3f0fdc19	0.5619522
33	0xbea39fed	-0.3195795
34	0x3f218c72	0.6310493
35	0x3ef2ee55	0.47447458
36	0x3f2e75ec	0.68148685
37	0x3f1fad59	0.6237388
38	0xbe756ee9	-0.2396809
39	0x3eb3e3bb	0.35134682
40	0x3eb6cd8a	0.3570369
41	0xbeae81f5	-0.34083524
42	0xbf254016	-0.6455091
43	0x3def1d32	0.116754904
44	0x3ec77586	0.3895685
45	0x3f04d561	0.5188809
46	0xbf23cfcc	-0.6398895
47	0x3f2cb228	0.67459345
48	0x3e8fc4b5	0.28079763
49	0xbf155159	-0.5832725
