Results/FBM/best_model_becker.pt (torch, 67167 bytes, 5 tensors)

dense1.weight f4 [50, 320]
000000 30 38 46 bc ae d7 8a be 39 8b 90 3e 11 d5 a6 3e
       -0.012098357 -0.27117676 0.28231218 0.32584432
000010 19 ed a0 3e 38 87 9c 3e d5 14 89 3e 82 7e 83 3e
       0.3143089 0.30571914 0.26773706 0.25682455
000020 0f 5b 91 3e 9d d5 93 3e d6 72 a7 3e 94 6e b3 3e
       0.28389785 0.28873911 0.327048 0.35045302
000030 f9 40 86 3e db af 99 3e 78 fd 9b 3e 70 b3 ab 3e
       0.26221445 0.3001698 0.3046682 0.33535337
000040 00 b4 9c 3e e9 1d 9e 3e cf 45 b1 3e d7 55 9d 3e
       0.3060608 0.30882195 0.34623572 0.30729553
000050 3d c3 8f 3e ca 3c 8c 3e 9a 4d 9f 3e cd b7 87 3e
       0.28078642 0.27390128 0.31113893 0.26507416
000060 d8 81 91 3e 05 48 87 3e ae 23 a8 3e 7a 21 83 3e
       0.28419375 0.26422134 0.3283972 0.25611478
000070 cd c4 87 3e 42 4f b5 3e 61 28 8c 3e 72 36 82 3e
       0.26517335 0.3541203 0.27374557 0.25432163
000080 e8 ea 7f 3e 37 a9 87 3e 5d 6b a3 3e 6d 6b 92 3e
       0.24991953 0.26496288 0.3191785 0.28597584
000090 9d 5b 97 3e 2d 91 88 3e 45 24 85 3e 49 11 7f 3e
       0.29562083 0.2667326 0.26004234 0.24908938
0000a0 83 bd 8a 3e 6c 46 81 3e 63 00 a1 3e f4 db a2 3e
       0.2709771 0.2524904 0.31445608 0.31808436
0000b0 f1 53 9b 3e f2 1f 9c 3e 8a 0b 90 3e 74 b8 81 3e
       0.3033748 0.30493122 0.28133804 0.2533604
0000c0 8f 4a 8e 3e 7b b5 a2 3e 38 78 7c 3e 93 e7 91 3e
       0.2779126 0.31779084 0.24655235 0.2849699
0000d0 9a e7 9c 3e 01 e9 8e 3e 3a ee b0 3e 04 1d a6 3e
       0.30645448 0.27912143 0.34556752 0.32444012
0000e0 0a c6 8c 3e e3 d5 8c 3e 9e a9 88 3e bc f8 a7 3e
       0.27494842 0.27506933 0.26691908 0.32806957
0000f0 96 c7 ad 3e b1 50 88 3e 48 93 ab 3e d9 b4 9d 3e
       0.33941334 0.26624063 0.33510804 0.30802038
000100 5f 12 7c 3e cf cb 94 3e 32 f2 9e 3e 31 56 a8 3e
       0.24616383 0.29061744 0.31044155 0.3287826
000110 e1 d5 ac 3e 82 cf b0 3e b9 60 9a 3e e8 14 ab 3e
       0.33756927 0.34533316 0.3015192 0.33414388
000120 18 dd 8e 3e 32 dc 98 3e a7 70 90 3e 40 d2 a3 3e
       0.27903056 0.29855496 0.28210947 0.31996346
000130 37 7c a4 3e a5 67 8c 3e 83 0e 88 3e 4e eb b3 3e
       0.32126018 0.27422825 0.26573572 0.3514046
000140 fd 22 92 3e 70 4c 92 3e 51 35 86 3e f6 33 80 3e
       0.2854232 0.28573942 0.26212552 0.25039643
000150 f9 2c 9e 3e 11 55 ad 3e 5f 73 a1 3e 87 e6 8e 3e
       0.30893686 0.33853963 0.31533334 0.27910253
000160 01 74 9c 3e 75 0f 89 3e bc 0d 90 3e d1 d3 8c 3e
       0.30557254 0.26769605 0.28135478 0.27505353
000170 f7 dc 87 3e 9a e2 94 3e 4d 78 8c 3e 65 b3 77 3e
       0.2653577 0.29079133 0.27435532 0.24189527
000180 e1 d8 b0 3e 2a 2e a5 3e 28 b3 aa 3e c1 c0 b5 3e
       0.34540465 0.32261783 0.3333981 0.35498622
000190 c3 de ac 3e 48 07 88 3e 52 54 ad 3e f9 61 94 3e
       0.33763704 0.26568055 0.33853394 0.28980997
0001a0 54 bd b5 3e a1 44 ac 3e 1c 8a 80 3e d0 0e 9d 3e
       0.35496008 0.3364611 0.2510537 0.30675364
0001b0 36 25 af 3e 18 18 a9 3e b2 cf 93 3e 07 01 b7 3e
       0.34208077 0.33026195 0.28869396 0.3574297
0001c0 27 41 aa 3e ac 80 9f 3e d6 ef a1 3e 32 ab a1 3e
       0.33252832 0.31152856 0.31628293 0.31575924
0001d0 ee a6 bd 3e 2a cf a6 3e 96 ec cb 3e 8a 7c 9c 3e
       0.3704142 0.3257993 0.39828938 0.30563766
0001e0 45 75 b0 3e bc 3b c0 3e 8c 03 cb 3e 0b 41 9b 3e
       0.3446447 0.37545574 0.39651144 0.3032306
0001f0 ba 11 bd 3e f8 29 aa 3e b8 bf c4 3e 27 8e c8 3e
       0.36927587 0.33235145 0.3842752 0.39170954
000200 fe fd ba 3e 7d c4 c5 3e 30 68 cf 3e b1 2f aa 3e
       0.36521906 0.3862647 0.40509176 0.3323951
000210 4a 48 c2 3e 19 d7 e0 3e 3c e4 6f 3d 5b a2 7b be
       0.37945777 0.43914106 0.05856727 -0.24573652
000220 17 6d 75 be b3 e3 6e be ca 01 72 be 56 d1 70 be
       -0.23967396 -0.23329048 -0.23633495 -0.23517355
000230 49 16 87 be 08 3c a8 be 0e 29 82 be f4 71 1a be
       -0.2638419 -0.328583 -0.25421947 -0.15082532
000240 e8 8e 3a be 4c 48 2e be 8d 1f f6 bd c5 0e 2e be
       -0.18218577 -0.17019767 -0.120177366 -0.16997822
000250 68 d1 2c be 9e ac 17 be 61 c5 4e be c9 0a 72 be
       -0.16876757 -0.14811942 -0.20192482 -0.23636927
000260 d5 d1 4f be 37 d6 93 be c8 c4 6e be 6b 4a c9 bd
       -0.20294888 -0.2887437 -0.23317254 -0.09828647
000270 fc 54 3c be 7b 47 86 be 86 1c a5 be 11 bb de bd
       -0.18391794 -0.2622641 -0.32248324 -0.10875524
000280 c4 71 59 bc ef 35 13 3f bb 91 7e bd d7 b2 d3 3c
       -0.013271753 0.5750417 -0.0621507 0.025842113
000290 91 31 91 3d 0c 63 ca 3c b5 ca c1 3d df 7a a8 3e
       0.07089532 0.024705432 0.094624914 0.32906243
0002a0 de e2 c3 3e d5 19 81 3e 8e 65 a5 bd f4 be 57 be
       0.38259023 0.2521502 -0.08076011 -0.21068937
0002b0 e4 ab 2c be 3e 1d 91 be f0 cb 7e be bb 99 38 be
       -0.16862446 -0.28342623 -0.24882483 -0.18027394
0002c0 68 e2 92 be 57 77 86 be d2 92 90 be 72 76 93 be
       -0.2868836 -0.26262924 -0.28237015 -0.28801304
0002d0 06 27 8e be 77 1c 84 be ef e4 4b be 61 a0 49 be
       -0.27764148 -0.25802967 -0.1991155 -0.19690086
0002e0 3f 15 9a be 0f 21 90 be 77 7a 77 be 75 69 73 be
       -0.30094334 -0.28150222 -0.2416781 -0.23770697
0002f0 e5 6e 9f be a1 44 79 be 16 45 ae be 9e d1 84 be
       -0.31139293 -0.24342586 -0.34037083 -0.25941175
000300 a0 32 8d be 05 8e 96 3e ca ee c5 3e 08 6f a8 3e
       -0.27577686 0.29405227 0.38658744 0.3289721
000310 7f 0f 57 be 2e 69 ad 3e 45 0f 8b 3e 5a a4 89 3e
       -0.21002005 0.33869308 0.27160087 0.26883203
000320 c7 2b a3 3e 35 85 99 3e ca 72 b0 3e 25 af 8f 3e
       0.31869337 0.2998444 0.34462577 0.28063312
000330 81 10 98 3e a8 04 a1 3e 94 b7 a6 3e 0a 93 ae 3e
       0.2970009 0.31448865 0.32561934 0.34096557
000340 77 aa a0 3e bd 57 90 3e 6a 14 ab 3e 68 f6 ab 3e
       0.31380054 0.2819194 0.33414012 0.3358643
000350 51 4f a3 3e 00 bb ad 3e 65 dd b4 3e 2f fb bc 3e
       0.3189645 0.33931732 0.3532516 0.36910388
000360 28 68 85 3e 36 2b 9f 3e 0d e1 8a 3e f9 c4 a7 3e
       0.26056027 0.31087655 0.27124825 0.32767466
000370 fb e8 96 3e 5c 1c bc 3e 43 6d a7 3e 4e f7 b9 3e
       0.29474625 0.36740386 0.32700548 0.3632149
000380 8b c3 8e 3e ef 1c b9 3e e8 b5 8b 3e 35 5b 8e 3e
       0.27883562 0.36154887 0.2728722 0.2780396
000390 22 89 b5 3e 75 9e b5 3e 90 18 92 3e d4 a2 9e 3e
       0.35456187 0.35472456 0.28534365 0.30983603
0003a0 dc 32 a2 3e 2d 00 bf 3e 81 67 b6 3e ee 6d b5 3e
       0.31679428 0.37304822 0.35625842 0.35435432
0003b0 bb fb ab 3e a3 eb b3 3e 68 9f 98 3e 65 71 ac 3e
       0.33590493 0.35140714 0.29809117 0.33680263
0003c0 67 a7 95 3e e2 1f ab 3e 4b 94 94 3e 03 53 9b 3e
       0.2922928 0.33422762 0.2901939 0.3033677
0003d0 0c fb ac 3e 1c 81 a1 3e 6e d9 b0 3e 71 0a 93 3e
       0.33785284 0.31543815 0.34540886 0.28718904
0003e0 af 20 b3 3e 56 2c 8c 3e bb 9e c3 3e a5 e3 ad 3e
       0.34985873 0.27377576 0.3820704 0.33962741
0003f0 9a b8 86 3e 87 98 8d 3e 2d fd a7 3e 78 ea 60 be
       0.26312715 0.27655432 0.32810345 -0.21964443

dense1.bias f4 [50]
000000 64 56 2b bc 03 b0 81 3e d1 a1 8c be fe 6a 92 be
       -0.010457609 0.253296 -0.27467206 -0.28597254
000010 22 1f 9a 3e 4b ff c2 3e ef fb 88 3e 7e 79 96 be
       0.30101877 0.38085398 0.2675471 -0.29389566
000020 ea e4 9d 3e 1e 3e 89 3e ea 06 b6 be d7 dc b0 be
       0.3083871 0.26805204 -0.3555215 -0.34543487
000030 8a aa db 3e 69 09 94 be 38 80 8f be 41 ce e1 3e
       0.42903548 -0.2891343 -0.2802751 0.44102672
000040 47 68 00 be 99 ad ab 3e 85 12 37 3e 04 9f a3 be
       -0.12539779 0.33530882 0.17878158 -0.31957257
000050 c5 1b a4 3e 52 e2 bf 3e 52 f1 85 3e 1a 1f 37 be
       0.32052436 0.37477356 0.26160675 -0.17882958
000060 7d 83 a3 be 7f 1b a0 be c8 cc 9f 3e 9c 4a 79 be
       -0.31936255 -0.31270978 0.31210923 -0.24344867
000070 c6 90 97 be 54 11 ab be 05 83 87 be 39 f7 a0 be
       -0.2960264 -0.33411658 -0.26467147 -0.31438616
000080 90 46 83 3e bf 60 7a be 22 5c 8c bd 99 1f ad 3e
       0.25639772 -0.24450968 -0.068535104 0.3381317
000090 cc d8 b1 3e be 64 96 3e 63 4c a9 3e 89 e3 59 3e
       0.34735715 0.29373735 0.3306609 0.21278204
0000a0 08 9d ae 3e ff 19 57 be a4 d5 9a be ea a5 c7 be
       0.3410418 -0.2100601 -0.3024112 -0.3899377
0000b0 c4 bd 4e 3e 1d 05 b6 3e d4 c7 88 3e 5f 69 f0 3d
       0.20189577 0.35550776 0.26714957 0.11738848
0000c0 7f ac 82 be 25 5a a7 3e
       -0.2552223 0.32685962

dense2.weight f4 [1, 50]
000000 0a 70 05 3e 3b b5 af 3e 88 a9 96 be 79 72 30 3f
       0.13031021 0.34317955 -0.29426217 0.6892467
000010 45 a5 eb bd 68 6f 80 be cc a7 82 3e 46 ce 7b be
       -0.11506132 -0.25084996 0.25518644 -0.24590406
000020 98 22 7f be ac e1 16 3e 4a c7 13 3e 8c a7 cc 3e
       -0.2491554 0.14734524 0.14431491 0.39971578
000030 86 b1 d0 be 86 a4 04 be e9 f5 2e bf 4b d1 0b be
       -0.4076044 -0.12953386 -0.6834398 -0.13654058
000040 27 8b e1 3c 4b 72 d8 bc 2c ac cd be e8 c3 9d 3e
       0.027532173 -0.026421687 -0.4017042 0.30813527
000050 1d 62 1c be 2e da b4 3d eb 55 50 3e ba ff 76 3d
       -0.15271802 0.08830677 0.20345275 0.060302474
000060 e9 dd 2d bf c8 3d 39 bf 98 9f 4c be d7 0f 21 3f
       -0.67916733 -0.72359896 -0.19982755 0.62914795
000070 c9 bc 58 bc c8 42 3d be f4 3a c8 3d 28 df 96 3e
       -0.013228604 -0.18482506 0.097768694 0.2946713
000080 71 3d 47 bd a4 11 87 be 55 0a e3 3c 87 79 2d be
       -0.04864258 -0.26380646 0.027714888 -0.1694089
000090 ca 83 95 bd 84 f7 0f bc 80 5d 60 be ae 05 a4 be
       -0.073005274 -0.00878704 -0.21910667 -0.32035583
0000a0 57 e7 44 bd 1a e9 59 be 75 41 25 bf 58 87 3d 3e
       -0.048072185 -0.21280327 -0.64553005 0.18508661
0000b0 1f 27 45 be c1 07 cc 3d 3b 50 04 3e 4d f9 6c be
       -0.19253205 0.099624164 0.1292123 -0.23141976
0000c0 a5 cf 1a bf 34 95 14 3e
       -0.6047309 0.14510041

bachnorm1.weight f4 [50]
000000 c7 28 12 3f 3e 17 8d 3f 5f 22 33 3f e7 6e a6 3f
       0.5709347 1.1022718 0.6997432 1.3002595
000010 af b1 4c 3f 0f 47 43 3f eb 76 64 3f 1f 22 33 3f
       0.79958624 0.762803 0.89243954 0.6997394
000020 05 e7 7b 3f 8e 03 57 3f 0b 22 33 3f 1c dd 90 3f
       0.9839938 0.839898 0.6997382 1.1317477
000030 bd b8 a8 3f 14 22 33 3f f9 6e a6 3f 81 31 33 3f
       1.3181378 0.69973874 1.3002616 0.6999741
000040 43 52 43 3f 20 ab 35 3f 99 8e 87 3f e3 50 44 3f
       0.76297396 0.7096424 1.0590392 0.76685923
000050 76 46 56 3f b3 b7 40 3f 1f 06 33 3f e9 f5 4f 3f
       0.83701265 0.752803 0.69931215 0.81234604
000060 04 0d ab 3f 10 0d 80 3f 29 db 69 3f 22 48 43 3f
       1.3363347 1.0003986 0.91350037 0.7628194
000070 9a eb ee 3e c5 72 17 3f 32 0a 1d 3f 1a 22 33 3f
       0.46664125 0.591595 0.6134368 0.6997391
000080 0b 0f 3b 3f 31 22 33 3f fe a6 2e 3f 23 ea 60 3f
       0.7306983 0.69974047 0.6822356 0.87857264
000090 ee 41 c9 3e 78 11 d1 3e e9 34 3a 3f 05 3e 95 3f
       0.39308113 0.4083364 0.72736984 1.1659552
0000a0 84 0c 29 3f 9c 05 0e 3f 5e 0c 93 3f ba 44 17 3f
       0.6603472 0.5547731 1.1488149 0.59089243
0000b0 3b b1 3e 3f bb d7 3c 3f 31 48 5d 3f 2e e5 6c 3f
       0.7448918 0.7376668 0.8643828 0.925372
0000c0 19 22 33 3f fa eb 21 3f
       0.69973904 0.63250697

bachnorm1.bias f4 [50]
000000 7f 80 74 3e 24 08 26 bf 6e b5 0e 3f 2e 7d 51 bf
       0.23877142 -0.6485617 0.5574559 -0.81831634
000010 ec f2 16 3f 6a fc 47 3f 65 10 2c bf 1d 04 01 3f
       0.5896442 0.7811953 -0.67212516 0.503969
000020 2d 90 23 3f 21 25 19 bf e2 aa f5 3d c7 5c 42 bf
       0.6389187 -0.5982228 0.11995484 -0.75922817
000030 ad d6 1e 3f 98 60 18 3e aa dc 43 3f 80 96 db be
       0.6204632 0.14880598 0.7650858 -0.4288826
000040 cb ce 04 3f 9a 5a 03 3f 29 0e 26 3f 2f aa 21 bf
       0.5187804 0.5131012 0.64865357 -0.63150305
000050 5c fb 11 3f 99 86 f3 be ec 45 41 3e 97 01 36 bf
       0.5702417 -0.47563627 0.1887433 -0.71096176
000060 f8 6f 35 3f 9b da 40 3f c4 77 11 3f c1 b4 19 bf
       0.70873976 0.75333565 0.5682337 -0.60041434
000070 3f 70 9d be 66 f3 07 3f 24 0d cc 3e 8f f4 ff be
       -0.307497 0.5310577 0.39853776 -0.4999127
000080 2c 62 f5 be 99 ab 07 3f cb 3b 98 be 58 8c 12 3f
       -0.47926462 0.5299621 -0.29733118 0.572454
000090 b4 48 2d be 2f 04 e2 3e 83 3a e2 be ce d1 16 3f
       -0.16922265 0.44143817 -0.44185266 0.58913887
0000a0 c0 11 0f 3f d0 db 22 3f 1f a9 34 3f 29 75 98 3e
       0.5588646 0.6361666 0.7057056 0.29776886
0000b0 c8 41 dd 3e db ec 15 bf 31 be 06 bf d6 4a 2c 3f
       0.4321425 -0.5856454 -0.5263396 0.6730169
0000c0 fd 36 26 3f 84 64 c9 3e
       0.64927655 0.393345
