Results/FBM/best_model_cnn.pt (torch, 298015 bytes, 13 tensors)

conv1.weight f4 [6, 2, 3]
0.30598617 -0.69954956 -0.19722898 0.42079002 0.20745215 0.14811155 -0.1492151 -0.19526324
-0.4470429 0.11872901 0.47377875 0.5746043 0.11205795 0.23596737 0.30991793 0.35288364
-0.335103 -0.4812285 0.19806777 -0.17602338 -0.56534135 0.34486398 0.27057365 -0.10905384
0.09590172 -0.14489369 0.29261753 -0.52188104 -0.5675316 0.158945 -0.39011142 -0.7561791
-0.36243653 -0.41036615 0.23918901 0.0279055
00000000: 38aa 9c3e ae15 33bf 65f6 49be ca71 d73e
00000010: 566e 543e 8eaa 173e d8cb 18be 16f3 47be
00000020: cfe2 e4be 3228 f33d 2193 f23e 4419 133f
00000030: a37e e53d 6ea1 713e 90ad 9e3e 2aad b43e
00000040: 9f92 abbe 9563 f6be 47d2 4a3e 793f 34be
00000050: 36ba 10bf 0392 b03e a188 8a3e 9f57 dfbd
00000060: 1f68 c43d 035f 14be f7d1 953e ff99 05bf
00000070: c049 11bf 7ac2 223e afbc c7be f494 41bf
00000080: 4891 b9be 831b d2be f7ed 743e 139a e43c

conv1.bias f4 [6]
-0.042491026 0.18881512 -0.5046265 -0.3594768 -0.50879365 -0.13675743
00000000: 120b 2ebd c058 413e 342f 01bf 580d b8be
00000010: 4d40 02bf 240a 0cbe

conv2.weight f4 [3, 6, 3]
0.12535101 -0.13298422 -0.39810732 -0.29493284 -0.31169587 0.18193436 -0.10178126 -0.14466427
-0.6368114 -0.077991955 -0.15835868 -0.39975426 -0.2411975 0.4690553 0.24387625 -0.46558538
-0.38701513 0.3672901 0.4772368 0.16333926 0.47711757 0.39638335 0.05945529 0.2511563
0.36271614 0.43772984 0.4513407 0.26305065 -0.043407295 -0.023842508 -0.317197 -0.505445
-0.25743443 -0.19935466 -0.19962357 -0.426737 0.21890683 0.6793031 0.35380995 0.3901117
0.24775279 0.2173555 0.40163004 0.63017523 0.50472784 -0.29186526 -0.16495214 0.26888394
-0.3148741 -0.27843398 -0.3593685 0.13912423 -0.3295986 -0.5144051
00000000: 045c 003e 042d 08be b9d4 cbbe 7001 97be
00000010: 9a96 9fbe 004d 3a3e b172 d0bd df22 14be
00000020: 1206 23bf 3fba 9fbd c728 22be 97ac ccbe
00000030: 7afc 76be 0428 f03e b2ba 793e 3561 eebe
00000040: d926 c6be 730d bc3e 6258 f43e 6842 273e
00000050: c148 f43e c2f2 ca3e 6487 733d 8f97 803e
00000060: eeb5 b93e 201e e03e 2116 e73e 93ae 863e
00000070: d9cb 31bd 5d51 c3bc a567 a2be d864 01bf
00000080: 72ce 83be a123 4cbe 1f6a 4cbe 467d dabe
00000090: 1d29 603e cfe6 2d3f 9426 b53e b9bc c73e
000000a0: e8b2 7d3e 7192 5e3e 74a2 cd3e 2a53 213f
000000b0: d835 013f 5d6f 95be 37e9 28be 28ab 893e
000000c0: 2e37 a1be e68e 8ebe 26ff b7be 9576 0e3e
000000d0: 26c1 a8be 0db0 03bf

conv2.bias f4 [3]
0.25740695 -0.17626373 0.1625112
00000000: d8ca 833e 7b7e 34be 5669 263e

dense1.weight f4 [50, 1460]
0.3362497 0.18640399 0.30456936 0.28161168 0.28323844 0.3274488 0.3234548 0.28170872
-0.31618544 -0.28335765 0.32708046 0.3106233 0.3171837 0.298529 0.3257691 0.32140628
0.29438353 0.378827 0.46850464 0.40769657 0.28655204 0.31707 0.31934258 0.27236474
0.20440999 0.1717891 0.12288507 0.30222845 0.29792428 0.2924889 -0.3148211 -0.43071878
0.06828533 0.27639005 -0.24924144 -0.24736416 -0.38107204 -0.28511932 0.33739644 -0.27525043
0.2499746 -0.35510167 -0.16376977 -0.32894397 0.38409418 0.20398735 -0.22531366 0.28299567
0.33557236 -0.3781771 -0.32656333 0.21593185 -0.33470353 -0.28675902 0.18503024 0.28835556
0.32774618 -0.25470713 -0.28944042 0.10253606 0.012158813 0.28996813 0.31310773 0.3339027
-0.28849643 -0.30827346 -0.29325938 -0.32147965 0.26411176 -0.26412857 -0.3122039 0.56575984
0.3231127 -0.24841276 0.30896363 -0.391678 -0.28742495 -0.3490831 -0.2059771 -0.29753888
-0.40048745 0.24546501 0.2906224 0.31124607 -0.24455209 0.26027703 0.32708162 0.31983706
0.06478754 -0.41150308 -0.17526133 0.36546522 0.3734697 0.32749468 0.34036916 -0.35569793
-0.048885014 0.3714709 0.33674744 0.30908126 0.2528308 0.28976622 0.32134295 -0.31398046
0.055554938 0.15859698 -0.28365156 -0.27929202 0.27019808 0.29849955 0.26978382 0.1331737
-0.23414989 -0.31368402 0.17518252 -0.26489866 -0.20413874 -0.32519332 -0.30523407 -0.32686886
-0.30324468 0.28428447 -0.2682827 -0.3001152 0.30466053 0.26432556 0.28016672 0.28299585
-0.54256195 0.295865 0.32291716 0.27758116 0.30489007 -0.2832337 0.28167856 -0.22824796
-0.2610698 0.32959044 0.3208967 0.08162809 -0.313696 0.3032542 0.3163601 0.28762308
0.3242427 0.19819956 0.3598528 -0.28393322 0.11041362 0.33700272 0.29929262 0.3348807
0.23665495 0.32386318 0.30835044 0.3127606 0.32389647 -0.19576503 0.3040612 0.30600366
0.3449915 0.35995054 0.33643496 0.47924334 0.3192955 0.34295154 0.2934583 0.30453387
0.30971986 0.19521728 0.36766177 0.29104188 -0.21294498 0.30190134 0.3699009 -0.10895873
0.243627 0.3324068 0.3276648 0.5025735 0.24776599 0.4109846 -0.30460605 0.11132147
-0.24603939 0.667087 -0.25420266 -0.26759934 0.31483778 0.30914775 0.300835 -0.29781315
-0.2087919 -0.31534797 -0.07810362 -0.033085037 -0.175595 0.15669936 0.34419128 0.2647812
0.33184367 0.30441254 -0.25026017 -0.029275842 0.436281 0.11896711 0.41038746 0.3044084
0.30290303 0.4307241 0.33386746 0.32258752 0.15100284 -0.32357344 0.31679136 -0.28079575
-0.2846682 -0.095100075 0.33977905 0.47654566 -0.5663035 0.27526104 0.321001 -0.28193825
-0.2614116 0.30867434 0.30623445 0.35085225 0.32922935 0.29900935 0.3440208 0.27067173
0.32385278 0.42535332 0.26431847 0.2977988 -0.32199374 0.26896536 0.325323 -0.30871272
0.29738128 -0.27542263 -0.15686245 -0.2972293 -0.2650018 0.27805853 -0.30004755 0.3451778
0.32757145 0.3386331 0.32255697 0.31816733 -0.2508907 0.39474282 -0.27122262 -0.24118592
00000000: ec28 ac3e b0e0 3e3e 84f0 9b3e 682f 903e
00000010: a104 913e 5ea7 a73e de9b a53e 203c 903e
00000020: 0fe3 a1be 4114 91be 1777 a73e 040a 9f3e
00000030: e765 a23e cbd8 983e 35cb a63e 5d8f a43e
00000040: 70b9 963e 9df5 c13e d7df ef3e 9bbd d03e
00000050: f3b6 923e 0057 a23e df80 a33e 6473 8b3e
00000060: da50 513e 7be9 2f3e 2bab fb3d b0bd 9a3e
00000070: 8889 983e 1bc1 953e 3b30 a1be 2c87 dcbe
00000080: 2ed9 8b3d ff82 8d3e 2639 7fbe 084d 7dbe
00000090: e01b c3be 29fb 91be 3abf ac3e a0ed 8cbe
000000a0: 57f9 7f3e e3cf b5be 43b3 27be 586b a8be
000000b0: fea7 c43e 0fe2 503e a0b8 66be cfe4 903e
000000c0: 24d0 ab3e 6ea0 c1be 4f33 a7be 3d1d 5d3e
000000d0: 435e abbe 14d2 92be 9178 3d3e 57a3 933e
000000e0: 59ce a73e f968 82be 8931 94be 6dfe d13d
000000f0: c235 473c b476 943e a84f a03e 4bf5 aa3e
00000100: ceb5 93be 05d6 9dbe 1826 96be fb98 a4be
00000110: a839 873e dc3b 87be 31d9 9fbe a3d5 103f
00000120: 076f a53e ea5f 7ebe 7b30 9e3e 058a c8be
00000130: 5d29 93be 05bb b2be a9eb 52be 0457 98be
00000140: b10c cdbe 2e5b 7b3e 76cc 943e a55b 9f3e
00000150: dd6b 7abe 0843 853e 3e77 a73e afc1 a33e
00000160: 54af 843d 88b0 d2be b577 33be 421e bb3e
00000170: 6c37 bf3e 62ad a73e de44 ae3e 0a1e b6be
00000180: a73b 48bd 6f31 be3e 296a ac3e e63f 9e3e
00000190: 0a73 813e 3d5c 943e 1087 a43e 0cc2 a0be
000001a0: 938d 633d 3f67 223e c73a 91be 5dff 8ebe
000001b0: 6757 8a3e efd4 983e 1b21 8a3e b05e 083e
000001c0: fdc4 6fbe 319b a0be 0c63 333e cca0 87be
000001d0: bf09 51be bd7f a6be a447 9cbe 5b5b a7be
000001e0: e342 9bbe bc8d 913e 5a5c 89be b3a8 99be
000001f0: 77fc 9b3e ae55 873e 0372 8f3e d5e4 903e
00000200: 57e5 0abf 9e7b 973e 6655 a53e 1e1f 8e3e
00000210: 8d1a 9c3e 0204 91be 2c38 903e d5b9 69be
00000220: f1aa 85be 14c0 a83e 924c a43e a12c a73d
00000230: c39c a0be 2244 9b3e f3f9 a13e 5543 933e
00000240: 2403 a63e d3f4 4a3e a03e b83e b25f 91be
00000250: 8920 e23d 9f8b ac3e e23c 993e 7c75 ab3e
00000260: ad55 723e 65d1 a53e 1ce0 9d3e 2822 a03e
00000270: c2d5 a53e a176 48be e9ad 9b3e 83ac 9c3e
00000280: baa2 b03e 704b b83e 3441 ac3e 625f f53e
00000290: b37a a33e 5897 af3e 2b40 963e ddeb 9b3e
000002a0: 9a93 9e3e 0ae7 473e 2a3e bc3e 7103 953e
000002b0: 400e 5abe d092 9a3e a763 bd3e c125 dfbd
000002c0: 5b79 793e 3931 aa3e aec3 a73e a8a8 003f
000002d0: 5eb6 7d3e 936c d23e 53f5 9bbe 83fc e33d
000002e0: c0f1 7bbe 37c6 2a3f da26 82be c802 89be
000002f0: 6b32 a13e 9d48 9e3e 0c07 9a3e f77a 98be
00000300: 8bcd 55be 4a75 a1be caf4 9fbd 2d84 07bd
00000310: 2dcf 33be cc75 203e d739 b03e 6791 873e
00000320: 6ae7 a93e f6db 9b3e 1a22 80be e4d3 efbc
00000330: 3960 df3e 07a5 f33d 4e1e d23e 6bdb 9b3e
00000340: 1b16 9b3e df87 dc3e adf0 aa3e 312a a53e
00000350: 7da0 1a3e 6bab a5be 7a32 a23e 76c4 8fbe
00000360: 08c0 91be d4c3 c2bd 85f7 ad3e cbfd f33e
00000370: 44f9 10bf 04ef 8c3e 3e5a a43e 365a 90be
00000380: bed7 85be 900a 9e3e c3ca 9c3e e8a2 b33e
00000390: c090 a83e c117 993e 7f23 b03e 7c95 8a3e
000003a0: 08d0 a53e e9c7 d93e c054 873e 1679 983e
000003b0: 5ddc a4be d4b5 893e bc90 a63e 980f 9ebe
000003c0: 5c42 983e 3204 8dbe 8da0 20be 702e 98be
000003d0: 51ae 87be b05d 8e3e d59f 99be 25bb b03e
000003e0: 72b7 a73e 5161 ad3e 3026 a53e d4e6 a23e
000003f0: bf74 80be bb1b ca3e b1dd 8abe 71f9 76be

dense1.bias f4 [50]
0.35376006 0.23518775 0.29178268 -0.13111958 -0.4462448 -0.39904076 0.29300314 -0.20461653
0.09573664 0.30454051 0.2946455 0.4356932 -0.28640348 0.31179652 0.2800229 -0.0998717
0.39969212 0.31430808 -0.06559984 0.29286796 -0.50455666 0.33928186 -0.37404066 0.30232835
0.30765188 0.33951756 0.54461336 -0.15342651 -0.4896547 -0.43731728 -0.3549923 0.35096362
-0.31532958 0.3922999 0.03576761 -0.43851003 -0.27451286 -0.27411106 0.012923675 -0.41739038
-0.3114106 0.489468 0.42131302 -0.3742201 -0.28996333 -0.37628266 0.3187413 -0.26727876
0.31768143 -0.44155958
00000000: 0a20 b53e 0fd5 703e 8a64 953e 3644 06be
00000010: 337a e4be 124f ccbe 8204 963e ff86 51be
00000020: 9211 c43d bcec 9b3e c6db 963e 2e13 df3e
00000030: 7aa3 92be cba3 9f3e 295f 8f3e 8989 ccbd
00000040: 72a4 cc3e fdec a03e 3559 86bd caf2 953e
00000050: a02a 01bf 5ab6 ad3e 4282 bfbe c8ca 9a3e
00000060: 8c84 9d3e 3fd5 ad3e c86b 0b3f d71b 1dbe
00000070: 05b4 fabe 0de8 dfbe 8dc1 b5be 81b1 b33e
00000080: e172 a1be 88db c83e 0f81 123d 6384 e0be
00000090: f38c 8cbe 4958 8cbe d2bd 533c 31b4 d5be
000000a0: 3671 9fbe 8d9b fa3e 57b6 d73e c799 bfbe
000000b0: 1376 94be 1fa8 c0be 0f32 a33e c3d8 88be
000000c0: 24a7 a23e 1914 e2be

dense2.weight f4 [1, 50]
0.055773463 0.1555527 -0.08714005 -0.2671062 -0.41114637 -0.023956198 0.120178856 -0.22841473
-0.08004654 0.13067105 0.12658484 -0.013896584 -0.123141594 -0.11313242 -0.10833988 -0.04744124
-0.17580228 0.0832734 -0.1754399 0.10078614 -0.46101025 0.13822925 0.10979888 -0.057137713
0.055900138 0.15116012 -0.15450749 -0.20527312 -0.47387353 -0.2661586 -0.42225036 -0.016167078
-0.2879307 0.1487092 -0.021880798 -0.659722 -0.59676933 -0.25992483 -0.03092951 0.038463276
-0.23158748 0.06474855 -0.03380356 -0.22683203 -0.17875786 -0.70619136 0.11214742 -0.012289602
-0.14877503 -0.063955836
00000000: b772 643d 3549 1f3e 7c76 b2bd 25c2 88be
00000010: c781 d2be ca3f c4bc 5520 f63d 8de5 69be
00000020: 71ef a3bd a2ce 053e 759f 013e 7fae 63bc
00000030: a931 fcbd f8b1 e7bd 4de1 ddbd bf51 42bd
00000040: 8305 34be 3f8b aa3d 84a6 33be f768 ce3d
00000050: 8909 ecbe f88b 0d3e 3cde e03d 3c09 6abd
00000060: 8bf7 643d b8c9 1a3e 3637 1ebe 1e33 52be
00000070: 8d9f f2be f145 88be 3331 d8be d270 84bc
00000080: a76b 93be 3947 183e 5c3f b3bc 8ae3 28bf
00000090: e0c5 18bf de14 85be e25f fdbc ab8b 1d3d
000000a0: 4525 6dbe e39a 843d 9a75 0abd a846 68be
000000b0: 4d0c 37be f5c8 34bf 8cad e53d 545a 49bc
000000c0: 7b58 18be 47fb 82bd

bachnorm1.weight f4 [50]
0.28637525 0.31114802 0.59147847 0.55970305 0.62401646 0.73955965 0.2292562 0.57705754
0.47646436 0.37366602 0.23251307 0.4815204 0.71967053 0.18025349 0.53342193 0.41740322
0.042095516 0.5219541 0.52559865 0.7131183 0.33940277 0.3496697 0.32566217 0.64651465
0.2540211 0.37079975 0.7230828 0.57948494 0.47136554 0.61497 0.6983069 0.49049318
0.66733414 0.07748402 0.55073875 0.9401383 0.45107222 0.660841 0.14505269 0.53354627
0.29987413 0.16777077 0.47611222 0.6414535 0.40089762 0.383199 0.37822825 0.2893989
0.22678533 0.26498818
00000000: c79f 923e cb4e 9f3e 226b 173f b348 0f3f
00000010: 8bbf 1f3f c853 3d3f 23c2 6a3e 0bba 133f
00000020: 23f3 f33e 2751 bf3e e817 6e3e d889 f63e
00000030: 543c 383f 5f94 383e 578e 083f e0b5 d53e
00000040: 596c 2c3d c99e 053f a28d 063f ec8e 363f
00000050: 33c6 ad3e e807 b33e 31bd a63e fc81 253f
00000060: 0e0f 823e 77d9 bd3e f41b 393f 2059 143f
00000070: d356 f13e ad6e 1d3f 3ec4 323f ec21 fb3e
00000080: 69d6 2a3f f1af 9e3d 37fd 0c3f e7ac 703f
00000090: f0f2 e63e e02c 293f b188 143e 7d96 083f
000000a0: 1a89 993e 1acc 2b3e fbc4 f33e 4c36 243f
000000b0: 7442 cd3e a932 c43e 22a7 c13e 182c 943e
000000c0: 6a3a 683e 88ac 873e

bachnorm1.bias f4 [50]
0.11706083 -0.56154126 0.28421402 0.6384016 0.61567557 -0.26302722 -0.5854528 0.6120403
-0.38734198 -0.13392416 -0.38159332 0.44536147 -0.5998649 0.36722928 0.121016085 0.55640316
0.57862985 0.5387266 0.46509445 0.19417028 0.82829916 -0.5035871 -0.8255351 0.38936573
-0.4354936 -0.7017294 -0.2135906 0.67561466 0.85730153 -0.6194034 0.6791968 -0.45933822
0.42561448 -0.42355242 -0.4931124 0.7319095 0.84039474 0.58805996 -0.7019686 0.06324474
-0.04982888 -0.5522156 -0.48011997 0.4259655 0.3358132 0.8241094 -0.329111 -0.63483137
-0.23993345 -0.07859581
00000000: 97bd ef3d 2bc1 0fbf 8084 913e 4a6e 233f
00000010: ea9c 1d3f 81ab 86be 3ce0 15bf acae 1c3f
00000020: b051 c6be 6a23 09be 3360 c3be 6b06 e43e
00000030: bf90 19bf 7a05 bc3e 48d7 f73d 7070 0e3f
00000040: 1621 143f fde9 093f dc20 ee3e 93d4 463e
00000050: 6a0b 543f 16eb 00bf 4556 53bf f25a c73e
00000060: 04f9 debe 8aa4 33bf 7fb7 5abe 15f5 2c3f
00000070: 1d78 5b3f 3991 1ebf d7df 2d3f 612e ebbe
00000080: 24ea d93e dddb d8be 3a79 fcbe 6c5e 3b3f
00000090: 1c24 573f 198b 163f 37b4 33bf 7586 813d
000000a0: 5e19 4cbd 005e 0dbf 49d2 f5be 2618 da3e
000000b0: b5ef ab3e d5f8 523f 3d81 a8be 4f84 22bf
000000c0: 1db1 75be d7f6 a0bd

bachnorm_conv1.weight f4 [6]
1.2929655 0.4136994 1.5283176 0.7999735 0.879508 1.3562526
00000000: e57f a53f 68d0 d33e e99f c33f 10cb 4c3f
00000010: 7027 613f af99 ad3f

bachnorm_conv1.bias f4 [6]
-0.58035284 -0.20574014 -0.34319204 -0.24112439 0.2831705 0.07238853
00000000: 0192 14bf 8bad 52be deb6 afbe 50e9 76be
00000010: b9fb 903e 7040 943d

bachnorm_conv2.weight f4 [3]
0.47758934 0.98751044 0.6447858
00000000: 9786 f43e 7ccd 7c3f af10 253f

bachnorm_conv2.bias f4 [3]
-0.56860346 -0.3591354 0.34831208
00000000: ff8f 11bf 98e0 b7be f655 b23e
