Results/BROWNIAN_v1/best_model_becker.pt (torch, 199135 bytes, 5 tensors)

dense1.weight f4 [50, 980]
-0.0069133453 0.2846589 0.28354356 -0.28695384 -0.29572293 -0.30158484 -0.32843277 -0.33089426
-0.31302568 -0.31054425 -0.28748152 -0.2767273 -0.32514426 -0.30331984 -0.30021054 -0.28293258
-0.29963088 -0.297588 -0.27626517 -0.29862756 -0.31329912 -0.31685612 -0.29443696 -0.32056856
-0.3102521 -0.3218113 -0.28552446 -0.3272675 -0.32262447 -0.27187258 -0.31778887 -0.32950982
-0.33149165 -0.32244232 -0.2914178 -0.30962133 -0.3034955 -0.31918868 -0.3231381 -0.32912752
-0.31659922 -0.327467 -0.29251453 -0.28985816 -0.2987001 -0.29736644 -0.3103636 -0.32593894
-0.3119731 -0.28951555 -0.33082005 -0.3086139 -0.2967701 -0.31189835 -0.27414045 -0.2858475
-0.31377855 -0.3136041 -0.3182078 -0.283078 -0.276892 -0.3191247 -0.2799198 -0.29580194
-0.33094072 -0.30533928 -0.29335278 -0.28305805 -0.2776761 -0.27299058 -0.2977924 -0.27921113
-0.31064588 -0.2997255 -0.30893648 -0.287764 -0.28689063 -0.31354436 -0.31899202 -0.27036002
-0.30856442 -0.308527 -0.3224989 -0.32876408 -0.29555398 -0.2782668 -0.29130647 -0.3110959
-0.29485393 -0.31616634 -0.30861437 -0.31197453 -0.31721768 -0.30184093 -0.31198183 -0.33136877
-0.27250594 -0.285428 -0.27976045 -0.2688459 -0.27785912 -0.31865495 -0.27779412 -0.3067118
-0.26859707 -0.27751273 -0.3222269 -0.29458788 -0.27222517 -0.29000694 -0.31091154 -0.27486
-0.2890361 -0.3018911 -0.2960068 -0.31748867 -0.29623687 -0.32890308 -0.27260846 -0.3196954
-0.28565583 -0.27350044 -0.27135012 -0.32463935 -0.28924164 -0.3125991 -0.28523478 -0.28012103
-0.2906588 -0.2722707 -0.26877555 -0.32262963 -0.3095404 -0.27726308 -0.28164542 -0.29885346
-0.30048087 -0.3152591 -0.2880411 -0.29527903 -0.2946296 -0.3293114 -0.30262864 -0.27173597
-0.2810431 -0.27999464 -0.2683783 -0.29370585 -0.29649922 -0.3068082 -0.31804258 -0.32217565
-0.28719315 -0.3289125 -0.31865364 -0.31349498 -0.27174222 -0.28918546 -0.32680205 -0.32384038
-0.3078452 -0.3108121 -0.29129148 -0.30317482 -0.31837836 -0.2917193 -0.27408367 -0.30996814
-0.28305027 -0.31515926 -0.30761763 -0.31321275 -0.2883454 -0.31640813 -0.30736533 -0.28446832
-0.32138157 -0.31510758 -0.31094235 -0.327865 -0.30325684 -0.29717332 -0.2866 -0.2848923
-0.31255835 -0.30890858 -0.27286088 -0.26966217 -0.31192276 -0.27470306 -0.32687172 -0.28137612
-0.29701343 -0.32146394 -0.27424875 -0.3095606 -0.26930973 -0.29143125 0.27450636 -0.32440442
-0.29259193 -0.30417192 -0.28282875 0.27847454 0.29467607 0.3002774 0.30151847 0.30739257
0.29496914 -0.32845598 -0.30437723 -0.30526364 -0.30895633 -0.29813433 -0.282548 -0.27396172
-0.330819 -0.30093813 -0.32311964 -0.29262567 -0.31067783 -0.27099982 -0.29275623 -0.27104208
-0.3185773 -0.2737839 -0.41939586 -0.41745603 -0.3374952 -0.32856125 -0.38818094 -0.38337305
-0.41196996 -0.32072964 -0.35072583 -0.46405026 -0.3414394 -0.31995577 -0.34390563 -0.3273177
-0.36510637 -0.34336442 0.20147571 -0.53875375 -0.40863225 0.14090964 0.27039722 0.24279149
0.28269216 0.24368738 0.30051017 0.28791597 0.2564675 0.27740344 0.2942733 0.313199
00000000: 5889 e2bb d0be 913e 9f2c 913e 9deb 92be
00000010: ff68 97be 5469 9abe 5728 a8be f96a a9be
00000020: e744 a0be a8ff 9ebe c730 93be 33af 8dbe
00000030: 4f79 a6be bd4c 9bbe 32b5 99be 8adc 90be
00000040: 3869 99be 745d 98be a172 8dbe b6e5 98be
00000050: be68 a0be f73a a2be 71c0 96be 9021 a4be
00000060: 5dd9 9ebe 73c4 a4be 4330 92be 9b8f a7be
00000070: 092f a5be e232 8bbe 39b5 a2be 83b5 a8be
00000080: 46b9 a9be 2917 a5be b734 95be b086 9ebe
00000090: c363 9bbe b36c a3be 5b72 a5be 6783 a8be
000000a0: 4b19 a2be c1a9 a7be 77c4 95be 4a68 94be
000000b0: 38ef 98be 6a40 98be fae7 9ebe 78e1 a6be
000000c0: f0ba 9fbe 623b 94be 3f61 a9be a402 9ebe
000000d0: 40f2 97be 24b1 9fbe 235c 8cbe 9b5a 92be
000000e0: 95a7 a0be b790 a0be 22ec a2be 9aef 90be
000000f0: cac4 8dbe 5064 a3be a651 8fbe 5a73 97be
00000100: 1071 a9be 6e55 9cbe 5632 96be fcec 90be
00000110: 902b 8ebe 6cc5 8bbe 3f78 98be c3f4 8ebe
00000120: fa0c 9fbe 9f75 99be ec2c 9ebe ce55 93be
00000130: 54e3 92be e388 a0be ec52 a3be a16c 8abe
00000140: 28fc 9dbe 40f7 9dbe 931e a5be c453 a8be
00000150: da52 97be fc78 8ebe 1f26 95be f647 9fbe
00000160: 18f7 96be 8ee0 a1be b402 9ebe 20bb 9fbe
00000170: 5b6a a2be e58a 9abe 15bc 9fbe 2ba9 a9be
00000180: e685 8bbe 9e23 92be c33c 8fbe 2ba6 89be
00000190: 8d43 8ebe be26 a3be 083b 8ebe 5409 9dbe
000001a0: 8e85 89be 2616 8ebe edfa a4be 39d4 96be
000001b0: 1961 8bbe ca7b 94be cc2f 9fbe 73ba 8cbe
000001c0: 8afc 93be 7891 9abe 348e 97be e08d a2be
000001d0: 5cac 97be fc65 a8be 5693 8bbe 1eaf a3be
000001e0: 7b41 92be 4008 8cbe 67ee 8abe 2137 a6be
000001f0: 7b17 94be fd0c a0be 4b0a 92be 066c 8fbe
00000200: 3bd1 94be 1167 8bbe f39c 89be b62f a5be
00000210: 147c 9ebe 6df5 8dbe d433 90be 5203 99be
00000220: a1d8 99be a469 a1be 207a 93be d02e 97be
00000230: b1d9 96be 819b a8be 24f2 9abe fa20 8bbe
00000240: e2e4 8fbe 755b 8fbe e168 89be 9d60 96be
00000250: bfce 97be f715 9dbe 7ad6 a2be 35f4 a4be
00000260: fb0a 93be 3867 a8be 9226 a3be 6a82 a0be
00000270: cc21 8bbe 1e10 94be 9952 a7be 68ce a5be
00000280: e39d 9dbe c322 9fbe 2824 95be bb39 9bbe
00000290: 7d02 a3be 3b5c 95be b254 8cbe 25b4 9ebe
000002a0: f7eb 90be 8e5c a1be 0f80 9dbe 6c5d a0be
000002b0: 02a2 93be 3f00 a2be fd5e 9dbe d5a5 91be
000002c0: 208c a4be c855 a1be d633 9fbe ecdd a7be
000002d0: 7b44 9bbe 1a27 98be 3cbd 92be 67dd 91be
000002e0: a607 a0be 4429 9ebe 6cb4 8bbe 2911 8abe
000002f0: 57b4 9fbe e1a5 8cbe bb5b a7be 8810 90be
00000300: 2512 98be ec96 a4be 556a 8cbe ba7e 9ebe
00000310: f7e2 89be 7a36 95be 198c 8c3e 5618 a6be
00000320: 9cce 95be 6cbc 9bbe eece 90be 3794 8e3e
00000330: c8df 963e f6bd 993e a160 9a3e 8f62 9d3e
00000340: 3206 973e 622b a8be 55d7 9bbe 844b 9cbe
00000350: 862f 9ebe 10a5 98be 22aa 90be b644 8cbe
00000360: 1c61 a9be 9014 9abe f06f a5be 08d3 95be
00000370: 2a11 9fbe 7dc0 8abe 25e4 95be 07c6 8abe
00000380: 901c a3be 672d 8cbe 0ebb d6be ccbc d5be
00000390: 2ccc acbe 2e39 a8be a7bf c6be 7949 c4be
000003a0: baed d2be ad36 a4be 5692 b3be ff97 edbe
000003b0: 25d1 aebe 3ed1 a3be 6614 b0be 3096 a7be
000003c0: 39ef babe 76cd afbe a64f 4e3e c4eb 09bf
000003d0: 3f38 d1be 9e4a 103e 8171 8a3e 559e 783e
000003e0: 07bd 903e 2f89 793e 78dc 993e b969 933e
000003f0: b54f 833e d307 8e3e fdaa 963e 9f5b a03e

dense1.bias f4 [50]
-0.4361374 -0.28626838 -0.32278505 0.1488837 -0.39299288 0.25496042 -0.0031731024 -0.24652927
0.33054522 0.29867852 0.30294836 0.41359743 -0.32492712 0.27954316 0.31790358 0.33201525
-0.3741805 0.33151847 -0.29639924 -0.31658858 -0.496322 0.3002808 0.31228188 -0.32190824
-0.13098207 -0.3114714 -0.29420185 -0.2949604 0.27355492 -0.26969138 -0.28984514 0.28380075
0.29165012 -0.28886893 -0.30507156 0.30297968 0.29950273 0.29954824 0.30432442 0.3197368
-0.3020915 0.31659415 0.32878196 0.2893693 -0.24470578 0.3210961 -0.28353795 -0.1932941
-0.3043968 -0.06971764
00000000: 674d dfbe c591 92be 1544 a5be f874 183e
00000010: 5d36 c9be 2c8a 823e d3f3 4fbb 2b72 7cbe
00000020: 393d a93e 64ec 983e 0c1c 9b3e 0bc3 d33e
00000030: d95c a6be 4820 8f3e 42c4 a23e e7fd a93e
00000040: 9694 bfbe cabc a93e a4c1 97be e617 a2be
00000050: eb1d febe 68be 993e 69e3 9f3e 28d1 a4be
00000060: 2a20 06be 2e79 9fbe a0a1 96be 0d05 97be
00000070: 640f 8c3e fd14 8abe 9566 94be 554e 913e
00000080: 2a53 953e a1e6 93be 5732 9cbe 2720 9b3e
00000090: 6c58 993e 635e 993e 69d0 9b3e 8bb4 a33e
000000a0: bdab 9abe a118 a23e 1c56 a83e 3628 943e
000000b0: 2794 7abe b566 a43e e32b 91be e3ee 45be
000000c0: e6d9 9bbe 1fc8 8ebd

dense2.weight f4 [1, 50]
-0.687285 0.016771806 -0.45519382 0.36376435 0.0066849976 -0.11956976 0.14829487 -0.33683103
0.15504007 0.19783966 0.37079468 0.019930981 -0.6812301 -0.14277382 -0.04093261 -0.11559939
0.30484954 0.26607686 0.70092505 -0.62289906 0.35089433 0.038328372 -0.010519271 0.34320486
-0.8515754 0.02330941 0.0184017 -0.5484623 0.13981326 -0.08623711 0.32060122 -0.23652591
-0.26189622 0.4064301 -0.4495896 -0.15259619 0.06474604 -0.010789416 0.05919155 0.03784246
-0.33956257 0.038871378 -0.10991012 -0.34847406 -0.92597413 -0.1506036 0.48777172 -0.2392654
-0.34495088 0.09547625
00000000: e9f1 2fbf 0765 893c 2a0f e9be 523f ba3e
00000010: d30d db3b fee0 f4bd 9cda 173e 1e75 acbe
00000020: d3c2 1e3e 7b96 4a3e cdd8 bd3e 4c46 a33c
00000030: 1965 2ebf 4d33 12be f4a8 27bd 5fbf ecbd
00000040: 3d15 9c3e 3a3b 883e d36f 333f 5076 1fbf
00000050: 6ca8 b33e 36fe 1c3d 0559 2cbc 8cb8 af3e
00000060: d800 5abf 60f3 be3c 29bf 963c 0668 0cbf
00000070: 352b 0f3e 159d b0bd d825 a43e d933 72be
00000080: 4317 86be 9b17 d03e 9c30 e6be 2d42 1cbe
00000090: 9299 843d 17c6 30bc d772 723d b200 1b3d
000000a0: 25db adbe 9837 1f3d 8f18 e1bd 316b b2be
000000b0: a40c 6dbf d537 1abe 37bd f93e fd01 75be
000000c0: 679d b0be 0d89 c33d

bachnorm1.weight f4 [50]
1.1161118 0.69973814 0.6997388 1.0547186 0.5730266 0.6355398 0.8556879 1.2345061
0.600542 0.87438637 1.1733885 0.67671686 1.113336 0.82174927 0.45790368 0.5433885
0.62897825 0.95816743 1.3002622 0.9082532 1.1679015 0.4497056 0.40640587 0.85474277
0.6997557 0.17517948 0.69917643 0.69974196 0.32288435 0.6997438 0.6997403 0.92532104
0.93473 0.69973886 1.1039468 0.5021574 0.34764823 0.5107593 0.29524863 0.45560062
0.987762 0.30925307 0.4189508 1.1152456 1.6237279 0.7851176 1.2243904 0.7719147
0.8579062 0.7085728
00000000: c0dc 8e3f 0a22 333f 1522 333f 0501 873f
00000010: dfb1 123f bdb2 223f 5d0e 5b3f 4c04 9e3f
00000020: 1fbd 193f c9d7 5f3f 9831 963f 513d 2d3f
00000030: cb81 8e3f 295e 523f 5a72 ea3e 821b 0b3f
00000040: b804 213f 764a 753f fe6e a63f 4883 683f
00000050: cc7d 953f d03f e63e 6e14 d03e 6cd0 5a3f
00000060: 3123 333f 4062 333e 3afd 323f 4a22 333f
00000070: 1951 a53e 6922 333f 2e22 333f d7e1 6c3f
00000080: 774a 6f3f 1622 333f 214e 8d3f 638d 003f
00000090: f3fe b13e 1fc1 023f d42a 973e 7c44 e93e
000000a0: f8dd 7c3f 6b56 9e3e b880 d63e 5ec0 8e3f
000000b0: 51d6 cf3f 78fd 483f d3b8 9c3f 349c 453f
000000c0: be9f 5b3f 0765 353f

bachnorm1.bias f4 [50]
0.8631595 0.25848094 0.61319286 -0.7949104 -0.09426212 -0.201765 -0.7508387 0.7185956
-0.3024917 -0.57891196 -0.693393 -0.58793443 0.78412294 0.71199405 -0.12035889 -0.1521265
-0.5689636 -0.5855254 -0.81764394 0.6798489 -0.76939064 0.16238478 0.5528293 -0.717551
0.77761286 0.04284981 0.30196968 0.6191626 -0.44828668 0.14085619 -0.515228 0.8307374
0.7425547 -0.5851739 0.79434294 0.3243784 0.15806147 0.58588916 -0.41142696 -0.633735
0.75336254 -0.111074746 -0.09181664 0.7458607 0.860958 0.6801846 -0.8586054 0.7489958
0.6881837 -0.59037167
00000000: 05f8 5c3f 9d57 843e 35fa 1c3f 3f7f 4bbf
00000010: 800c c1bd 7c9b 4ebe f736 40bf e2f5 373f
00000020: 31e0 9abe 9333 14bf 3482 31bf df82 16bf
00000030: 48bc 483f 3e45 363f b97e f6bd 0dc7 1bbe
00000040: 99a7 11bf fee4 15bf 1d51 51bf 940a 2e3f
00000050: c9f6 44bf 3248 263e 3986 0d3f 6cb1 37bf
00000060: a311 473f 4883 2f3d c59b 9a3e 7181 1e3f
00000070: d585 e5be 9b3c 103e fbe5 03bf 35ab 543f
00000080: 1118 3e3f f5cd 15bf 0f5a 4b3f ed14 a63e
00000090: deda 213e d5fc 153f 8ea6 d2be 753c 22bf
000000a0: 5edc 403f 287b e3bd 5d0a bcbd baf0 3e3f
000000b0: be67 5c3f 9420 2e3f 90cd 5bbf 30be 3f3f
000000c0: cf2c 303f 9922 17bf
