Results/BROWNIAN_v1/best_model_cnn.pt (torch, 298015 bytes, 13 tensors)

conv1.weight f4 [6, 2, 3]
00000000: 3f15 87bd b06e 6fbe d923 6cbe 5869 f43e
00000010: 42d3 d53e 0ec8 843e 8770 54be 89b1 77be
00000020: f035 883e dc65 043e 74fc de3e cad0 0f3f
00000030: c7a2 01bf e5d9 833e e418 e1be ba64 35be
00000040: b946 00bf f8ba 17bf 2161 ce3e 69a0 b6be
00000050: d4f5 14be 5d45 1abf 7ee5 5dbe 038d c1be
00000060: 5370 bebe 14be 37bf 13f4 353d ab23 153d
00000070: b0c0 ccbc f0b0 0d3f 47b7 503d 0662 60bf
00000080: a02c e9be 243c 3cbf 7f15 25be ac90 e9be
-0.06595849 -0.23382068 -0.2306055 0.4773662 0.4176274 0.2593388 -0.20746051 -0.24188818
0.2660365 0.12929481 0.4355198 0.5617796 -0.50639004 0.25752178 -0.43964303 -0.17714205
-0.50107914 -0.59269667 0.40308478 -0.35669258 -0.14546901 -0.6026209 -0.21669576 -0.37802896
-0.37195072 -0.7177441 0.04442222 0.03641097 -0.024994224 0.5534811 0.050956037 -0.8764957
-0.4554186 -0.7352927 -0.16121481 -0.45618188

conv1.bias f4 [6]
00000000: e482 663e b15d e8bd 1d51 15bf 91c0 10bf
00000010: e2e8 523e 0275 e5bc
0.22510868 -0.11345995 -0.58326894 -0.56543833 0.2059665 -0.028009895

conv2.weight f4 [3, 6, 3]
00000000: eb73 673e cb80 893e db59 f23d e463 a93e
00000010: 2f36 413e 31ac 1c3d 047c d63e f64a 0e3f
00000020: cfb8 373e 2c55 a2bd bbed 3fbd 71c8 27be
00000030: a3b2 bdbd 1157 c03e 062a 923a 4a8a 603e
00000040: 951a 0b3e 111d ac3e 57fb 813d f28a 1fbe
00000050: 9e7b babe 17e3 a23e caec 873d d9fa 163e
00000060: 49d1 2abe 8572 af3e 3a43 d53e 87b2 723f
00000070: 6b71 0f3e 9e0f d73e d85b b8bd 533c d03b
00000080: b785 7fbe 35f0 6a3e 2c48 323d 0270 1cbe
00000090: 8539 d1be 3be1 adbd ed81 c7be 28ba a5be
000000a0: b701 9abe 077a 11bf 5082 a8be 1400 54be
000000b0: a328 babe b158 273e 208d e3be e3ff d1bd
000000c0: 979d d6be 77fa f9be a72a 0abf 7ac9 f6be
000000d0: 12ca b9be f9a9 a4be
0.22602813 0.26856074 0.11833545 0.33084023 0.18868326 0.038250152 0.4189149 0.5558313
0.17941593 -0.079264015 -0.046857577 -0.16385056 -0.09262588 0.37566426 0.001115144 0.21927753
0.13584359 0.33615926 0.063467674 -0.15580347 -0.36422437 0.3181388 0.06636961 0.14744128
-0.16681398 0.3426706 0.41652852 0.9480366 0.1400811 0.42004102 -0.09001893 0.0063548475
-0.24953352 0.22943194 0.04352586 -0.15277103 -0.40864196 -0.08490225 -0.38966313 -0.32368588
-0.30079433 -0.56826824 -0.3291192 -0.20703155 -0.36359128 0.16342427 -0.44443607 -0.10253885
-0.41917107 -0.48823902 -0.5397133 -0.4820059 -0.3628698 -0.3216093

conv2.bias f4 [3]
00000000: dd5c b73e 03a9 88be f83f 703e
0.35813037 -0.26691446 0.23461902

dense1.weight f4 [50, 1460]
00000000: 757c 8cbc d854 b43e b34e 49be d976 2fbe
00000010: c8ed 87bd 7608 d5bd 4177 36be b15f c0bd
00000020: 8e28 e43e bb88 61bd 5805 6bbe 75ec 8ebe
00000030: 05fb f43b 3a0a 3fbe e438 febd 030c d0bd
00000040: c3c1 30be a9af 033f 7483 dc3e 49f3 29be
00000050: b5a6 1f3d 6ebc 5fbe 5f0b 39be 0507 073d
00000060: ce16 43be 3581 46be c3bd 83be 7d6d 85be
00000070: 8124 3bbe 4960 91be d21f 46be 76b8 ab3e
00000080: 60d5 063f 5a49 85be d158 4bbe 7983 89be
00000090: 02fc 83be 3bb8 37be 1e64 88be c235 ad3e
000000a0: 7bc7 9e3c 9b6a a13d af06 54be beef 99be
000000b0: 4f91 a93e 7cfc 8cbe 7aaa 54be 9be9 76be
000000c0: 4fa8 d1be 15a0 bcbe 4e07 cebe ca2d dbbe
000000d0: 1ac4 dcbe 170a 8dbd 5566 e6be 68d0 e0be
000000e0: 4cce a5be 7bf9 443e 8d76 0eba d542 11be
000000f0: 0dd7 d4be 581d d5be f4a5 c3be faec a7be
00000100: 1b82 cdbe 7787 e2be 4552 c6be e8ac b3be
00000110: ad9b c5be 084d babe 7d5f 6abc 73cd bcbe
00000120: 4eb9 d3be b754 cabe db11 263e ff46 d7be
00000130: 07bf c3be 43fd d7be be20 04be 8a11 da3d
00000140: 53fc b4bd 4da9 beba ffd0 bf3d 3f16 d2be
00000150: 3258 d1be e591 d5be 4ec2 cbbe d0b9 413e
00000160: 613c 933c b62e e5be 830a c1be 95e9 c4be
00000170: 9572 8bbd d4b1 873d c0a8 fabd 95fe b4be
00000180: 6338 debe 2d2b 6f3e c2d1 ac3c 1d52 a0bd
00000190: 3655 3b3d a2dc bf3a a821 57bd 20ac e8bd
000001a0: c6e6 7bbe 193f d8bd ac05 433d 137a 5f3c
000001b0: 12ce 49be c266 0cbd 980e 56bd 846e b9be
000001c0: 966f 8b3d 5c2e 39bc 18a1 b9be 3e73 8cbc
000001d0: de5d 173d 62ce e3be 810f c2be c0e5 2f3c
000001e0: a8d1 a9bd 7c80 f6bd ff9a b8be e07b aebd
000001f0: 69a6 89bd 027f 1bbe 83f4 b6be 06cd f1bd
00000200: fb8f 82bd 81b0 d4be 0105 c63c 0860 c4bb
00000210: be1e dabe 60c2 d9be 1364 a4be a90b 38bc
00000220: 0ca7 123e e052 1a3d 3fa9 473e 5c55 c9be
00000230: 50a6 bfbb e827 e5be a70d d0be 2a7f 97bc
00000240: 021d f43d 962d bebe 3a73 febd 61d6 d5be
00000250: 342b e3be 287c f83d cc70 d6be 8cd7 5ebd
00000260: 2144 c33d 733b 93bd 77a8 873d 47a6 93bd
00000270: 527d a13d a810 bcbe 31e4 debe 13f5 c4be
00000280: d4ac bdbe 6444 cbbe bd7f dfbe 9359 e1be
00000290: e2eb 8ebe 67b8 9bbd 177d d8be c25b d3be
000002a0: 601f 0bbe 0ca6 83bc e54e d6be 0569 663d
000002b0: 9e18 323e 3719 b3be 6003 b7be a5d4 0cbd
000002c0: 6be9 cfbe 2080 cfbe 5052 003e 9e36 bcbe
000002d0: 14f9 00bd 426f cabe 6508 d5be bf2d 01bd
000002e0: 8508 e7be fdaa b6be 890a 8b3d 88d4 b4be
000002f0: 5b4b c5be 4d63 793d 9817 cfbe 82d2 40bd
00000300: d657 cabe beb7 a8bd 0470 d8be c350 c4be
00000310: 3283 ec3d 78b8 b1bd fd6a d0be c720 e4be
00000320: bb08 353e 1ced d4be 8628 d2be bcd4 c2be
00000330: d0db c33d 4278 c9be af2c e2be f8fc d33d
00000340: 2caa e3be a604 dfbe 2dec d3be 36cd a83c
00000350: b375 953d 610e c4be 3783 dbbe 0876 d63d
00000360: 362a 493e 3856 c5be 2edf debe 5f78 c7be
00000370: 15e5 c5be cb7b cfbe 47c8 c0be b1a8 3f3e
00000380: e16e d2be a6a0 c2be 1179 b7be f0ff d1be
00000390: 439d e6bd 202f d8be de3d bc3d 3845 b9be
000003a0: 0768 b5be 96e3 d7be 9629 103e d8a2 b7bd
000003b0: 7063 cfbe 6b57 93be e209 8fbc 18d5 cbbd
000003c0: 9e08 e0be 07e4 dabe db09 bf3d c378 c5be
000003d0: d244 2e3e af90 fdbb 574e d1be 7e2e 443d
000003e0: 7373 dfbe 119c b4be 7630 573e 742f 7ebe
000003f0: 6f31 d9bd 85ed 443e 8677 acbe 50ac d3be
-0.01714919 0.3522098 -0.19658928 -0.1713518 -0.0663715 -0.104020044 -0.1781893 -0.09393252
0.4456219 -0.055062037 -0.22951257 -0.27914777 0.007476213 -0.18656245 -0.12413195 -0.10158541
-0.17261414 0.5143991 0.4306904 -0.16596712 0.038977344 -0.21849224 -0.18070744 0.03296568
-0.19051668 -0.19385226 -0.25730714 -0.26060095 -0.18275644 -0.28393772 -0.19348076 0.3353917
0.52669334 -0.26032525 -0.198581 -0.26858118 -0.25778204 -0.17941372 -0.26638883 0.33830076
0.01938223 0.078816615 -0.20705675 -0.3006572 0.33118674 -0.2753638 -0.20768157 -0.24112551
-0.40948722 -0.36840883 -0.40239948 -0.42808372 -0.43118364 -0.0688669 -0.44999948 -0.43909
-0.32383955 0.19235794 -0.00054345356 -0.1418565 -0.4157032 -0.4162395 -0.3821255 -0.32797986
-0.40138325 -0.44243976 -0.38734642 -0.35092854 -0.38595334 -0.36386895 -0.014304993 -0.36875495
-0.41352314 -0.39517757 0.16217749 -0.42046353 -0.3823168 -0.4218541 -0.12903115 0.106478766
-0.088371895 -0.0014546305 0.09366035 -0.41032597 -0.408876 -0.4171287 -0.3979668 0.18918538
0.017973127 -0.447622 -0.37703332 -0.3845946 -0.06808964 0.06625715 -0.12239218 -0.3535048
-0.43402395 0.23356314 0.021096114 -0.07828162 0.04573556 0.0014637897 -0.05252233 -0.11360955
-0.24599752 -0.1055891 0.04761283 0.013639945 -0.19707516 -0.034277685 -0.05226001 -0.3621713
0.06808393 -0.011302557 -0.36255717 -0.017144796 0.036954753 -0.44493395 -0.37902454 0.010735929
-0.08291942 -0.12036225 -0.36055753 -0.08519721 -0.06721193 -0.15185168 -0.35733423 -0.11806683
-0.06375118 -0.41540912 0.024172308 -0.005992893 -0.4260158 -0.4253111 -0.321076 -0.011233249
0.14321536 0.037676692 0.19498156 -0.39322937 -0.0058486834 -0.4475701 -0.40635416 -0.018493254
0.11919595 -0.37144154 -0.124243215 -0.4176512 -0.443689 0.12133056 -0.41882932 -0.05440478
0.09534479 -0.071890734 0.06623929 -0.07209449 0.07885231 -0.36731458 -0.4353347 -0.38468227
-0.3704592 -0.39700615 -0.43652144 -0.44013652 -0.2791434 -0.07603531 -0.42282936 -0.41280943
-0.13586187 -0.016070388 -0.41857067 0.0562525 0.17392203 -0.34980175 -0.35744762 -0.03438248
-0.4060777 -0.4052744 0.125314 -0.3676042 -0.03148754 -0.39538008 -0.41607967 -0.031537767
-0.45123687 -0.3567733 0.06789119 -0.35318398 -0.38534054 0.060885716 -0.40447688 -0.047075756
-0.39520139 -0.08238171 -0.4227296 -0.38342866 0.11548461 -0.08677763 -0.40706626 -0.44556257
0.17679112 -0.4158715 -0.41046542 -0.38052928 0.0956341 -0.39349562 -0.44174716 0.10350984
-0.44465768 -0.43558234 -0.41391125 0.020605665 0.0729784 -0.3829222 -0.42873546 0.104717314
0.19645008 -0.38542342 -0.43529648 -0.38959023 -0.38651338 -0.40524134 -0.376528 0.18716694
-0.4110022 -0.3801319 -0.35834554 -0.41015577 -0.11260464 -0.42223454 0.09191488 -0.36185622
-0.3543093 -0.42165822 0.14078364 -0.08966607 -0.40505552 -0.28777632 -0.017460767 -0.09952754
-0.43756574 -0.42752096 0.09328052 -0.38568696 0.1701844 -0.007738195 -0.4088008 0.0478959
-0.43642768 -0.3527532 0.2101458 -0.2482279 -0.10605132 0.19231232 -0.3368494 -0.41342402

dense1.bias f4 [50]
00000000: 09c6 bbbe c930 aa3d 34f6 9abe c678 bb3e
00000010: 5677 b4be d55d 3abe 413d 68bd 45b1 773e
00000020: 81b1 853e 557e e9bd e791 8ebe cfab d13e
00000030: 3cc0 953e 387a 9b3e 646a 953e 13d5 a6be
00000040: 4a86 b1be e84a 96be 4777 e9be 18c3 d33e
00000050: efe8 c23e 9280 833e 6c30 dcbd 42d3 cbbe
00000060: 1c76 8dbe cfa0 8b3e 3ac5 a73e 94cd 113f
00000070: ec97 993e bdf5 a6be afd2 d83e a5d8 97be
00000080: 3459 b3be aec5 ac3e 63f9 883e d3bc e53e
00000090: 6223 0abf 7b0d 953e 6401 96be 803e ce3e
000000a0: abbe 943e fce4 f33e 4e36 e83e da11 97be
000000b0: cc74 1f3e 4f9a 9a3e 8af7 95be 35c1 e1be
000000c0: dccd dcbe 8fd1 ba3e
-0.36674526 0.08310086 -0.30265963 0.3661558 -0.35247296 -0.18199857 -0.05669904 0.24188717
0.26111987 -0.11401049 -0.2784569 0.40951392 0.29248226 0.30366683 0.29182732 -0.32584438
-0.34672767 -0.29354024 -0.45598814 0.41359782 0.3806834 0.2568403 -0.10751423 -0.39809614
-0.27629173 0.27271125 0.3276766 0.5695431 0.2999872 -0.32609358 0.4234824 -0.29657474
-0.35028994 0.33744568 0.26752767 0.44870624 -0.5396024 0.29111847 -0.29297936 0.4028206
0.29051718 0.4763564 0.4535393 -0.29505807 0.15571898 0.30195853 -0.2929042 -0.44092718
-0.43125808 0.36488006

dense2.weight f4 [1, 50]
00000000: 2a6e 293f bb8d 72be ca86 f7bd 12cc f1bc
00000010: bff0 4bbf 0c1e c6be 6f0c 2bbd 4bc3 3cbd
00000020: a79b abba 2d46 bebd dec8 6c3e 1e3a 553d
00000030: 46f8 593d 88a8 1dbe 3194 77be e6b6 1cbf
00000040: 9592 3ebf 6646 eebe ab73 f8be 84c6 93be
00000050: 2fdf b0be 63aa 80bc 96e9 f0bd 6fae 9fbe
00000060: 1fde 5ebd 99c4 acbd 4cd7 843b 41ee e83d
00000070: 8c59 acbc 5624 783f 84d9 273e 7ff7 dabd
00000080: be42 dcbe 3649 963d d837 29be 70da 593e
00000090: 551f bcbe 5a87 c8bd 073a e5be cb19 2c3e
000000a0: e781 08be 69dc 033d ef36 0f3e 6ec6 aabe
000000b0: 767c 12be 4484 893e 452b 5abd cbe4 c83e
000000c0: ad36 c4be 93ed bf3d
0.6618372 -0.23686878 -0.12086256 -0.029516254 -0.79664224 -0.386948 -0.041759904 -0.046084683
-0.0013092653 -0.09290729 0.231235 0.052057378 0.053215288 -0.15396321 -0.24177624 -0.6121658
-0.74442416 -0.46538085 -0.48525748 -0.28862393 -0.34545276 -0.015706247 -0.11763303 -0.3118777
-0.05441105 -0.084359355 0.0040539857 0.11373568 -0.021038793 0.96930444 0.1639157 -0.106917374
-0.4301967 0.07338183 -0.16525209 0.21274734 -0.36742654 -0.09791441 -0.44770834 0.16806714
-0.13330804 0.03219262 0.13985799 -0.33354515 -0.1430529 0.26858723 -0.05326392 0.39237055
-0.38322964 0.093714856

bachnorm1.weight f4 [50]
00000000: 2268 583f 2c65 4c3f 6b6e 213f 7a2a 1b3f
00000010: cb38 853f 40d7 263f 2a7c 433f 576a 433f
00000020: 0cd6 d73e e86f 333f 415b 733f c732 0e3f
00000030: d870 e13e 6dbf 3c3f b4c1 68bd e5a5 523f
00000040: 798c a33f 2cad 533f 871e 443f 452c 3f3f
00000050: 855a 353f 008a 0c3f 6ddb 2c3f 84d8 2d3f
00000060: ec15 3a3f 54da 2d3f 678d 213f ed7f 083f
00000070: a510 073f 82fd ac3f b8fd e53e c0ba ce3e
00000080: 8000 893f 3059 cd3e 0198 283f 8cec ed3e
00000090: 18eb 583f 9460 a13e 3fe9 513f ebf6 2a3f
000000a0: e095 1d3f 5695 fd3e a7c1 da3e cec6 373f
000000b0: 9397 023f 3f20 543f fc75 303f e860 ec3e
000000c0: fca7 6b3f 7d7d 073f
0.84533894 0.79841876 0.6305911 0.6061169 1.0407957 0.65172195 0.76361334 0.76334137
0.42155492 0.7009263 0.9506112 0.5554623 0.44031405 0.7372959 -0.056825355 0.82284385
1.2777244 0.82686114 0.7660908 0.74676925 0.70841247 0.5489807 0.6752232 0.679085
0.726897 0.6791127 0.6310639 0.533202 0.5275977 1.3514864 0.44920135 0.40376854
1.0703278 0.40107107 0.6585694 0.46469533 0.84733725 0.31518996 0.8199653 0.66783017
0.61556816 0.49527997 0.4272587 0.71787727 0.51012534 0.82861704 0.6893003 0.46167684
0.920532 0.52925855

bachnorm1.bias f4 [50]
00000000: 0e55 68bf 99e2 13bf a57e e33e 541d 173f
00000010: e1cb 753f ca35 883f 0716 e0bd 65b7 493f
00000020: 4464 f6be 233c 0bbe f49e 37bf 1e91 553f
00000030: 9c54 16be d7dc 413f 254e 6d3f 2c7f 6a3f
00000040: a665 873f bffb 563f 0fd7 843f 23e6 533f
00000050: 8a11 543f eb7c 24bf 469c a8be 713d 283f
00000060: 0d5b 4bbe 9d77 e2be c576 36be 3a11 9dbc
00000070: 89fd d63e fe7e 63bf 1dee 63bf 152c 86bf
00000080: 4820 593f 69fc 0cbf 9bb0 dc3d ccd2 8bbf
00000090: 8517 c13e ed33 2b3f 23f4 363f 9c04 7dbf
000000a0: 83f3 e23e a458 efbe d4b6 40bf b55c 623f
000000b0: d065 4a3c 061f 37bf e562 e73a f635 5dbf
000000c0: 4e88 1c3f fd7e 0e3e
-0.90754783 -0.57767636 0.4443256 0.59029126 0.9601422 1.0641415 -0.109417014 0.7879546
-0.48123372 -0.13597159 -0.7172692 0.83424556 -0.14680713 0.757276 0.92697364 0.916003
1.0577896 0.83977884 1.0378131 0.82773036 0.8283926 -0.6425311 -0.32931727 0.6571875
-0.19858952 -0.44231883 -0.17818744 -0.019173253 0.41990307 -0.8886565 -0.8903521 -1.0482203
0.8481488 -0.5507265 0.10775872 -1.0923705 0.37713256 0.6687611 0.71466273 -0.9883516
0.4432641 -0.46747315 -0.75278974 0.8842271 0.012353376 -0.71531713 0.0017653374 -0.8641046
0.61145484 0.1391563

bachnorm_conv1.weight f4 [6]
00000000: da86 a03f 951a 803f cfde 843f 76b3 903f
00000010: 12dc aa3f baed 823f
1.2541153 1.0008112 1.0380496 1.1304767 1.334841 1.0228798

bachnorm_conv1.bias f4 [6]
00000000: 305e df3b f1a7 49be e62b c8be e422 80be
00000010: d2e5 a93c fdd7 833a
0.006816648 -0.19692971 -0.39095992 -0.2502662 0.02073947 0.0010058876

bachnorm_conv2.weight f4 [3]
00000000: 127f 6f3f aef2 423f e172 063f
0.9355327 0.7615155 0.5251904

bachnorm_conv2.bias f4 [3]
00000000: 4d35 c03e 756c f1bd 6cbd 673e
0.37540665 -0.11788265 0.22630852
